src/quicktune/optimizers/surrogates/pretrained/mtlbm/extended/dyhpo.pt (torch, 138466 bytes, 49 tensors)

feature_extractor.encoder.0.mlp.0.weight f4 [32, 24]
00000000: fcbd 093c 1ea9 c1bd 180b 333e aac1 e93d
00000010: 73dd f03d 4d64 1ebe 831e 243e 6f9b 6abd
00000020: bc4f 2abc d6ac b83d 1413 8cbd 2de9 763d
00000030: 285e 623d 4924 63bd 8776 45bd 6e54 06bc
00000040: c4ea 35be c3e0 303e 5902 8f3d 712f 293e
00000050: 948e 8a3e f70c 1cbe d517 1bbe d57d 113c
00000060: 5edd 293e c7bf 00be 9685 f33d c63b 80bd
00000070: 870a 983c e819 943c 7cbc 4dbe 95eb 50be
00000080: f7c2 fb3d 68b1 74bd f9ec 7ebd 6859 de3c
00000090: 0d0c 41bd 1fc3 2c3e 0d75 9c3c 3ab5 3f3e
000000a0: 1712 0e3e 40d4 303e eec2 39be 9a91 6dbd
000000b0: 3d27 a13d 297d f7bd 22d3 debd 5ce8 873d
000000c0: c4b6 0e3e 38e6 1b3e 8cee 3dbe 0490 e53c
000000d0: e210 34be 988c e63c be4f 503e b302 6cbd
000000e0: 9076 343e a976 2a3e 4363 473e 8387 88bd
000000f0: 4fe5 063d 7a59 ff3d e554 8a3a 6bf4 343d
00000100: e24a 7dbc d0c9 72bd b6a2 493e 7638 be3d
00000110: cbb9 843d 6391 ebbd 109a c2bc 4d98 523e
00000120: d148 8e3b f335 023e bf61 233e efcb ebbd
00000130: 20fd 4dbd de3b 3cbe e689 1b3e 8d84 8bbd
00000140: 4d59 19be 8e45 35be d42e 25be 33c0 8dbc
00000150: 8a73 f83c 9703 27be bec6 e5bd 8cea a5bd
00000160: 1964 8cbd cf5d 253e bb6a 98bd 493d 13be
00000170: 6772 713c 7c93 1cbe ebfe fbbc ee35 233e
00000180: 7b53 d9bd 6bb2 2b3e 54ec 3ebd c8d1 593d
00000190: a884 d8bd dc10 343e 7fa1 d03d 5ea8 88bd
000001a0: 31a7 343d 9a5c 113e 957f 6cbd c5ee 3e3d
000001b0: 4f20 d4bd d38d 173e 4e9d bc3d f4d6 73bd
000001c0: a253 383e 4827 803c 4b62 b63d 87ae 3d3e
000001d0: 7230 43be ed77 333e 5cc7 62bb 4858 6a3d
000001e0: a864 f33d 14e7 0cbe 4517 4bbe f5a9 c0bd
000001f0: 7de1 04be 4786 26bc 258c 633d 99b0 17be
00000200: 92d9 46be fe02 a0bd 38b3 b33d 4855 2cbe
00000210: 0259 66bd a6e6 cabc ea1a a23b 1df1 14be
00000220: bafc cabd fa2b 08be e02f a1bd c068 40bd
00000230: 8e9b aebd ec19 933d 9bc0 d3bd 960b 6e3c
00000240: 3fa5 a83d 2d37 11bd c678 d13d 1057 ee3d
00000250: fdbb bf3d bc2c d23d 8ad8 473d 6465 de3d
00000260: 2798 f8bd f301 babd f935 043e 0fec 69bd
00000270: 5d6f ac3d 15cd 66bd aa88 043e 4434 493e
00000280: 59cc 633e 0256 8e3d 4f71 eebd cd86 2c3e
00000290: c9d1 46bd fa12 2f3e 4891 0a3e 096d 51bd
000002a0: 47be 823d cc0e b5bd 065f 00be f734 13be
000002b0: 2857 0dbe 23e0 06be 6abd 573e e90d 26be
000002c0: 6097 7c3c e52e 2d3e cc55 ea3d 8ef4 c8bd
000002d0: 6f0d 223e fb16 3b3e b3ad 98bd dab5 93bd
000002e0: 12b7 e03d 34ae a7bd 39c5 223e 4c2c 093e
000002f0: 9614 873d 5cbb 0f3e ce69 eebb 9fa3 a6bd
00000300: d746 3a3e 729a 4bbe 231e cb3d b8bb c33c
00000310: 201b 4ebe 7279 093e c831 3abe 2ec3 4bbe
00000320: 31e4 683e d606 3b3d d8d7 d3bd f7ee b5bd
00000330: b202 c93d 621b 8e3d 32e0 393e 1c94 c4bd
00000340: 0b42 223e e947 4ebe 3ec3 ff3d 03f3 88bd
00000350: ff4b 6cbd 1d22 4bbe 44c5 403e f321 d3bd
00000360: 78a6 0e3b a46c 9f3d bb1b 3b3e 9e96 0e3e
00000370: 95ff e3bd 6caf 723e 318b 9abd a483 26be
00000380: fb0e 98bd 1e2c 453c 4e04 17be 0a8c 103d
00000390: 6c91 3dbd d42e 233e 2278 c43d 06a1 fabb
000003a0: cdbf 93bd 87ce 38be beda 653e 02c2 8f3c
000003b0: 8a5b 90bd f5a8 da3d d477 393c 40a4 40be
000003c0: 9c5b 36bb 5383 8c3c 75d1 ce3d 37a3 233e
000003d0: 4ee6 ffbd 37fe b63c 2893 19be 9454 b9bd
000003e0: a645 33be a6dd 9e3d c7f7 83bd 5d83 013e
000003f0: 5e73 8c3d 8e55 3dbe 1dfe f93d 403b 88bd
0.008407112 -0.09456085 0.174847 0.114138916 0.11760988 -0.15467949 0.16027264 -0.05727714
-0.010394987 0.09017341 -0.06839576 0.060280968 0.055265576 -0.055454526 -0.04820874 -0.008198841
-0.17765337 0.1727324 0.0698287 0.16522004 0.27061903 -0.1523932 -0.1514581 0.008880098
0.16588351 -0.12573157 0.11890714 -0.06261401 0.018559707 0.01807876 -0.20091432 -0.20402367
0.12293046 -0.0597395 -0.062237713 0.027142242 -0.047130633 0.16871308 0.019098783 0.18721476
0.13874088 0.17268467 -0.18140766 -0.058000185 0.07868812 -0.12084419 -0.10880114 0.06636116
0.13936907 0.1522454 -0.1854803 0.028022774 -0.17584565 0.028143212 0.20342919 -0.05761976
0.17623353 0.16646828 0.19471459 -0.06666472 0.03293353 0.12468238 0.0010553865 0.044178408
-0.015459748 -0.059274495 0.19690976 0.09288113 0.0648075 -0.1150234 -0.023755103 0.2056591
0.0043421765 0.12715892 0.15955256 -0.115135066 -0.050290227 -0.18382213 0.15189323 -0.068123914
-0.14975472 -0.17702314 -0.16131145 -0.017303562 0.03032853 -0.16309963 -0.11219548 -0.08101377
-0.068550296 0.16149066 -0.07442232 -0.14378847 0.014736748 -0.15290636 -0.030761203 0.15938541
-0.10611626 0.1676728 -0.0466121 0.05317858 -0.10572177 0.17584556 0.10187053 -0.066727385
0.04410476 0.14195481 -0.05773886 0.046614427 -0.10357725 0.14800195 0.09209691 -0.059531167
0.18000653 0.01564373 0.08905467 0.18523608 -0.19061449 0.17526217 -0.003460369 0.057213098
0.11884433 -0.13760024 -0.19833095 -0.09407417 -0.12976642 -0.01016385 0.055553574 -0.1481346
-0.19418934 -0.07813071 0.08774418 -0.16829407 -0.05623723 -0.024768185 0.004947056 -0.14545102
-0.09911485 -0.13298026 -0.078704596 -0.046974897 -0.085257635 0.071826786 -0.10339471 0.0145291295
0.08234643 -0.03545301 0.10228114 0.116376996 0.09362028 0.10262439 0.048790492 0.108591825
-0.12138396 -0.09082403 0.12911214 -0.05710989 0.08419678 -0.056347925 0.12942758 0.19648844
0.22245921 0.069499984 -0.11642706 0.16848297 -0.04853991 0.17097083 0.13531983 -0.051129375
0.06383949 -0.08840713 -0.12536249 -0.14375673 -0.13802779 -0.13171439 0.2106835 -0.16216244
0.01541695 0.1691242 0.11442146 -0.0981227 0.15825437 0.18270485 -0.074550055 -0.0721242
0.10972418 -0.081875235 0.15895547 0.13395804 0.06595723 0.14036316 -0.0072757965 -0.08136677
0.18191086 -0.19883135 0.099178575 0.023893222 -0.20127535 0.13425234 -0.18183053 -0.19898674
0.22743298 0.045660816 -0.10343903 -0.088834696 0.09814967 0.069388166 0.1815193 -0.09598562
0.15845506 -0.20144619 0.12488411 -0.06686976 -0.057689663 -0.19837232 0.18825251 -0.1030921
0.0021766704 0.077843934 0.18272297 0.13924643 -0.11132733 0.2369973 -0.0754608 -0.16261154
-0.07424732 0.012034444 -0.14747736 0.0352898 -0.046281263 0.15935832 0.09593226 -0.00764859
-0.072143175 -0.18047534 0.22446725 0.017548565 -0.0704871 0.10676757 0.011320073 -0.18812656
-0.00278256 0.017152464 0.100985445 0.1598023 -0.12495099 0.022338016 -0.14997542 -0.09049335
-0.17507038 0.0775712 -0.06443744 0.12647767 0.06857942 -0.18489668 0.122066714 -0.06651926

feature_extractor.encoder.0.mlp.0.bias f4 [32]
00000000: ef97 05be 86a6 46bd 88e5 173d 4525 53bd
00000010: 118a febd 8d5b a83c f136 1e3d 4c88 093e
00000020: 29e7 f6bd b4cc 333d 3eb2 c33d e2b0 d0bd
00000030: 60b2 85bc 7543 00be ee18 d63d a65f ba3c
00000040: c948 52bd 7c4b 3fbd a197 153e 64e4 88bb
00000050: 0ad0 7e3d 6947 45be 00eb db3d 2049 2cbe
00000060: dfe4 05be aa9d bebd 993d 83bd c8dc 8ebc
00000070: 331c f43c d540 583e 6c77 d8bd 48ee 99bd
-0.1304624 -0.048498653 0.037084132 -0.051549215 -0.12428678 0.020551467 0.038626615 0.134309
-0.12055809 0.043896392 0.095554814 -0.10189988 -0.016320407 -0.12525733 0.10453974 0.022750687
-0.051338945 -0.046702847 0.14608623 -0.004177617 0.06221012 -0.19265522 0.10738182 -0.1682477
-0.13075589 -0.09307416 -0.06408233 -0.017439261 0.029798603 0.21118481 -0.10569653 -0.07516152

feature_extractor.encoder.0.mlp.2.weight f4 [32, 32]
00000000: 9e63 253e c5bd 6f3c af4e 1dbe 4c4b 08bc
00000010: 262e 15be 74af 16be 530e 353e 3a92 dd3d
00000020: d58e 28be 0d2f 39be 2a2e 4a3d 03c5 9d3d
00000030: 0d7f a73a 810b abbd d9fa a13c 5e8c 913d
00000040: 634e 12be 27c8 03be e5b0 9a3d 2905 bf3c
00000050: ccb9 663d 6036 19be f64f 8dbd 5dbc a6bc
00000060: 2098 bb3d 0900 f43d b5b9 afbd f8e4 8e3d
00000070: 86fa 90bd 34fe f43d 3814 9bbd 6fd6 8abd
00000080: 50df 513d 0188 eb3d cc42 25be cf5f e43d
00000090: d054 04bd a82a ac3d 8661 ef3d 7a5c ba3d
000000a0: ef77 2a3d af25 903d 0a80 2bbe accd 0d3e
000000b0: 7172 c5bd af86 d8bd 19e5 a9bd 4c23 d83d
000000c0: 1bc8 cfbd 9bb0 133e 2a47 233e f8bb febd
000000d0: 7aa4 a0bd 7b71 cd3d dd41 213e 93a7 f43d
000000e0: a0cc 29bd cc2b 14bd 68e3 87bd 1b88 2f3d
000000f0: 9e46 4ebe 6dfc 083e 59b7 53be 4824 0c3e
00000100: 9c4b 4b3d 56c1 7f3d e348 b43c 8769 803c
00000110: 3357 2fbe 144b 0c3e 19be f9bd cf6c 13be
00000120: 9f6d 2f3e 29d5 10be df09 3abd 6ddb d0bd
00000130: 1fba 2e3e df4d 0b3c 514a 6fbd f799 08be
00000140: 2edf 243e 7fa5 80ba 9310 27bd 8e1c 93bc
00000150: 3dee 4abd eaa7 8f3c 55ce 00bd b910 15be
00000160: e2dd 38bd 7f48 e83b 73ca f93d 99fa 23be
00000170: fd03 253d 9b75 b13c 291a b13d 13be 21be
00000180: 9473 00be 4490 b43d 5cc3 b1bd 64dc e4bc
00000190: 2da3 c6bd 74cb c3bc 8289 983a 4aa6 e9bc
000001a0: fbb1 63bd 6c91 d63d 36a1 103c e760 fabd
000001b0: 75a6 353e 029d f3bd 0479 d4bd e491 0bbd
000001c0: 3a61 8cbc 4e4d 953c 582b 193e ba33 d63d
000001d0: fc20 fb3d db84 8cbd 7882 1a3d 8f43 1bbe
000001e0: b2ae 20be 1585 7bbc 18c5 2dbe 47e0 0e3e
000001f0: b2e6 2b3e ce97 3d3e db2b 82bd e698 223e
00000200: 7eec 29bc 9d57 05be 889f b2bc 4a76 72bd
00000210: a1e0 d5bc 139e 24be fae0 bdbd 0f0e b7bd
00000220: e63f d7bd 6db0 d7bd fbfe ee3d 9925 1dbe
00000230: 56ac 91bc 865a dbbd b9b9 ce3d ba06 14be
00000240: c997 0e3e 4917 4d3d efb5 c63d 7d52 0a3e
00000250: a2af f73d 0a83 653c 750e 08be 4588 f3bc
00000260: 919f fdbd bade 633c cb09 2d3e fd33 11be
00000270: 284e d03d 5a25 213e 66ed 043e 5f93 06be
00000280: 2afe 29be a693 f73d 1731 21be a083 543c
00000290: f8ff ab3c f52f c63d 037b 18bd 0dac 0abe
000002a0: a47b 923b c612 ce3d 7b27 dcbc 41d1 cdbd
000002b0: e8d6 203e fe32 d23d d19f c43c f7b8 593d
000002c0: d37a c7bd d31a 95bc 01da f43d 65eb 8f3d
000002d0: fbc7 23bd 7448 933d bd8d b83d 56a5 123c
000002e0: c5f5 20be 349e 20be a6a6 58bd 97fd fd3d
000002f0: 578d 39be bc46 94bd dbf8 c53b 66fe 1abe
00000300: 59a9 5e3e 47a3 2d3e 3931 e3bd 5847 fbbc
00000310: f5f1 0dbe 0ca1 8e3d c9c3 27be 9c54 f7bb
00000320: 4e77 623d 4ea7 033c aafe 27be 18a3 2f3d
00000330: f067 a03a 57b4 b5bc b1da 45bd d4ec 9d3d
00000340: ccff 143e 5685 e3bc 869d 303e 71d8 cdbd
00000350: bde9 03be 4cd1 56bd 71ab 2f3b 3fb1 ee3d
00000360: 216e 48bd 5ad0 0c3e 6d55 0fbd d742 913c
00000370: 0f3f 4d3c ba95 013e ab7f 093e 5bb6 22be
00000380: ef62 ccbd 5e0d 203d 93be 3b3d f1b2 40be
00000390: 77c1 033e 99bd 9a3d 3925 113e 572c 8bbd
000003a0: 0e54 ffbc 1449 193e c0c9 34be 08fc fdba
000003b0: 5019 3cbd ddaf 78bc dcd4 043b a7b7 0abe
000003c0: df75 a2bc 3cf9 38be aa0d 43bd 2240 0cbe
000003d0: afaf 223e ce00 ccbc 5f38 11be 4651 83bd
000003e0: 545a 2f3e 2be9 af3d ce0b 1f3e 5e74 213e
000003f0: e60f 8a3d e6c0 08be 64f0 ce3d 4a99 ce3c
0.16151282 0.014632647 -0.15362047 -0.008318733 -0.14568385 -0.14715368 0.17681246 0.10818906
-0.16460736 -0.18084355 0.04936043 0.07703593 0.0012778953 -0.083518036 0.019772934 0.07106851
-0.14287715 -0.12869321 0.07553271 0.02331789 0.056329533 -0.14962149 -0.06900017 -0.02035349
0.09159875 0.11914069 -0.08580343 0.06977266 -0.070790336 0.11962548 -0.07572216 -0.06779181
0.051238358 0.1150055 -0.16138762 0.111510865 -0.032307446 0.084065735 0.11688523 0.0909967
0.041618284 0.070384376 -0.16748062 0.13847989 -0.096409686 -0.10572564 -0.0829565 0.10553607
-0.10145589 0.14422838 0.15945116 -0.12438196 -0.078438714 0.1003141 0.15747781 0.11946025
-0.04145491 -0.03617458 -0.06635171 0.04285441 -0.20144126 0.13377543 -0.2067541 0.13685715
0.049632654 0.06244024 0.022007411 0.01567532 -0.17123108 0.13700515 -0.121944614 -0.14396976
0.17131661 -0.14143814 -0.04541957 -0.10198102 0.17063187 0.008502453 -0.058420483 -0.13339983
0.16100761 -0.0009814947 -0.04078729 -0.017957952 -0.049543608 0.017536122 -0.031446774 -0.1455716
-0.04513348 0.0070887203 0.12196817 -0.16013564 0.040287007 0.021662524 0.08647568 -0.15795164
-0.1254409 0.08816579 -0.0867984 -0.027937122 -0.09699092 -0.023900725 0.001163766 -0.028521676
-0.055589657 0.10476956 0.008827498 -0.12225514 0.1773928 -0.11895181 -0.103746444 -0.03407468
-0.017136205 0.018225338 0.1495794 0.10459085 0.12262151 -0.06861278 0.03772208 -0.1516249
-0.15691641 -0.015351553 -0.16969717 0.13952743 0.16787222 0.1851494 -0.06356021 0.15878639
-0.010371326 -0.13021703 -0.021804586 -0.05919484 -0.026108088 -0.16075926 -0.092714265 -0.08938228
-0.105102345 -0.105316974 0.116697274 -0.15346374 -0.017782371 -0.10710625 0.100940175 -0.14455691
0.13925089 0.050071035 0.0970267 0.1350803 0.12094046 0.014008293 -0.13286765 -0.029728064
-0.123839505 0.013908083 0.16898267 -0.14179988 0.10171157 0.15736905 0.12981185 -0.13142155
-0.16600862 0.120887086 -0.15741383 0.012970835 0.020996079 0.09677116 -0.037226688 -0.13542195
0.0044703055 0.100621745 -0.026874295 -0.10049678 0.1570698 0.10263632 0.024001988 0.05315491
-0.09740224 -0.018201267 0.119556434 0.0702732 -0.039985638 0.07191554 0.090114094 0.008950552
-0.15718754 -0.1568535 -0.052893303 0.12401884 -0.18120323 -0.07240054 0.006041629 -0.15136108
0.21744289 0.16956817 -0.11093373 -0.030673668 -0.1386183 0.06964311 -0.1638328 -0.007547928
0.05528956 0.008035494 -0.1640574 0.042880148 0.0012238007 -0.02218072 -0.048304264 0.07711187
0.14550704 -0.02777354 0.1724759 -0.100510485 -0.12882133 -0.052445695 0.0026805068 0.11654901
-0.048933152 0.13751355 -0.034993578 0.017732067 0.012527241 0.12654772 0.13427608 -0.15889876
-0.099798076 0.039075248 0.045836043 -0.1881826 0.1286677 0.07555694 0.14174356 -0.067955665
-0.03116801 0.14969283 -0.17655087 -0.0019377479 -0.045922577 -0.015178648 0.0020268476 -0.1354662
-0.019831596 -0.18063825 -0.047620453 -0.1369634 0.1588733 -0.024902727 -0.1418166 -0.06411986
0.17124301 0.08589395 0.15531847 0.15767047 0.06741314 -0.13354835 0.101044446 0.025219578

feature_extractor.encoder.0.mlp.2.bias f4 [32]
00000000: 0a6d 253e 6f4a 38bd 8e8f e1bc a252 9bbd
00000010: 4f08 1b3e 1cc4 0fbd cc81 c8bd 5606 d33d
00000020: e700 1abe a13c fc3c 81d4 07be 37ea 763d
00000030: 2007 11be 1fda c7bd 46e7 31be b515 ff3d
00000040: fdbd 383e 98b4 3dbd 1afc 403d b20e da3d
00000050: ef98 33bd 7f7a 26be 398d 303c ae4f 123e
00000060: a083 d63d e351 653d 61aa 173e 5a3a 803d
00000070: fa72 233e e69d 87bd 7091 5cbd 9dba f23d
0.16154876 -0.04499286 -0.027534273 -0.0758412 0.15139888 -0.035099134 -0.09790382 0.10303943
-0.15039407 0.030790629 -0.13264658 0.06028196 -0.14162874 -0.097584 -0.1737338 0.12455312
0.18041225 -0.046314806 0.047115423 0.10647334 -0.04384702 -0.16257666 0.010775858 0.14288208
0.10474324 0.055986296 0.14811088 0.0626113 0.15961829 -0.066219136 -0.053849638 0.11852

feature_extractor.encoder.0.mlp.4.weight f4 [32, 32]
00000000: d7c6 15be fa55 2f3e 0a0c 903d 61a1 363e
00000010: c1e9 04be c2fe a43d d963 10be 306f c1bd
00000020: f851 e9bd 7c31 98bd bfe8 1bbe c877 15be
00000030: a5ec 8d3d ba3f 2abc 9e6c b2bd 7a27 823d
00000040: 73a3 79bb 5da9 013e ef9b cc3d 0d21 fcbd
00000050: 4991 06be 2ab6 fcbd cdfc 4a3d 5f9e 49bd
00000060: 0258 f9bd 7762 a0bd 6eab b93b 712c 253e
00000070: fa5d 1b3e fc65 9f3d add5 413d 44de 28bd
00000080: 69fb 61be 2edc 723d db67 3abd 8f16 e9bd
00000090: 9eb9 9cbd 7184 7f3d 8ec3 b33d 5a83 aebd
000000a0: 4a19 90bd 1163 223d 16a5 4bbd 3cb0 18be
000000b0: 7fd3 963d 633d 10be 5b5d 88bd 48c8 a83c
000000c0: eb4b 093e b024 f5bd 4187 bc3d 78d9 853d
000000d0: 498a cabc b21a a23d af6c 38be f75e 9f3b
000000e0: e0bf 27be 249b 1f3d 2ae2 2d3e be05 90bd
000000f0: 8bdd a73d 05bd c1bc dbd9 213b 1545 0a3e
00000100: bb50 253d cba2 003e 7b8b fb3c 0560 a2bd
00000110: d829 b9bd c58c 7cbd 30ea 173e 462b 973d
00000120: fba2 a33c 0bd7 f23d c5ba d7ba b351 53bd
00000130: 83c8 3d3e 442a 193e 4a88 14be 543e f5bd
00000140: fdbe 22bd 3a07 83bd 586a a6bc a2a7 9fbd
00000150: acac 4a3d f963 e13d 70ca 003e 094c db3d
00000160: ff2a 203e 8947 18be 53c9 023e d890 213e
00000170: d2e4 a0bd 508e 0dbe f437 ce3d e8c7 103e
00000180: a5c9 68bd 4009 84bc bf95 0f3e d04d 09be
00000190: 85eb 1b3d aa86 2b3e fb67 dabc 6f25 31be
000001a0: b3f1 623d 48a3 d83d c397 f83d 5451 af3d
000001b0: 7203 bd3d 177a f3bd 023a 4b3c 0383 1d3d
000001c0: 2f80 7a3d 205d 1b3e ed2e cfbd b7f6 d93d
000001d0: 10ec 1c3e ecf8 003d 6ac6 1ebe a9ca 05be
000001e0: 4750 19be 6082 bbbc fa09 33bd 9576 76bd
000001f0: 2720 46be 7dd6 f13d e4b0 623d 1869 d93d
00000200: 6550 c5bd 3724 90bd e4e6 45bd 4b47 b0bc
00000210: d598 1dbe 755c c13d 90e0 5a3d 1931 b6bd
00000220: 55ac 80bd a56b 2f3e 89c5 dd3d ca02 a3bd
00000230: 2a70 0a3e a098 873d fceb 0bbd 2a1b 0fbe
00000240: 3169 353e 4819 263d 7c30 dd3d 072c 153c
00000250: 66ca 6c3e 9262 bdbc 0794 523d aa37 babd
00000260: 262d 943d 5772 23be 6459 8bbd bca5 bc3d
00000270: 256b f33d eec8 d1bb 8b75 12be 2978 7b3d
00000280: 0ed7 38be 4276 1f3e 6028 95bd 1667 f33d
00000290: 4bdc 213e 0b2d d13d 506c fe3d 6ec9 39bd
000002a0: 6d3d 163e 2162 f23c 1c65 05bc 3fe1 e6bd
000002b0: 5c88 02be 129d eebd affd c43c 6e7c c33d
000002c0: c98e dcbc 4922 3dbd 9cab dfbc c518 183e
000002d0: c72c acbd d772 233e 99d8 833d 0a96 91bd
000002e0: a7ec 303d c79a 18be 2f2b 573b 47c1 023e
000002f0: 45b2 3e3e 300f bc3d e1dd 97bd ff94 2c3e
00000300: a7dc 643d 0fac d9ba d01c 21be 527c fd3d
00000310: b285 54bd 600d 4fbd 2e5b 313e 3e5c 103e
00000320: 8f62 35be fdf2 d83d f8d4 ef3d cff1 8d3d
00000330: b7e2 2f3d 058d 873c d207 d0bc 4b49 fe3d
00000340: 8232 3e3e 2b11 0bbe 6690 f73d aa0e a13d
00000350: 970a 41be 7025 7ebd 36bf 8c3d a685 cb3d
00000360: 2289 17be 2347 fcbc 015c 9cbd 9921 30be
00000370: 601c ae3d 7518 c0bd a087 ec3d 6237 3a3e
00000380: 04f2 15be 5839 213d 3571 adbd 627d 05be
00000390: 5492 223e b3a6 eb3c 92ee 5e3e df76 5b3d
000003a0: 2c19 b8bd 5d65 9f3d 7976 233d 72cb 24be
000003b0: d0e0 9f3b 331b 8e3c 4ee9 18be 1045 afbd
000003c0: f9b5 aa3d 34c9 abbd a82b 1f3e e731 a3bc
000003d0: 3155 243e dafa 48be ad49 3f3e 6aa4 65bc
000003e0: 6201 a13c 362f f5bd f2cc 9cbd fc99 babc
000003f0: 8f8b f13c 6942 1abe 2be7 183e 8f68 b73d
-0.14626633 0.17122641 0.07033546 0.17834999 -0.12979795 0.08056404 -0.14100589 -0.094450355
-0.113925874 -0.074313134 -0.15225504 -0.14596474 0.06929902 -0.01039117 -0.08712123 0.06355186
-0.0038091808 0.12662263 0.099906795 -0.123109914 -0.1314136 -0.123394325 0.049557496 -0.0492233
-0.12174989 -0.07831281 0.005666188 0.16130234 0.15172568 0.07783124 0.047322918 -0.041227594
-0.22068562 0.05929201 -0.0455092 -0.11381256 -0.07652591 0.062382165 0.087775335 -0.08521147
-0.070360735 0.03964526 -0.049717985 -0.14910978 0.073645584 -0.14085917 -0.06658431 0.020603314
0.13407867 -0.11969888 0.09205485 0.065356195 -0.024724143 0.07915248 -0.1801021 0.0048636156
-0.16381788 0.038966313 0.16980806 -0.07032345 0.08196553 -0.023649702 0.0024696502 0.13502915
0.040360194 0.125621 0.030706158 -0.079284705 -0.09041184 -0.061657686 0.14835429 0.07381301
0.019975176 0.118574224 -0.001645886 -0.051591586 0.1853352 0.1495753 -0.14505115 -0.11974779
-0.039732922 -0.06397863 -0.02031438 -0.07795645 0.04948108 0.110053964 0.12577224 0.10707862
0.15641402 -0.14871038 0.12772112 0.1577791 -0.07856144 -0.13823819 0.10069266 0.14138758
-0.05683293 -0.016117692 0.14021967 -0.1340859 0.038066406 0.16750589 -0.02666091 -0.17299436
0.055406284 0.105780184 0.12138321 0.08560434 0.09229173 -0.11888521 0.012403967 0.03845502
0.0611574 0.15172243 -0.10116372 0.1064276 0.15324426 0.03148739 -0.15505376 -0.1306559
-0.1497203 -0.022889316 -0.043710686 -0.060171682 -0.19348203 0.118084885 0.055344477 0.10615748
-0.09634475 -0.070381574 -0.048315898 -0.02151837 -0.15390332 0.09441463 0.053436816 -0.088960834
-0.0628287 0.17130907 0.108286925 -0.07959516 0.1351935 0.06620908 -0.0341606 -0.13975206
0.17715909 0.040551454 0.10800263 0.009104735 0.23124084 -0.023118291 0.0514107 -0.09092648
0.07235174 -0.15961586 -0.06804159 0.09211299 0.118856706 -0.0064021265 -0.14302652 0.06139389
-0.18050787 0.15572456 -0.072830915 0.118848965 0.15806691 0.102136694 0.12423003 -0.045358114
0.1467187 0.029587807 -0.008141782 -0.11273431 -0.1274733 -0.116510525 0.024046747 0.095452175
-0.026923554 -0.046175275 -0.02730351 0.14853199 -0.08406978 0.15961777 0.06437797 -0.07108696
0.04319444 -0.14902793 0.0032832136 0.12769042 0.18622692 0.09182584 -0.07415367 0.16853712
0.055874493 -0.0016607064 -0.15733647 0.12377228 -0.051885314 -0.050549865 0.17319939 0.14097688
-0.17713378 0.10593221 0.117105424 0.06930887 0.04294082 0.016546736 -0.025394354 0.12416323
0.18573955 -0.13580768 0.12088089 0.07864125 -0.18851696 -0.062047422 0.06872408 0.09937601
-0.14798406 -0.03079564 -0.07634736 -0.17200316 0.08501506 -0.09379665 0.11549306 0.1818519
-0.14643103 0.039361328 -0.08468858 -0.13036111 0.15876132 0.028766012 0.21770695 0.05358016
-0.08989176 0.077830054 0.039907906 -0.16093233 0.0048790947 0.017346954 -0.14932749 -0.085580945
0.0833549 -0.08387986 0.15543997 -0.019921256 0.16048123 -0.19626942 0.18680449 -0.01401625
0.01965398 -0.119718954 -0.07656278 -0.022778504 0.029485492 -0.15064396 0.14931934 0.0895549

feature_extractor.encoder.0.mlp.4.bias f4 [32]
00000000: cfc8 0e3e 4bfb bb3c d836 c6bd 0c95 833d
00000010: d8e4 f23d 0e77 5dbc f909 fdbd 1e9f 713c
00000020: ee2c b8bd 0419 ebbc 35e1 27be c19c e3bc
00000030: 7457 813d 49f3 233e cf9c 51bd acae 09be
00000040: d468 e3bd 5102 e13c 4e64 2e3e eb12 a13d
00000050: bec4 233e 4977 0bbe b69c b9bc 8f8b 463d
00000060: 817e 733d e044 e3bc d951 15be 1307 723d
00000070: f9a2 a5bd 08e0 083e fdd6 fdbd e857 09be
0.1394379 0.022946974 -0.09678429 0.06424913 0.11860055 -0.013517154 -0.12355418 0.014747409
-0.08992945 -0.028698452 -0.16394503 -0.027784707 0.063155085 0.16010775 -0.051174935 -0.13445538
-0.11103979 0.027466925 0.1703045 0.078649364 0.1599302 -0.13619722 -0.022657733 0.048472937
0.059446815 -0.027742803 -0.14582004 0.059088778 -0.08087725 0.13366711 -0.123945214 -0.1341244

feature_extractor.encoder.1.mlp.0.weight f4 [32, 47]
00000000: 7905 dd3c 69be 043e 8443 caba 7c5d efbd
00000010: 0e94 66bd 1b0b 50bd 295a c3bd cd48 97bd
00000020: 57f9 2bbc a30b 0e3d 6a7e dcbd 80db cb3d
00000030: c0f3 cfbd 9a17 57bd 6a95 823c 5885 0fbd
00000040: 8b87 c3bd ffa9 41be f805 06bd 47c0 79bc
00000050: 531b e53d f7d6 3ebd e188 a73d e823 a23c
00000060: 649c 3a3d d82a 683d 201a 00bd 09b9 4abc
00000070: 9fae c9bd 1c30 113d c2e7 efbc 31c2 18be
00000080: 48ed 36be 9411 18bc 2b9a 19bd f981 a93d
00000090: 783e aa3d dbea 8b3d a023 1a3e 9e75 04be
000000a0: 809e 793d 3d17 ea3d 1e8d ccbd 465b aabd
000000b0: a9ad c4bd 178d 803d 40d6 ae3d 0547 2abe
000000c0: 7b12 e93d 8fc4 783d d791 073e 0c03 993d
000000d0: 2311 97bd 7e4b 2dbd 37ad 00bd 0ada 5f3c
000000e0: d440 c1bd 4ef0 523b 52cf e73d b85a 00be
000000f0: 0e74 e6bc 6d34 a1bd 7a93 6cbc e64d 463d
00000100: 5276 3a3d fec6 92bd 0b92 a1bd 8110 bbbd
00000110: 5000 5abd 33f8 d9bd 9412 fe3c 06bf 693c
00000120: 8817 dd3d b746 05bc 1b28 c3bd 1a00 d5bd
00000130: a6b3 04be 2410 88bd 50b2 e43d 6571 0bbe
00000140: 00e1 b63d c1e2 823d 16fd 033d 6a62 143e
00000150: 23eb 9d3d d8b2 4cbd 1ac1 8d3d 57d8 aa3c
00000160: 1849 38bd 6136 9dbd 0c5f fb3c 6a8a d9bd
00000170: 3ed6 a8bd 7305 cebd d4e2 04be 6ed0 a03d
00000180: d581 653e 8261 f1bd 4fe0 86bd 851c 853c
00000190: 16d7 f13d 012b 9bbd 868d a8bd b8b8 73bd
000001a0: c744 01be 4250 af3d 900e 2cbd 8888 d13d
000001b0: 1ed2 f73d 0cb4 f23d 4efc 7d3c 5332 33bb
000001c0: 5750 943d 4b79 bb3c 04e7 7e3c f884 4cbd
000001d0: 0f2b 0fbe 52e9 1dbe 11cb 593c 6340 ce3c
000001e0: a3b3 7b3d e864 dd3d 05f7 dc3d a8ee e43d
000001f0: 63fa dd3d b8e3 b73d 4f59 26bd 50a7 5a3d
00000200: 74d2 1abd 5e1b 32bd c02c d73d 5613 c83c
00000210: fc59 8abd 6b5c a9bd e483 abbd a57c 06bd
00000220: 7f49 023e 08e4 bcba 8e93 cdbc 4420 b53d
00000230: 43d4 c1bd e31f 3abd c4f8 48bd bd7b cebd
00000240: 5754 323d 56c0 0dbe 46e2 9fbd 99ea 4a3e
00000250: e23f 03bc dbf2 c4bd 7514 823c ff6e 5a3c
00000260: 9408 873d a4d8 8d3d 97a8 813d f1fe a1bd
00000270: 4eaf b93d ed50 123d 758b e33d 469e 14be
00000280: 8128 a6bd a235 d03d 2811 b5bc 6bc3 0e3e
00000290: bfec f9bd 7d58 72bd 75de d3bc 444b d7bc
000002a0: a418 8d3d 202e dc3c 5c86 ea3d 2870 8dbc
000002b0: d26e a0bb 8031 adbe e67f bfbc deed 2b3d
000002c0: c680 a9bd 2212 f23d 290c d2bd cf8d e6bd
000002d0: 441b a73d 6184 d43d 4d04 2cbd 94b5 bebc
000002e0: f2bb 55bd 1669 2c3d 8b65 80bd 865d c43d
000002f0: 6365 623c 5071 a53a 7eb5 89bd 7079 aebc
00000300: 1364 9cbd 3a32 823c 5eb4 023e 2bca 96bc
00000310: c543 e93c 954c 28ba 5626 853d c9d6 a03c
00000320: a889 743d 9723 923c 7bcb 3c3d 079e 4ebb
00000330: 5484 893d 8dbb 0bbd 4725 b5bc ec7c 603a
00000340: 4e92 f73c de8c 253e 78d7 d33d c5b7 133b
00000350: 2d9f be3d 8db4 c63c fcfd 26bc c090 b0bc
00000360: 9c5a 8b3d f037 8f3d 9deb 0c3e 92f9 59bd
00000370: 3ed9 cd3e c2a4 ebbb 3441 ff3c 3807 02be
00000380: 495a 23be f909 093d f727 b9bd 1b54 f43c
00000390: 7672 d6bd 847e fb3c 9f2f a23d ef5e 8c3d
000003a0: 8a5d cdbc c131 f9bd a207 ed3d 721f ffbc
000003b0: 81b1 d43d aad7 073e e0fa 08be dc94 e0bd
000003c0: b4f9 173d 84f0 14be 2721 e1bc 2520 84bd
000003d0: 9727 25bd 0724 113c 9423 9cbd db9a ffbd
000003e0: 123b b739 2eb0 5bbd fd85 39bd f960 1bbd
000003f0: d676 8fbd 4698 fd3c bdb7 a23c 8103 0ebd
0.026980149 0.1296326 -0.0015431498 -0.116877526 -0.05629354 -0.05079184 -0.09538681 -0.073869325
-0.010496459 0.034679066 -0.10766299 0.09953976 -0.101539135 -0.052512743 0.015940387 -0.035039276
-0.09547337 -0.18912505 -0.032720536 -0.015243596 0.11186852 -0.046591725 0.081804045 0.019792512
0.045559302 0.056681484 -0.031274915 -0.012373217 -0.098477595 0.03544627 -0.029285315 -0.14917828
-0.17863953 -0.009281535 -0.03750054 0.082767434 0.08312696 0.068319045 0.15052652 -0.12935492
0.060942173 0.114302136 -0.099878535 -0.0831819 -0.096034355 0.06276911 0.08536959 -0.16628654
0.11380478 0.060734328 0.13239227 0.07471284 -0.073763154 -0.042308323 -0.03141519 0.013662824
-0.09436193 0.003218669 0.1131884 -0.12534606 -0.028131511 -0.078713275 -0.014439458 0.048414133
0.045522995 -0.07166861 -0.078891836 -0.09134007 -0.053222954 -0.10643043 0.031014718 0.014266735
0.10795504 -0.0081345355 -0.09529134 -0.1040041 -0.12959155 -0.066437036 0.11166823 -0.13617475
0.08929634 0.06390906 0.032223783 0.14490667 0.077108644 -0.049975246 0.06921597 0.020855112
-0.044991583 -0.076763876 0.03068497 -0.106221035 -0.082439885 -0.10059633 -0.12977153 0.07852255
0.22412808 -0.11786176 -0.06585752 0.01624895 0.118086025 -0.07576562 -0.082301185 -0.059502333
-0.12623893 0.0856023 -0.042006075 0.102311194 0.121006235 0.118507475 0.015502049 -0.0027343228
0.07241886 0.022884985 0.015558008 -0.049931496 -0.1398127 -0.15421036 0.013293044 0.025177186
0.06145061 0.10810262 0.10789303 0.111783326 0.10838773 0.08978981 -0.040612515 0.053382218
-0.03779836 -0.04348313 0.10506582 0.024423283 -0.067554444 -0.082695805 -0.083747655 -0.032833714
0.12723349 -0.001441122 -0.025094774 0.08844045 -0.09464314 -0.045440566 -0.049065366 -0.10082195
0.043537464 -0.13842902 -0.0780683 0.19816054 -0.008010836 -0.096166335 0.015878895 0.013332128
0.06593433 0.069260865 0.06330984 -0.07909954 0.0906664 0.035721708 0.11110584 -0.14513502
-0.08113194 0.1016648 -0.022102907 0.13941734 -0.12203359 -0.05916642 -0.025862912 -0.026281007
0.068894655 0.026877463 0.11451408 -0.017265394 -0.0048960233 -0.33826828 -0.023376416 0.041974895
-0.08276515 0.11819865 -0.102562256 -0.112575166 0.081594974 0.10376812 -0.04199629 -0.023279943
-0.05218119 0.042092405 -0.06269368 0.09588151 0.013818118 0.0012622271 -0.0672407 -0.02129814
-0.07636275 0.01589309 0.12764117 -0.018406948 0.028474698 -0.0006420103 0.065014526 0.019633668
0.05970159 0.017839236 0.04609249 -0.0031527297 0.06714693 -0.03411441 -0.022112502 0.00085635367
0.03022113 0.16167018 0.10343832 0.0022539955 0.09307704 0.024256015 -0.0101923905 -0.021553397
0.06804392 0.06993091 0.13761754 -0.053216524 0.40204805 -0.0071912715 0.031159021 -0.12698066
-0.1595241 0.033456776 -0.09040826 0.02982526 -0.104710504 0.030699976 0.07919239 0.06854045
-0.025069017 -0.12167693 0.115737215 -0.031142924 0.10385419 0.13265863 -0.13376951 -0.10965893
0.03710337 -0.14544874 -0.027481629 -0.064514436 -0.04032096 0.008858687 -0.076239735 -0.12480708
0.0003494849 -0.053634815 -0.045293797 -0.037934277 -0.07005088 0.030956399 0.019863004 -0.03467131

feature_extractor.encoder.1.mlp.0.bias f4 [32]
00000000: e3b7 143d 0460 d63c bb6f f83c 5e6e fbbd
00000010: e3cc adbc dd1d d4bd 786f c23d 80ca 87bc
00000020: bf71 6bbd 99c0 8dbd e051 29bc 297e bdbc
00000030: 632f 0ebe eb29 5fbd ef5d 11be 3794 2d3d
00000040: 8bc2 0abe 4082 f4bd 1fef c53d 48ec 4fbd
00000050: ce10 4e3c 5a39 473d 2783 d4bd 9688 efbc
00000060: 2ce9 283c 9ead f5bd acf0 a93c 30cf f83d
00000070: df8d 77bd 8493 113d bcac 81bd e1be 81bc
0.03630818 0.02616883 0.030326715 -0.1227691 -0.021215862 -0.103572585 0.09493917 -0.016576052
-0.057481524 -0.06921501 -0.010334462 -0.023131447 -0.13885264 -0.054483335 -0.14195989 0.042377677
-0.13550775 -0.11938906 0.09664749 -0.050762445 0.012577249 0.04863868 -0.10376578 -0.029239934
0.010309499 -0.119960055 0.020744644 0.12148893 -0.060438033 0.035541072 -0.063317746 -0.015838088

feature_extractor.encoder.1.mlp.2.weight f4 [32, 32]
00000000: fb5c f7bd 5700 143e 3c18 a13c 2f48 1e3e
00000010: 19cc 17bd 9eca 1ebe c61d 583d 0498 aa3d
00000020: e7ad c93d 1de5 0c3b d194 e0bd c045 16bd
00000030: 8e83 79bd ad3a 9d3d 0d05 19bd 133a 413d
00000040: eb82 c0bd d022 3cbd a0ff e43d db65 3d3e
00000050: 9d5b 10be 4e3e c5bd c6af 323d f779 b7bd
00000060: 534a 973c b92f 753c 9260 34bd 70a3 af3d
00000070: b004 013e 629f 1c3e 58b5 0cbc b635 40bd
00000080: dd6f 0fbe 8a39 3a3d cb1b 14be 2bac 7e3d
00000090: fd39 59bd 7c45 aabd 5753 bf3d c584 48bd
000000a0: 49e3 f5bd afa7 42bd 5b97 1d3e 3d1f 0abe
000000b0: f45c f0bd ee65 f5bc 8350 49bb be7d 783d
000000c0: 8789 513d a3ce dd3d b8b8 043e 6501 fabd
000000d0: 14f1 1f3e a93f fabd b92f 173e 76b4 a5bd
000000e0: 2db5 1b3e f846 a5bd c6b6 123d 4205 17be
000000f0: 9ab5 443d 5814 573d 2b81 70bd 3659 97bd
00000100: 6df5 4fba a425 8cbd de91 ecbd 9f44 8f3c
00000110: 23b0 d23d 39be 37bd d88f e53d 419b 8ebd
00000120: 107a 5abd 7e11 a2bc 8426 893d cf44 003c
00000130: 3079 d83c 831f 413d eab8 16be 56a3 a63d
00000140: b306 3cbd b02f 083e abb9 d53d 9e61 563c
00000150: eb66 82bd fd6b 04be 9cd3 82bb 8890 cdbd
00000160: 1ce1 9dbc 6634 123d 9936 c2bd d2fe 72bd
00000170: d63b 9abd c364 773d bbb6 d5bd cd26 34be
00000180: f96b 093e 756d 09be 0860 303e 4fa3 26be
00000190: d8de 113e 9a4d 863c 2bed e7bb b545 f9bd
000001a0: edea ab3d 1810 febd cea6 17be a66f f13d
000001b0: 444a b43d 9326 d9bc 6a45 c33d 474e ddbd
000001c0: b749 163e 1d18 3dbc 3f96 9a3c 7791 de3d
000001d0: d1c4 203d 755e 20be 7eb1 8ebd c3ac 0fbe
000001e0: 8bf3 6a3d e43a 30bd 8596 b83d b79b 0b3e
000001f0: 2aea 95bd bff7 0cbd 4c3b a63d f55a 2f3d
00000200: cb57 433d 928e 203e 516e 17be 1bcb c5bd
00000210: 38ba 7cbd 46b7 093e dd00 23be 7e8a c53d
00000220: 8c64 c0bd 14d3 073e 75e8 ae3d 2f7e a43d
00000230: 85f2 993d d9b8 f63b d780 143e a2ab 9e3d
00000240: 1c90 28bd e543 01be 4fb9 193e 6893 8a3d
00000250: 74ac ea3c 39cf d23d 62ba 0f3d c79b d4bb
00000260: 5d64 2cbc 18f4 11be 506b d53c a435 3cbd
00000270: 467a 2d3e eabb feb9 0a25 1c3e a58a 293c
00000280: 43f6 90bd 753a 823d b80a 27be b1e4 54bd
00000290: 3732 6f3c b711 05be a496 553d a2fe f2bd
000002a0: 61e0 0bbe c0e5 1f3e d206 1abe a31c 073e
000002b0: d04f c6bc 8af4 fe3d 795b a0bd 5570 eabc
000002c0: e729 b23d e3a6 a93d ae0f 2dbe 2837 a53d
000002d0: dc33 07bd 8089 06bb c350 96bd 1144 26be
000002e0: 5be6 153e b10a 943d 8f44 003d 3453 0c3d
000002f0: bf05 003e 66ee 013e 2a37 f9bd 4534 803c
00000300: d793 ea3d fd1c d9bd 7c0d 19be 4711 3dbc
00000310: a505 083e 7bae 31bd 889f 4bbe 54a0 37be
00000320: fc2d f8bd 9355 b23d 49b3 033e fdc2 8b3d
00000330: 9bc2 77bd 2c3c 8a3d 77c4 b4bd 9171 cb3d
00000340: 3dc2 e2bd ece0 22be 6a41 a7bd 24cd 083c
00000350: 87db 1b3e ba05 a73b 0afd 9abd b2ff 76bd
00000360: d82f 1cbe 9cdd a93c cf3b 26be f9ca 0fbe
00000370: e526 20be cb05 afbd 2938 a3bd 2da4 033c
00000380: b925 473e 942c 8dbd 1160 1a3e a1dc 26be
00000390: 2ce8 603c f0e6 cb3c e789 9bbd 9ade 003e
000003a0: ee1a 95bd 7967 cd3d f5e6 aebc 7e46 e53d
000003b0: a57f b4bc 78c8 abbd 7ebd c9bd 4383 be3d
000003c0: b968 ba3d 5b27 fcbd 8a6d 343d a73e bebd
000003d0: b70e a0bb b221 193e d840 2dbe ab7e c03d
000003e0: 173c b2bd 9035 643d ab53 023e 6eab 083e
000003f0: 246f 153d 1cac 4e3d 84b3 fa3d 481b afbd
-0.120782815 0.14453255 0.019664876 0.15457223 -0.037059877 -0.1550698 0.05276277 0.08329776
0.09847622 0.0021498867 -0.109658845 -0.036687613 -0.060916476 0.07677207 -0.037358332 0.047174525
-0.093999706 -0.045931637 0.11181569 0.18495886 -0.14097448 -0.09631024 0.043624662 -0.0895881
0.018468058 0.014964991 -0.04403741 0.08576095 0.12599444 0.15295175 -0.008588158 -0.046926223
-0.14007516 0.04546503 -0.14463727 0.06217591 -0.053033818 -0.08314034 0.09342068 -0.048954744
-0.12006242 -0.047523197 0.15389769 -0.13488479 -0.117364794 -0.02995583 -0.0030718155 0.060666792
0.051156547 0.108304285 0.1296109 -0.12207297 0.15619308 -0.122191735 0.14764298 -0.08091061
0.15205832 -0.08070177 0.035818838 -0.147481 0.04802475 0.052509636 -0.058716934 -0.073900625
-0.00079329946 -0.06843117 -0.115512595 0.017488776 0.10287502 -0.044859145 0.11209077 -0.06963206
-0.053339064 -0.019783732 0.066967994 0.007828905 0.026424974 0.047149193 -0.14718977 0.081366226
-0.045904826 0.13299441 0.10435804 0.013084797 -0.06367286 -0.1293182 -0.003992511 -0.10037333
-0.01927238 0.035694502 -0.0948307 -0.059325047 -0.07530944 0.06039883 -0.10435244 -0.17592926
0.13420095 -0.13420661 0.17224133 -0.16273235 0.14245164 0.016394425 -0.007077833 -0.12171499
0.08394418 -0.124054134 -0.14809725 0.117888734 0.088032275 -0.026507651 0.09534724 -0.10805946
0.14676557 -0.011541394 0.018870471 0.10867589 0.0392502 -0.15661032 -0.06967448 -0.14030747
0.057361167 -0.043024912 0.09013084 0.13633619 -0.07320054 -0.034415957 0.08116779 0.042811353
0.047691148 0.15679386 -0.14788176 -0.0965788 -0.06170103 0.1344882 -0.15918298 0.09645556
-0.09394178 0.13264114 0.085404314 0.0803188 0.0751696 0.00752936 0.14502273 0.0774758
-0.04115306 -0.12623556 0.15012096 0.06766397 0.028646685 0.10293431 0.035089858 -0.0064882967
-0.010521975 -0.1425327 0.026052147 -0.045949593 0.16941175 -0.00048586662 0.15248504 0.010347997
-0.07078221 0.06358806 -0.16312683 -0.05197591 0.0145993745 -0.12995039 0.052145615 -0.118649736
-0.13659813 0.15614986 -0.15041664 0.13194518 -0.02420798 0.12448986 -0.07829947 -0.028618017
0.086993985 0.08283784 -0.16900513 0.08067161 -0.03300844 -0.0020528734 -0.07339623 -0.16236903
0.14638655 0.07228602 0.031315383 0.034259036 0.12502192 0.12688598 -0.12168725 0.015649924
0.114539795 -0.10601232 -0.1494655 -0.011539764 0.13283403 -0.04337929 -0.19885075 -0.17932254
-0.12118146 0.08707728 0.1286136 0.068243004 -0.060488325 0.06749758 -0.08826535 0.099337704
-0.11072204 -0.15906113 -0.081667736 0.008349691 0.15220462 0.005097118 -0.075677946 -0.060302444
-0.15252626 0.020735554 -0.16233753 -0.14042272 -0.15639837 -0.08546027 -0.07969696 0.008034748
0.19447984 -0.06893268 0.15075709 -0.16295101 0.013727229 0.024890393 -0.07594662 0.12584916
-0.07280527 0.100295015 -0.021350363 0.11195086 -0.022033522 -0.08387846 -0.09850596 0.0930238
0.091020055 -0.12312194 0.044049777 -0.09289294 -0.0048845666 0.1495426 -0.16919267 0.0939916
-0.087028675 0.055715144 0.1272723 0.13346645 0.036482945 0.050457105 0.12241271 -0.08550125

feature_extractor.encoder.1.mlp.2.bias f4 [32]
00000000: 64b7 f63d d2e8 053d e1ce febd 5a52 123e
00000010: 70bd 2ebe 8660 d73b bca6 f93c 611a 003e
00000020: d418 bdbd e869 83bd bad9 d3bd 1175 003d
00000030: 1e67 9fbd e07f f5bd 7cce c4bd a42b 323e
00000040: ef51 3dbd a327 153e c305 003e cf74 013e
00000050: 4699 453e 5f3e 3fbd c613 7dbd e9e7 ecbc
00000060: d72d 11be 3bbd 47bd a08d d33d cb87 7bbd
00000070: 5ba7 73bd 85f8 16bd 3213 1cbc 44a7 95bc
0.12046698 0.032692738 -0.12441803 0.14289227 -0.17064452 0.006572786 0.030475013 0.12510063
-0.09233251 -0.064166844 -0.103442624 0.031361643 -0.0778334 -0.11987281 -0.09609696 0.1739946
-0.046220716 0.14565901 0.12502198 0.12642215 0.1929675 -0.04669034 -0.061786436 -0.028919177
-0.14177643 -0.04876445 0.10329747 -0.0614088 -0.059485774 -0.0368581 -0.009526061 -0.018268235

feature_extractor.encoder.1.mlp.4.weight f4 [32, 32]
00000000: a81f f23d a6c5 d83d 8591 a6bd f371 96bd
00000010: cc4f 9cbd c335 d6bc b612 41be 1990 bbbc
00000020: 31f3 06be e1ba 1fbe a517 133d 692c 17be
00000030: 9b81 1a3e f937 14be 5515 973d a617 33be
00000040: 1b65 a9bd baf5 52bc 9865 2e3e f544 113e
00000050: 1b2f 4dbd 472f 08be d3e4 483d b0ae d7bd
00000060: 945f b63c 238e 17bd 2b1c 9d3d c7f9 07bc
00000070: 30b5 483d 2980 593c 96f7 963d 285f a03d
00000080: 8abe 28be 7e53 f3bd e8de 923d f39e e5bd
00000090: e11d 9cba 62ca a7bd f99b e8bd 1a52 0d3e
000000a0: 1159 f53d 3d14 a23d 6779 00be d5b7 64bd
000000b0: db26 00bd 6763 8b3d af20 d0bb 309e 01bd
000000c0: cb8c 0d3e 5979 fb3d 570b 2dbe 2f1e 17be
000000d0: ac3f 8b3d 14ed b6bd 9abf d23d 85e5 f43d
000000e0: 80f9 71bd 3854 7d3d 1400 12be dae3 06be
000000f0: 37a4 933d 30a3 603c 4cf0 f5bd 987f 8b3d
00000100: c527 0fbd 4396 e3bd d62d c33d ed40 973d
00000110: 1d06 e3bd 3362 a33d cf1d eabd 1151 173e
00000120: 1c8e 213e f47d 08bd 75fc 743d c691 1f3e
00000130: 09e6 2abe 3713 293e 6110 b13d 45da 643d
00000140: aedf 82bd 17dd c8bd 8905 ad3d 4746 b43d
00000150: 0c51 1fbe fc1c 883d aec8 28be fd84 1dbe
00000160: e8f3 a23c ad58 543c 4709 5f3d 0dbb c53d
00000170: c703 1ebd 91d5 0e3c da00 fdbd 8f43 843d
00000180: 17c6 623d 7629 19be ed4c 0fbe bb1d e3bd
00000190: 64b7 493e 695b f5bb 082c e9bd b727 b63d
000001a0: feb3 b2bd dd70 483e df0e 0bbe f4ef 24bc
000001b0: a7da 17bd 171e d83d 5a05 0c3e e6a6 2abd
000001c0: 26da 3b3e 062e debd 8b34 0fbd abf4 2c3e
000001d0: 9ce2 11be 12b3 873d 392c 0abe 2373 053e
000001e0: f5dd 0f3e 0821 dc3d 00b3 3f3d dd3f acbd
000001f0: 9737 80bc c9be e9bd 9844 0dbe 3242 dabd
00000200: bd34 a83b d2fb 3a3e 020b 473e 2ced ac3d
00000210: feee 06be cc3e 0e3e b706 bbbb c24c 36be
00000220: 6f53 bfbd 052a 6ebc 7db1 e8bd a119 ce3d
00000230: 0d8d e4bc 8c65 483d c5df 11bd 5a5b 27bc
00000240: 20e8 053e f020 8dbd 5e4a d43d 977b 693c
00000250: 9f0a 653a 3a16 1ebd d681 10bc 2934 c33d
00000260: d45f 09bc bcf0 cb3c 779b 863b 8758 babd
00000270: 7171 bc3d a179 983c 4636 18bd 041f d6bd
00000280: 4cb6 283e cef6 52bd ea54 673d e43e 44bd
00000290: 00b2 0e3d 948a 4a3d 05e7 8ebc b47e f63c
000002a0: ed1a 1cbe d1cb 913d b9c2 0d3e 92ea f83d
000002b0: 5115 b03d 75b6 44bc 1665 613d 8d55 38bc
000002c0: e56e 0cbe 41a9 84bd 50fd 8f3d 2532 13bd
000002d0: 4043 f83a 52e1 5c3d e702 353d 8b94 033e
000002e0: 38a8 d2bd a337 35bd 5603 a73c 6974 d73d
000002f0: 1497 fb3d ec0c b1bd 6c1f cb3d f597 a03d
00000300: 08a8 363c be75 9dbd db78 2abe 371c 073d
00000310: fa5e f9bd 97a8 9a3c 2cc6 c3bc 47df d03d
00000320: 5a4a 6f3d a95c 94bd 6b81 2ebe 306e 8e3d
00000330: 39b8 1bbe 991c 3fbd 5f0c 743c 600f 3e3b
00000340: 4b73 acba 224a 6dbc c4fb 993d af35 87bd
00000350: d2ac e2bc ade1 cabc cc02 88bd ec3a 333e
00000360: 5c9a 8a3d 4127 f83d e445 bc3c 3cec ef3d
00000370: 74d8 c9bc c9d1 8fbd c9cc 1abe 2479 9f3d
00000380: c349 c33c adec b13d 22f8 17be e304 dd3c
00000390: 9fc0 09be 80eb ef3c 1751 0fbe 1fff 3c3d
000003a0: c5f9 3dbc c685 5d3c 3d09 0d3e 831c b5bd
000003b0: ac0c 223e beb1 c63b 9638 a33d 4f38 293e
000003c0: 90db 13be 5dc6 81bc 757a 14be 3f78 16be
000003d0: 93a1 a7bd 5386 f6bd f5ca eebc ce98 81bd
000003e0: 8d3a 53bd 72b6 28be fb54 6a3e 8694 2d3e
000003f0: 4604 3e3d ad6e 0c3e 9aa5 173e 44c3 e4bc
0.11822444 0.105845734 -0.081332244 -0.07345953 -0.076324075 -0.026148682 -0.18854794 -0.02289586
-0.13178708 -0.15598632 0.03591122 -0.14763035 0.15088503 -0.14474477 0.07377116 -0.1748949
-0.082712375 -0.012875969 0.17030942 0.14186461 -0.05009375 -0.13299285 0.04904635 -0.10531366
0.022262372 -0.037000787 0.07671388 -0.008299298 0.04900092 0.013275185 0.07371442 0.078306496
-0.16478935 -0.11881159 0.07171422 -0.11211958 -0.001191076 -0.08192898 -0.113578744 0.1380085
0.11979879 0.079140164 -0.12546311 -0.05583938 -0.031287055 0.06806069 -0.0063515524 -0.031645
0.1382324 0.122790046 -0.16898857 -0.14757608 0.06799254 -0.08931938 0.10290451 0.1195784
-0.059075832 0.061847895 -0.14257842 -0.13172856 0.07209056 0.013710782 -0.120087236 0.06811446
-0.034950037 -0.111126445 0.09530227 0.073854305 -0.110851504 0.079777144 -0.11431467 0.14777018
0.15776867 -0.033323243 0.059811074 0.15582952 -0.16689314 0.16511236 0.08645702 0.05587222
-0.0639032 -0.098077945 0.08448321 0.08802467 -0.1555826 0.06646153 -0.16482803 -0.15382762
0.019891694 0.012960595 0.054452207 0.09654818 -0.03857782 0.00871791 -0.12353678 0.06458198
0.055364694 -0.14957222 -0.13994189 -0.11089655 0.19698864 -0.0074877036 -0.113853514 0.08894294
-0.08725737 0.19574304 -0.13579892 -0.010066975 -0.037073757 0.10552614 0.13673916 -0.041663073
0.18344936 -0.10848622 -0.03496222 0.16890208 -0.14246601 0.06625952 -0.13493432 0.13032202
0.14049514 0.10748488 0.046801567 -0.084106185 -0.015651507 -0.114133425 -0.13795698 -0.10657157
0.00513324 0.18260124 0.19437793 0.084436744 -0.13177106 0.13891143 -0.0057075876 -0.17802718
-0.093420856 -0.014536385 -0.11361978 0.10063482 -0.02789929 0.048924968 -0.035613794 -0.010214651
0.1307683 -0.06891048 0.10365747 0.0142506575 0.00087372394 -0.038595416 -0.008820018 0.09531433
-0.008384664 0.024895065 0.0041078883 -0.090989165 0.09201325 0.018612685 -0.037161134 -0.104551345
0.1647579 -0.051504903 0.056477465 -0.04791154 0.034837723 0.049448565 -0.017444143 0.030089714
-0.15244646 0.07118953 0.13843812 0.12154116 0.08597816 -0.012006392 0.055028044 -0.011250866
-0.13714178 -0.06477595 0.070307374 -0.035936493 0.001894094 0.05392582 0.04419222 0.12849633
-0.102859914 -0.044242512 0.020387333 0.1052025 0.12284675 -0.08645043 0.099181026 0.078414835
0.01114846 -0.07688473 -0.16647665 0.032985892 -0.121763185 0.018879218 -0.023898207 0.10198837
0.058420517 -0.07244236 -0.17041557 0.0695461 -0.15206994 -0.046658132 0.014895528 0.0029000863
-0.0013156919 -0.014483007 0.075187236 -0.06602036 -0.027670298 -0.024765814 -0.066411585 0.17502946
0.06767723 0.12116862 0.022982545 0.1171498 -0.024639346 -0.07022435 -0.15117182 0.077867776
0.023838883 0.086877204 -0.14840749 0.02697987 -0.13452385 0.0292871 -0.13995777 0.04614174
-0.011595194 0.013520664 0.13773055 -0.08843329 0.15825146 0.006063669 0.07969777 0.16525386
-0.14439225 -0.015841657 -0.14499839 -0.14694308 -0.08185115 -0.12037339 -0.029149512 -0.06327973
-0.05156951 -0.16475847 0.2288398 0.16951188 0.046390794 0.13714094 0.14809266 -0.027925141

feature_extractor.encoder.1.mlp.4.bias f4 [32]
00000000: cdc1 983d 5c24 15be b7ec 393e 6a4a 6d3c
00000010: 4240 f3bd 204a f53d d5da 6abd 0fd8 a63d
00000020: caa7 01be 1514 0f3e 02cc 5cbd 605d 213e
00000030: f2e6 9cbd 67ea 06bd 9e82 c4bd 5f97 cdbd
00000040: b53c 95bd 7daa debc 55f7 743d 5a41 2fbe
00000050: aec1 35be ee59 2abe b437 2f3e 0937 9f3d
00000060: adad e63d 09cb cbbd a293 5bbd 1e15 8fbd
00000070: d504 063c 15cb 2e3d 4d28 30bd 5f6d 253e
0.074588396 -0.14564651 0.18156706 0.014483074 -0.118774906 0.11977029 -0.0573376 0.08146679
-0.12661663 0.13972504 -0.053905495 0.15758276 -0.07661237 -0.032938387 -0.09595226 -0.10038637
-0.072869696 -0.027180905 0.059806187 -0.17114773 -0.17749664 -0.16635868 0.17111093 0.07774169
0.11263595 -0.09950835 -0.05360759 -0.0698645 0.008179863 0.042674143 -0.043007184 0.16155003

feature_extractor.fc1.weight f4 [32, 97]
00000000: f888 563d d775 933d 9266 2dbd 0785 f03c
00000010: 0f16 823c eb3d 66bc 927b 92bd 687c bb3d
00000020: b24d 8f3d d634 b4bd 4107 d6bc f0d5 b9bc
00000030: d0ea c8bd 08e4 a4bd f7ef 963d a83b cb3c
00000040: c436 ffbc 07fe 1fbd 8244 7abd 2271 4d3d
00000050: b8dd 013d d60d 95bd 7f31 893d 20f3 6cbd
00000060: 9c95 8b3d a64b 6fbd 86c6 33bd 8930 0c3d
00000070: 55c7 a7bd 8b88 6b3d a9f7 9cbd 2973 07bd
00000080: f8a8 213d fdb0 79bd 3280 9abd 97a8 80bd
00000090: 0868 f23a a686 043c 4240 923d 3dea 7e3d
000000a0: 9c2d 6cbd 3500 a1bc 9ad6 0abd b407 bb3c
000000b0: 8f71 13bd 8f78 09bd 8347 a6bb 93c4 5dbd
000000c0: fb8a 463d 0433 91bd e42a 993c 9bff cf3c
000000d0: 7940 c53d 8cd3 4fbd e9fb ddbc 0001 5b3d
000000e0: 67be b2bd 117c b63d d614 e8bc d7ca 31bd
000000f0: ee51 8ebd 269e c9bd cfe8 743d 7770 89bc
00000100: 8723 fcbd d01f 55bd 3512 4dbd da68 023d
00000110: b8f7 b4bc 37ee 083d 13ec c9bc e6bf f43b
00000120: 9a63 ad3d 0359 12bd cffb 863d 621c 8b3d
00000130: d2a1 aa3d 1c59 68bd 5b48 bdbc ae04 80bc
00000140: ea19 833d c7b2 4ebd c83d 283d 7c70 dcbc
00000150: a8ad 75bc b894 533d 7eef 893d 30c9 ffbc
00000160: c841 d63b ad44 b3bc d218 4abd 2d63 c5b9
00000170: 946c 92bd d1d7 433e 6c8d 2c3d ded3 a8bd
00000180: 4a64 233d 9c19 7a3d 81c9 8bbd 417f 083d
00000190: 92e7 dcba ebc4 bebd dd0b acbc 2a96 593d
000001a0: 9b82 d2bc 4906 a13d aa3d 063d 0016 e53d
000001b0: 6ae9 d6bd 41c7 3dbd 57db debd 84c9 1b3d
000001c0: 3ea3 b03d 7943 bbbd db2c ff3c 1177 33bd
000001d0: 28bd 01bd 16a9 943c fb6c f0bc a9c5 65bd
000001e0: 5866 27bd 802b cebb 41fa 32bc 3458 683d
000001f0: 2fbf c4bd 2ee4 27bc d0df 15bd d9b5 713c
00000200: 73d6 95bd 3491 233d a5b1 fd3d 3c68 473d
00000210: 117a a53d dc80 093d 25f1 6b3d dd43 f4bb
00000220: 0366 81bd 6955 843d 64c5 983d 6c62 653d
00000230: f57e cbbc bd21 8abd 507f 0a3d 7a28 703d
00000240: 2462 7cbc f2fc 8a3d 2fb8 ea3b b0e4 1fbd
00000250: c809 103d bb46 143d b918 8fbc 98f4 3cbd
00000260: aeae 193d 715e 273b f696 b9bd 251d 4d3d
00000270: 2417 2dbd 2870 7d3d e326 d3bc e4cd 73bd
00000280: 82dc b4bc 881b 01be d490 b73d 9537 b83c
00000290: abd4 ccbc eb19 a8bd 0927 3bbc 235a 2d3c
000002a0: dc14 ccbd 960c 1d3d 6e81 13bb 7e17 993d
000002b0: fbe4 c0bc 8f2e a03c 0c96 ea39 a0c3 86bd
000002c0: bc56 3b3d 40e5 b7bd 90e2 b83d 902e 14be
000002d0: b447 e63d bb15 98bc 3bcc 9fbd 3fbe 2cbd
000002e0: 7f15 9dbc 7598 9fbd 2f38 253c 5412 9abd
000002f0: 2097 a23d 3d19 e1bc 4586 1a3d 7112 4ebd
00000300: f6c0 a03d 721a 55bd af36 7f3d 5e68 903d
00000310: 8303 c43d efc1 8d3d baa6 c0bd 8b36 eebd
00000320: cec8 a1bd 8303 b13d 7e57 b43d ede0 bbbd
00000330: 5fd9 37bd b3db 5b3c 9f6d 47bd 1535 a5bd
00000340: 60b8 2dbd 951e fcbb 05a7 d2bc 31d6 cdbd
00000350: 93df 1bbd 18bb 02bd fa10 a0bd cd15 633d
00000360: 6110 42bc 33a3 29bd 3ad6 d6bc 1b49 c5bd
00000370: 1878 b93d 8c15 86bd a99c 06bd c636 8cbd
00000380: 6996 73bd 34e4 5fbd 40d6 a7bc 8dbb f4bc
00000390: 0a26 33bd 0031 80bd 288f 8b3d f271 4dbd
000003a0: 204f 903d 3974 4ebb 1d10 383d cebe aabd
000003b0: a430 f73b de78 13bd 0ebe 8c3d e70e a63d
000003c0: df18 8a3d 19e7 87bd e362 a3bd 83a6 f83b
000003d0: 8d53 febb b7c1 b23d 13f5 2cbd 0c10 103d
000003e0: 2334 c1bc 7f66 55bc 01a7 adbb 9cb1 1b3d
000003f0: a352 c63d d474 9abd 8638 ed3c 9f47 cbbd
0.052376717 0.072002105 -0.042334147 0.029360307 0.015879659 -0.014052848 -0.071524754 0.09154588
0.06997241 -0.0879914 -0.026126506 -0.022685021 -0.09810412 -0.08051306 0.073699884 0.02480872
-0.031154044 -0.03906062 -0.06110049 0.05015672 0.031705588 -0.072780296 0.06698894 -0.05784905
0.06815645 -0.058421753 -0.0438905 0.034225974 -0.081923164 0.057503264 -0.07664425 -0.03306881
0.03946778 -0.060959805 -0.075439826 -0.06282156 0.0018494138 0.008088743 0.071411625 0.062235106
-0.057660684 -0.019653419 -0.033896066 0.022830822 -0.03599697 -0.03356224 -0.005074443 -0.054142546
0.048472386 -0.070898086 0.01869721 0.025390437 0.09631438 -0.050738856 -0.02709766 0.05346775
-0.087277226 0.089103825 -0.028330248 -0.043406334 -0.069492206 -0.098446175 0.059792336 -0.01677726
-0.12311464 -0.052032292 -0.05006619 0.031838275 -0.022090778 0.033430304 -0.024648702 0.007469165
0.08466263 -0.03572942 0.065909974 0.06792523 0.08331646 -0.056725606 -0.02310579 -0.015627231
0.06401427 -0.050463464 0.041074544 -0.026909105 -0.014995016 0.0516555 0.06735133 -0.031223863
0.0065386035 -0.021883333 -0.049340077 -0.0003764866 -0.07149616 0.19125296 0.042127058 -0.082435355
0.039890565 0.06105958 -0.06825543 0.033324484 -0.0016853681 -0.09314903 -0.02100175 0.053121723
-0.025697043 0.07862527 0.03277365 0.11185837 -0.10493739 -0.0463326 -0.108816795 0.038033977
0.08624886 -0.09143729 0.031149318 -0.043814722 -0.031674534 0.018147033 -0.029348841 -0.056096707
-0.040869087 -0.0062918067 -0.010923923 0.056724742 -0.09606778 -0.010247273 -0.036590397 0.0147528285
-0.073162936 0.0399334 0.12387399 0.04868339 0.08079923 0.033570156 0.05760302 -0.007454379
-0.06318285 0.06461603 0.07459524 0.056002066 -0.024840811 -0.06744716 0.03381282 0.05863235
-0.015404258 0.06786527 0.0071630697 -0.039036453 0.035165578 0.036200266 -0.017467843 -0.0461317
0.037520103 0.002553847 -0.09061997 0.050076623 -0.042258397 0.06187454 -0.025775379 -0.059522524
-0.022077803 -0.12608159 0.08963171 0.022487441 -0.025003752 -0.082080685 -0.011422881 0.010580572
-0.09964916 0.03834208 -0.0022507566 0.07475184 -0.023546686 0.01955345 0.00044743752 -0.06580281
0.045737013 -0.08979273 0.09027588 -0.14470887 0.11244145 -0.01856505 -0.07802626 -0.04217362
-0.01917529 -0.07792751 0.010084196 -0.07523027 0.07938981 -0.027477855 0.037725706 -0.050310556
0.078493044 -0.052027173 0.06230801 0.070511565 0.09570982 0.069217555 -0.094068006 -0.11631497
-0.078996286 0.08643248 0.0880575 -0.091737606 -0.044885036 0.01341908 -0.048688527 -0.08066765
-0.04241216 -0.0076940753 -0.025714407 -0.100506194 -0.038055014 -0.031916708 -0.07815738 0.055440713
-0.011844725 -0.041415405 -0.026225198 -0.096330844 0.09056109 -0.065470785 -0.032864247 -0.06846385
-0.059469614 -0.05466099 -0.020487905 -0.029874587 -0.04373745 -0.06259346 0.06814414 -0.050157495
0.07046342 -0.003150238 0.04493724 -0.08337174 0.00754364 -0.03600394 0.068721876 0.08108311
0.06743025 -0.06635875 -0.079778455 0.007588209 -0.007761425 0.087283544 -0.04222591 0.035171553
-0.023584431 -0.013024925 -0.0052994494 0.03801118 0.096837305 -0.075418144 0.028957617 -0.0992577

feature_extractor.fc1.bias f4 [32]
00000000: 19e4 7dbc b264 953d fad9 db3c f88e abbd
00000010: dec4 5d3d dcf6 03bc c051 493d 789d d5bc
00000020: 130c 7e3c ae7b 8f3d 827b 5e3d 80bd 843d
00000030: 48bf a33d 51fe bcbd 0efa a73d ff5b bd3d
00000040: d305 bf3d 0c36 673c 9a05 7ebd f5a8 41bd
00000050: a9e4 9ebc f497 d63c d6e1 84bd 2f6a 0dbd
00000060: d7c1 8d3d e93c cd3c 892c 803d f82e a53b
00000070: b93d 9b3c 5a53 a2bd 6652 7f3d 46af f93c
-0.015496277 0.07294597 0.026837338 -0.083768785 0.054142825 -0.008054461 0.04915023 -0.026076064
0.015505808 0.07006012 0.054317005 0.06481457 0.079954684 -0.092281945 0.08201991 0.092460625
0.09327283 0.014112007 -0.06201706 -0.04728027 -0.019396143 0.026195504 -0.06488387 -0.034525093
0.06921738 0.025053458 0.062584944 0.0050409995 0.01895033 -0.07926054 0.06233444 0.030479085
