src/quicktune/optimizers/surrogates/pretrained/mtlbm/mini/dyhpo.pt (torch, 138466 bytes, 49 tensors)

feature_extractor.encoder.0.mlp.0.weight f4 [32, 24]
00000000: b089 233e 82ca 47be 1491 f33c 494a 37be
00000010: fc05 e2bd 5d4b 49be 5ced ddbd 280c 22be
00000020: 7435 913c 9c63 0ebe 66a1 e13d 8bbe 3fbe
00000030: 7c9e 223e 1e9e ffbd 55c4 1d3e bb5e d7bd
00000040: c404 e63b df1c 043d dcde 36bc 6c6d b63c
00000050: 776f 76bd f511 d13d 46f9 16be dcaf f2bd
00000060: 268b abbd a04f 4ebe 43d7 153e bb1c 5b3c
00000070: 2fca cfbd 396e 4ebe 7f85 c23d 850e 06be
00000080: 5dae 3ebd 46ee 45be 5008 2abd fff2 b8bc
00000090: 6734 d73d 6dac b33d b51b 063e f482 8abd
000000a0: 8ee3 863d fed7 14be abd6 41be abce 933d
000000b0: 6486 f13c 6026 4fbe 7443 1cbd 3327 38bd
000000c0: 255c 13be 3927 2e3e 5fe0 16be da99 553d
000000d0: 8de2 c03d 910d 153d 5d20 353e 4d9a 983d
000000e0: ad76 15be 31f0 563d 1899 a8bd d125 9abd
000000f0: 8b88 373e 55f9 16be 041d 1a3e 08eb 2abd
00000100: 1c0a 2b3d 1ef0 f93d 6194 f03d 4bf0 463e
00000110: c16e 10be 6cdb 123e 08e8 0dbe 4868 f6bd
00000120: a8ab f33d df95 fabc aac2 2b3e 6ea2 efbc
00000130: f606 053d d559 41bd 9094 5bbb b7b5 9cbd
00000140: 66d7 1e3d 5efb 95bd cc37 b53c ddfa 30be
00000150: 8fe3 e63d 849f 41be a844 083e b729 333e
00000160: 76ae 96bd 544f 25be c3c3 1cbe 62d1 ce3d
00000170: ac4c af3d e62e bc3d 6c04 9cbd b69f 92bd
00000180: 5d10 c93d 81ce cdbd 8177 3b3e aee7 25be
00000190: fe98 31be add5 08be cd49 d5bd d513 39bd
000001a0: 631c 193e 1c26 1f3e 7466 afbb 5b07 eabd
000001b0: 9ff6 523d acbe 8a3c 4647 96bd a442 34bd
000001c0: 52f5 b83d 5a7a 793d 7106 90bd 05fc 813c
000001d0: 45d9 1dbe bfa2 a03d 8ce3 403e 94b4 12be
000001e0: 9d48 e73d 1240 31bd 9cb1 f5bd d7b1 2abe
000001f0: e5b0 a9bd ae22 06be 190e 8a3d d6e1 15be
00000200: 0c0e 0cbe ab4a 7b3d 3093 31be cd4b e13c
00000210: 19b5 f9bd c985 0d3e 6447 603d bd86 44be
00000220: a9ea 71bc f2f9 363e 1030 3cbc 894f 30bd
00000230: 3e70 0abe 7409 133c f315 f53d 65a3 e2bc
00000240: 1e75 6dbd 91ea c33d e86a 773c b149 04be
00000250: 3020 2d3e 890f d8bd 7e53 4d3e 1d3f e9bc
00000260: 4da6 3e3e 7f22 1b3c a56e 33bd e4c9 adbd
00000270: 3410 a83d d183 383e 2dd6 093e 8bac b9bd
00000280: bb73 30be e47b 463e a084 cb3d 175d f7bd
00000290: d378 1abe 090b 4fbe ec54 4f3d 9bf1 bb3d
000002a0: be30 f43d 83b1 e9bd fe3d 33be 8c2c 653a
000002b0: 05be b93d 644f 3ebe 7a7f c93d 426f 6a3c
000002c0: dace a5bc 61be 4a3e 9ed2 bb3d fc95 27be
000002d0: 0e8b 3b3e e284 f7bc 78a4 8bbc 92a8 1dbe
000002e0: 6235 90bd bcd7 a9bd 79f0 4a3e 0af7 233e
000002f0: 0fae f0bc 3eb6 05bd 1852 98bc 5d27 02be
00000300: fd27 3ebd bd6e bfbb dfc8 c93d 4b24 0ebd
00000310: e049 e1bd 9e25 29be 7492 e13d 991a 32bd
00000320: dd29 10be 060f ea3d c274 5bbd 0af9 58bc
00000330: 226e 2f3e 290d 26bc 58aa ccbd 6c42 053e
00000340: e494 4b3e 0c37 c53d a109 183d fd76 06be
00000350: 0674 62bd 912c c8bd 2731 c53d cf30 413e
00000360: a6ca 003e 2b86 d83c a6f4 2cbe 0c77 c2bd
00000370: 0370 503e 7e9d fc3d e3f0 26bd 2d34 f8bb
00000380: 2164 95bd 1d02 4abd 300e cdbd ec98 e2bd
00000390: 4539 a43d 9e5e 50be 168e 5f3c 2506 4f3e
000003a0: d3b9 823d ccfa be3b 7b61 3e3e be18 e23d
000003b0: 424f 1d3e c67f 4ebe 500c dfbd 87a3 09be
000003c0: d97a 133e 9b56 19bd e6c1 d0bd d8e8 2dbe
000003d0: 5bae 98bd 8d32 e73d 8678 3a3e 6720 4a3d
000003e0: c8a3 28be bc5d babc 710f fe3d 5daf b8bd
000003f0: dae5 dd3d 9f6d 163e a7e7 8a3d b26e ce3d
0.15970492 -0.19510844 0.029732265 -0.17899431 -0.11036298 -0.19657655 -0.10836288 -0.1582495
0.017725684 -0.13905185 0.110171124 -0.1872503 0.1588077 -0.1248133 0.15406926 -0.10516115
0.007019611 0.032254096 -0.011161532 0.022268973 -0.060164895 0.10208503 -0.14743528 -0.11849949
-0.0837615 -0.20147562 0.14632897 0.013373549 -0.10145985 -0.20159234 0.094981186 -0.13091476
-0.046553005 -0.19329175 -0.041511834 -0.022576807 0.10508042 0.08773122 0.13096507 -0.067632586
0.06586371 -0.1453552 -0.18929546 0.07217153 0.029483028 -0.20229483 -0.038150266 -0.04495926
-0.14390619 0.1700715 -0.14734028 0.052148677 0.09418211 0.03638989 0.17688127 0.074513055
-0.14596052 0.052475158 -0.08232325 -0.07526744 0.17923181 -0.1474355 0.15050131 -0.04172805
0.041757688 0.12204002 0.11747051 0.19427602 -0.1410475 0.14341515 -0.13858044 -0.12031609
0.11897975 -0.030589042 0.16773477 -0.029252257 0.03247734 -0.04720481 -0.0033505298 -0.07651847
0.03877964 -0.07323335 0.022121333 -0.17283197 0.11273872 -0.18908507 0.1330744 0.17496382
-0.073574945 -0.16143543 -0.15309052 0.1009853 0.08559546 0.09188633 -0.07618031 -0.07159369
0.09817574 -0.10049153 0.18307306 -0.1620166 -0.17343518 -0.13362761 -0.10414467 -0.04518493
0.14952235 0.15541881 -0.0053527895 -0.11427184 0.051504727 0.016936623 -0.07337813 -0.044008866
0.09031166 0.0609077 -0.070324786 0.015867243 -0.15414913 0.07843541 0.18836802 -0.14326698
0.11293147 -0.043273993 -0.11996767 -0.16669403 -0.08285693 -0.13099167 0.0674097 -0.14636931
-0.13677233 0.061350506 -0.17341304 0.027501965 -0.12192745 0.13820566 0.054755583 -0.19192024
-0.01476542 0.17868784 -0.011486068 -0.0430446 -0.1351938 0.008974422 0.11967077 -0.027665803
-0.05797302 0.09566224 0.015101172 -0.12918736 0.1690681 -0.10549838 0.20051381 -0.028472478
0.18618126 0.009468674 -0.04380669 -0.08485773 0.082062155 0.18019034 0.13460608 -0.09066113
-0.17231648 0.19383198 0.099374056 -0.12078302 -0.15085153 -0.20219053 0.050618097 0.09176942
0.11923359 -0.11410811 -0.17504117 0.0008742295 0.090694465 -0.18584973 0.09838767 0.0143087525
-0.020240236 0.19799186 0.091710314 -0.16365808 0.18314764 -0.03021473 -0.017046198 -0.15396336
-0.07041432 -0.08293101 0.19818296 0.16012207 -0.029379873 -0.032644503 -0.018593833 -0.12710328
-0.046424855 -0.0058420585 0.09852766 -0.03470258 -0.11000419 -0.16518256 0.11014262 -0.043482397
-0.1407847 0.11428647 -0.053578146 -0.013242969 0.17131856 -0.010134974 -0.09993428 0.13013619
0.19881016 0.0962964 0.037118558 -0.13131328 -0.05528643 -0.09774125 0.09628516 0.18866275
0.12577304 0.026431164 -0.16890201 -0.09495363 0.20355229 0.12334727 -0.04075707 -0.007574579
-0.07294489 -0.04931842 -0.10012472 -0.11064324 0.08018736 -0.20348594 0.013644716 0.20217188
0.063830994 0.005828237 0.18591873 0.110398754 0.15362266 -0.20165929 -0.1089102 -0.13441287
0.14402331 -0.03743611 -0.10193233 -0.16983354 -0.07455131 0.11288939 0.18210039 0.049347308
-0.16468728 -0.022749774 0.12405289 -0.09017823 0.10834856 0.14690255 0.067824654 0.10079707

feature_extractor.encoder.0.mlp.0.bias f4 [32]
00000000: 772a 053d 3034 e93d d4e4 1e3e 48ab c63d
00000010: b27a 02be 71f3 353e 25d6 14be 35ce 3abe
00000020: e120 343e bdaa 2abe ece7 b3bb e073 fe3c
00000030: 53d9 e43d 419c 38bc 677d ab3d 1bf6 61bd
00000040: 099a b7bc 5337 ac3d 358e f43d 35a1 083e
00000050: 2358 193c 635f 073e f4e4 32be 4f9a 05be
00000060: ee99 6f3d ffd2 43be 1922 2a3e 793e 133e
00000070: b4a9 7fbd fd6a 48be 8ea8 49be 9839 f33d
0.0325112 0.11386907 0.15516979 0.09700638 -0.12742117 0.17768647 -0.14534815 -0.18242724
0.17590667 -0.16666694 -0.0054902937 0.031061113 0.11174264 -0.011267723 0.08373528 -0.055166345
-0.022412317 0.0840899 0.11941186 0.13342746 0.009359392 0.13219981 -0.17470151 -0.13047145
0.05849641 -0.19123457 0.1661457 0.143793 -0.0624177 -0.19572063 -0.19693205 0.118762195

feature_extractor.encoder.0.mlp.2.weight f4 [32, 32]
00000000: b1f4 84bd c9e0 b33d c38a 13be a808 31be
00000010: 1a11 bbbd d550 f23d 5cf7 b63d 8d8d 18be
00000020: 4f5e 153e b806 00be 3216 8fbd 588d a13d
00000030: 262b 2c3d 44bf 03be 18d9 713d cc35 19ba
00000040: 0a52 1cbe 2116 a9bd 7b80 913d 1db9 673d
00000050: cd54 013e 7b34 f43d f07c 75bd 2fa7 13be
00000060: fcc5 10bd 347d f4bc e3b1 a4bd 3bd4 793c
00000070: 5513 923d bd5d 783d 12cf 87bc ba1a a93b
00000080: f340 32be 79f9 87bd cfdf 9abd d570 dabd
00000090: 402a 15be 45a4 873d ccaa 7b3d a11e 17bd
000000a0: 0923 2abe 6471 30be c01f 233e 1c41 23be
000000b0: 5bba 083e 7fd3 efbd 592a cc3d 1a0a 5abd
000000c0: b920 e43d 4b49 bebb 62f2 cebd 62ac 803d
000000d0: 7baa 6b3d 8b5a f4bd 6ff8 3a3d cf30 983d
000000e0: b331 2cbd adf9 4a3d 4a9e 3c3d 1007 88bb
000000f0: 6b2e 713d f8cd 2dbe 7cfa 5c3d 32d5 3dbd
00000100: 3b29 eb3d 5db2 8a3d f0ed 4b3d 82e7 953d
00000110: ec41 993c 1e8b 343c 4008 27bc 87ca d5bd
00000120: 07dd a43d c9dd ecbd d034 253e 895c 683c
00000130: b5a7 ebbd 2dc1 1fbe 0b56 54bd ae62 b43d
00000140: ddb2 cb3d 9169 ba3d 7947 f73d 3133 573d
00000150: e9a5 083e 2e56 c1bd f304 0b3e cc26 223e
00000160: 0074 df3d 3df6 27be 9e8a 38bd c413 723d
00000170: d6c4 793d 5f04 cf3c 77d2 e93d 3bac 21be
00000180: 7431 56bd 0357 323c 9d22 c63d df89 c2bd
00000190: 31ec e4bd 3b5d 1a3e 3718 cf3c a166 26bd
000001a0: 0a3d 943d e787 b0ba 90f9 c63d 6264 873d
000001b0: f114 bb3d c5c4 32bd a09e f23d 92d5 e3bc
000001c0: 568e 2bbe 98ba f0bd c41f e43d 6fcf b43d
000001d0: 150e e23d 137e 9c3d 883c a33d f2e2 273e
000001e0: 67c7 20bd d65f b53d a9d9 d1bc 9f12 9e3d
000001f0: 2ca4 003c cfcf 133e ae1a 273d 2873 d6bd
00000200: 53a5 66bd f10e 963d e601 35be 5306 31be
00000210: 5ad3 c43c 88ae 203e 6dab 643d bfec d33d
00000220: f22e d03d 407b c33d 4c8c a83d 476a 42bc
00000230: 5424 fd3a f989 6cbc 369c 23bd 2c3a 28be
00000240: 3c92 b6bc 4fef 833d 3f43 acbd 98f9 aebd
00000250: 557b 27bc 620b 9f3d c05c 1b3e 716e d23d
00000260: 69de 06bd defb f13d e3f8 33be 859d f03b
00000270: b4a8 d8bc 7071 f63d 1bcf 2a3e 0f18 b43c
00000280: 495e c2bd b754 143e 309e 143e 42b0 fcbd
00000290: 0217 c9bc 6ab1 81bd 2d68 1ebd ff55 de3d
000002a0: cbee 843d 1caa 773d 6413 763d ca04 06be
000002b0: ac88 e73d 402c a6bc 759d 0dbe 12eb 2a3e
000002c0: 01a0 c63c 6629 c4bd 197e 33bd 24da 74bd
000002d0: b313 8dbc 4f1d 01bd e200 913d 660f 15be
000002e0: e7d0 533d c840 ae3d a321 2e3e fdbf 2bbc
000002f0: 40c2 b6bc 1df5 433d 68d1 09be 1153 033e
00000300: 4f45 b9bc bb55 d33d 9cda 6fbd 22fb c1bd
00000310: 5e4a 343e 30e0 b3bd 3c6e d03d 46a8 023c
00000320: 5001 d7bd 8820 0a3d 533c 303e be43 e33d
00000330: 68c6 13bd c540 d23d f856 913d 4c90 41bd
00000340: 20ab 06bd 2b65 e63d 5077 833d cb8e e23d
00000350: 68fa 25be a559 afbd 5af0 15be e768 853d
00000360: a94d 0dbd f986 7c3c ed61 b73d b9b8 a83d
00000370: 7c66 fd3d 0683 0dbd e983 bfbd 6fc3 253e
00000380: 35be e4bc 3562 2b3e f2ca 4dbd 82c3 b6bd
00000390: fbb2 4f3d ce71 88bd c688 de3d d7ce f63d
000003a0: b107 28bd 3016 86bc 5f25 a3bd 424c aabd
000003b0: 476b afbd c5ca 14be 89ad 143e 038a fe3c
000003c0: b709 b0bd 4bdb 52bd 83ab 1ebe c759 c6bd
000003d0: 7b13 08bd d27f 143e 7ad7 2b3d 3228 bd3d
000003e0: fee9 debd c5cf e13d 1bce 9fbd e602 0abe
000003f0: c7e9 0ebe 326d c3bd 3a92 afbc c7cf 333e
-0.06491984 0.08783109 -0.14408402 -0.17288458 -0.09134121 0.11831824 0.08933899 -0.14897747
0.14586757 -0.12502563 -0.06986655 0.07888287 0.042033337 -0.12865931 0.059044927 -0.0005844503
-0.1526567 -0.08256174 0.07104584 0.056573022 0.12630005 0.11924072 -0.059933603 -0.14419244
-0.035345063 -0.029844858 -0.08041742 0.015248354 0.071325935 0.06063627 -0.016578231 0.0051606568
-0.17407589 -0.0663938 -0.07562219 -0.10666052 -0.14566898 0.06623129 0.06144218 -0.036894444
-0.16614927 -0.17230755 0.1593008 -0.15942806 0.13352339 -0.117102616 0.09969015 -0.05323229
0.11139054 -0.005807077 -0.101048246 0.062828794 0.05753563 -0.11931332 0.04564708 0.074311845
-0.042039584 0.049554516 0.046049394 -0.0041512325 0.05888216 -0.16973102 0.053949818 -0.046345897
0.114824735 0.06772301 0.04978746 0.07319547 0.018708192 0.011019496 -0.010194838 -0.1043902
0.0804997 -0.1156574 0.16133428 0.014182218 -0.11506597 -0.15601034 -0.05183987 0.08807884
0.09946225 0.091021664 0.12074179 0.052539054 0.1334454 -0.094402656 0.13576107 0.15835112
0.10910797 -0.16402526 -0.04505407 0.05910088 0.060978733 0.025270639 0.11417096 -0.15788357
-0.052293256 0.010885003 0.09674571 -0.09498953 -0.111778624 0.15074627 0.025280101 -0.04062522
0.07238205 -0.0013468236 0.09715569 0.066109434 0.09134854 -0.043644685 0.118466616 -0.0278118
-0.16753516 -0.1175434 0.11138871 0.08828627 0.11037842 0.07641234 0.0797053 0.16395167
-0.039252665 0.0885617 -0.025616484 0.077183954 0.007851642 0.14434741 0.040796928 -0.10471183
-0.05631001 0.073270686 -0.17676505 -0.17287569 0.024026562 0.15691578 0.055827547 0.1034789
0.10165204 0.095449924 0.082298845 -0.011866159 0.0019313195 -0.014437192 -0.039943896 -0.16428441
-0.022286527 0.06442129 -0.08411264 -0.085437 -0.010222276 0.07765843 0.151721 0.10274971
-0.03292695 0.11815618 -0.17575411 0.0073429965 -0.026447631 0.12033355 0.16680567 0.021984128
-0.0949064 0.14485441 0.14513469 -0.12338306 -0.024547104 -0.06332667 -0.03867357 0.10856246
0.06490859 0.060464963 0.060077086 -0.13087764 0.11305365 -0.020284772 -0.13829596 0.16691235
0.024246218 -0.095782086 -0.043821428 -0.059778348 -0.017221307 -0.03152209 0.070802465 -0.14556655
0.051712897 0.0850845 0.17005019 -0.010482785 -0.022309422 0.04784118 -0.13458788 0.12824656
-0.022616057 0.10319086 -0.05855809 -0.09471728 0.17606494 -0.08782995 0.101772755 0.00797469
-0.10498297 0.03372243 0.17210512 0.11096905 -0.036077887 0.1026626 0.07096666 -0.047256753
-0.03287804 0.11249765 0.064192414 0.11062392 -0.16208804 -0.0856202 -0.14642468 0.06514149
-0.03449789 0.015413039 0.08954225 0.08238358 0.12373063 -0.03454878 -0.09351332 0.16187833
-0.027922729 0.16736682 -0.05024237 -0.08924009 0.0507078 -0.066623315 0.10865931 0.1205117
-0.04102296 -0.016368002 -0.07966112 -0.08315326 -0.085653834 -0.14530475 0.14519323 0.031071668
-0.08595603 -0.051478665 -0.15495114 -0.096850924 -0.033221703 0.14501885 0.04195354 0.09236182
-0.10884474 0.11025957 -0.078029834 -0.13477668 -0.13956366 -0.09542312 -0.021432031 0.1755973

feature_extractor.encoder.0.mlp.2.bias f4 [32]
00000000: db23 39be 6170 d6bd d9c5 96bd 47cd 333e
00000010: 7232 0cbd dd93 fcbd 72d0 f93c 3502 183b
00000020: 05a5 adbc 9de8 46bc 7746 1bbe e0b1 b2bd
00000030: 05ee e8bd ae46 873d ecf6 cbbb 2653 06be
00000040: 6e25 cebb b64f bd3d d3ec e43c a358 0e3e
00000050: 9d14 053e df56 843d cbac 23be 14fa 5a3d
00000060: f3e0 a43d ff5b 0bbe d399 1b3e f194 ff3d
00000070: e5e4 26bc dac6 febb 197c 163e 0565 0dbe
-0.18080084 -0.10470653 -0.07361955 0.17558776 -0.034227796 -0.1233289 0.030494902 0.0023194675
-0.021196852 -0.01214042 -0.15163599 -0.08725333 -0.113735236 0.06605278 -0.0062245037 -0.13117656
-0.006291083 0.09243719 0.027944958 0.13901 0.12996145 0.06461882 -0.15983884 0.05346115
0.08050718 -0.13609312 0.15195398 0.1247958 -0.010186409 -0.00777517 0.14695777 -0.13808067

feature_extractor.encoder.0.mlp.4.weight f4 [32, 32]
00000000: ca16 303d 5544 9abd 1016 a03b 0ed7 c03b
00000010: 965d ccbd 645f ad3d 958b 2a3e 83a3 0c3d
00000020: 3d0f ef3d f02b c03c 6659 c13d fdf9 34bb
00000030: eec4 94bd b6fe 333d c05a 423e 9d74 00be
00000040: df3f e4bc c9b7 c4bd 1529 233e 5ee5 03be
00000050: 61f3 0dbe 3417 0f3e 2313 8dbd b11f b0bc
00000060: 8c4e 0f3e 5f95 4cbd 6ac4 e4bd 795f 80bd
00000070: 61f3 bf3d 7ee3 963c 979e b43d 66e0 b93b
00000080: c67a 11bd 173b 84bd 5725 393e cf8b 0dbd
00000090: 1d5f 0c3e 3f04 2c3e c664 4f3d d510 f53d
000000a0: ae8f 0abd 20d0 fa3a 2985 933a 9535 063e
000000b0: 8fac c43d 2118 25be dc3f 0dbe e411 d2bd
000000c0: 8489 69bd 16e9 d8bb 6c45 0fbd 814f 20bd
000000d0: 35a1 36bd 7b6d ecbd 4269 fd3d 18e3 a43b
000000e0: 06be 82bd ad17 b2bb 7a34 cc3d 340b 163e
000000f0: dd8d b53c 4678 163d 0d30 2bbd fa86 0dbd
00000100: 9d91 ba3d f6c9 3a3d 68cf 7d3d 3284 af3c
00000110: eb0e 22be 6b93 3c3d ecb5 423d 1dd8 1dbe
00000120: 8241 e33d 66b2 083e 870b 5c3d 4336 13be
00000130: cc7a b7bd a570 79bd 10e0 2bbe afae 8e3d
00000140: ae6a bf3d fe0b f9bd 3a81 15be 5cac c1bd
00000150: d9be 11bc eb0f 233e 4ccf 4dbd 7a3b 16be
00000160: 50fa 22be 2118 c9bc b0a2 86bd 5643 cf3d
00000170: 0e6c 31be b305 28bd 1df8 c6bd e973 0abe
00000180: e2a8 03be 784a 99bd 26ce d0bc ff39 623d
00000190: 8750 153e 4878 923c 1548 053e 1a6a 543c
000001a0: 3961 273e 59c7 723d a04d 9ebd 4aa9 883d
000001b0: 7451 28bc db4f 113e f1bf 093e d814 94bd
000001c0: f97b 60bc 37a5 b0bd 3cc1 1ebd c0ed 0abe
000001d0: 0678 1c3e 69b8 cd3c 146a 013e 0584 163e
000001e0: e683 2bbe 9d04 273d 4b71 e9bd de4b 4d3d
000001f0: e08c f3bc b017 2cbe c5b4 cfbd 3f8b 373d
00000200: f2d7 5fbd 668d a6bd f0f5 113e c3ca e3bd
00000210: 00e8 493d 2d66 c2bc b4e2 113e 787d 91bd
00000220: 741a 13be 616e 2c3e 6a41 5e3d bd1e 01be
00000230: 1518 29be 037f 883d 5d3d aa3d 9ae4 c2bd
00000240: 669e 1a3e f336 1f3e 0fc6 4a3d 416c fc3c
00000250: 16b1 14be 131a 89bd 7b7c 01be 4ae0 e9bd
00000260: 0054 98bd b25d d83c 4868 bbbd 1f75 243e
00000270: 1302 e4bc ba50 9bbd bfc5 373c 54f9 1d3e
00000280: a216 013e 3e47 023e 14ba dbbd c20a c73c
00000290: 4c0c d83b 6883 3abd 4c0c 0cbe 3654 0bbd
000002a0: ca3e b13d 0d30 0d3d 8768 2bbd e1a3 8e3b
000002b0: 99e7 19bd 6573 fbbc ddc3 b2bc 5140 1d3e
000002c0: 86c3 c8bd 811c 883d 8545 5dbd c0f7 353e
000002d0: 4d96 ecbd beaf 0abe 4045 d33d c976 093e
000002e0: 8d3a e5bd 375c 16be 1e62 06be 077e 22bd
000002f0: 74d1 533c bb86 263c 5561 c73d a8b4 ff3d
00000300: 0421 c3bd 6918 cb3c 133f 22be 4691 de3d
00000310: 2c5d bc3d 4ab3 84bd ecad cf3d 6332 9b3c
00000320: 0b89 baba 4dea 313e cebf 7c3d eb71 163d
00000330: 5071 b5bc 6b51 813d 559d 963d ee4c 9a3c
00000340: 716b d03d 302e 21bc 31ca 78bd 9dc9 20be
00000350: db16 c4bd 1c93 063e a18c 2cbd 5027 fa3d
00000360: a060 123e 08a5 babd a695 343e 9665 393e
00000370: c8bd f2bc 286a 3a3e 9aa8 763d c201 79bd
00000380: 9618 033e 4c8f 68bd d5f1 ec3d 9152 ee3d
00000390: 1e09 1dbe fba1 19be 5521 28be f858 813c
000003a0: 6c22 ba3d 8b89 3b3c e09e a93d ac7c 10be
000003b0: cc73 bf3c 79af 55bd 567f ffbc b136 febd
000003c0: 3ced dfbc 5509 92bd 0c19 b33c 4eea 79bd
000003d0: 627b bd3c 4aa6 cb3c 18fc 0d3d 18f7 efbd
000003e0: 4b9b a63d ee73 7a3d 8677 883d c55a 9fbc
000003f0: 4f28 843d c19b 40bc d36f a63d 890d 15be
0.042990483 -0.075325646 0.0048854426 0.0058850115 -0.099787876 0.0846546 0.16654809 0.034335624
0.11672828 0.023458451 0.094408795 -0.0027614825 -0.07264124 0.043944083 0.18979931 -0.12544484
-0.027862487 -0.09605367 0.1593364 -0.12880465 -0.13862373 0.13973695 -0.06888416 -0.021499487
0.13994807 -0.04994714 -0.111702755 -0.0626821 0.09372593 0.018419024 0.08819311 0.0056725023
-0.035517476 -0.06456583 0.1808065 -0.03455716 0.13708158 0.16798495 0.050633214 0.11966101
-0.03382843 0.0019135512 0.0011254895 0.13106377 0.096032254 -0.16122486 -0.13793892 -0.102573186
-0.05701591 -0.006619583 -0.034978315 -0.03913832 -0.044587333 -0.11544319 0.12373592 0.0050319545
-0.063839 -0.0054349513 0.099709466 0.14652711 0.022162372 0.036735795 -0.04179387 -0.03455255
0.09109805 0.04560276 0.061965376 0.02142534 -0.15826003 0.046039026 0.047536775 -0.15414472
0.11096479 0.13349304 0.05372193 -0.14376168 -0.089589685 -0.06089844 -0.16784692 0.06966912
0.093465194 -0.121604905 -0.14600077 -0.09456703 -0.008895599 0.15924041 -0.05024652 -0.14671126
-0.15915799 -0.024547638 -0.06573999 0.10120265 -0.17326376 -0.04102106 -0.097152926 -0.13520779
-0.12857392 -0.07484907 -0.025488924 0.05523109 0.145815 0.01787962 0.13015778 0.01296475
0.16345681 0.059272144 -0.077296495 0.06672914 -0.010273326 0.14190619 0.13452126 -0.07230538
-0.013701432 -0.08625262 -0.0387585 -0.13567257 0.1528016 0.025112348 0.12638122 0.14698799
-0.16749534 0.040775884 -0.11398562 0.05012118 -0.02973026 -0.16805911 -0.10141901 0.04481053
-0.0546493 -0.08132438 0.14253974 -0.11122658 0.049293518 -0.023730362 0.14246637 -0.071040094
-0.1436556 0.16838981 0.054261602 -0.12609382 -0.16513093 0.066648506 0.08312485 -0.095162585
0.15099487 0.15548305 0.04950529 0.030813338 -0.14520678 -0.066944264 -0.12645142 -0.11419733
-0.07437897 0.026411865 -0.091507494 0.16060303 -0.02783302 -0.07583757 0.01121658 0.15427142
0.1260629 0.12722489 -0.10728851 0.024297122 0.006593263 -0.045535475 -0.13676566 -0.034015857
0.08654554 0.034469653 -0.041847732 0.004353032 -0.037574384 -0.030694673 -0.02182191 0.15356566
-0.09802918 0.06646062 -0.054021377 0.1777029 -0.11552105 -0.13543603 0.10315943 0.13424219
-0.11192808 -0.14683615 -0.13123366 -0.03967097 0.0129283555 0.010163958 0.097353615 0.12485629
-0.095277816 0.024791913 -0.15844373 0.108675525 0.091974586 -0.06479509 0.10140595 0.018944925
-0.0014231516 0.17374535 0.061706357 0.036729734 -0.022148758 0.06314357 0.073542275 0.018835511
0.10176743 -0.009837672 -0.0607397 -0.1570191 -0.09574672 0.13142055 -0.0421263 0.122145295
0.14294672 -0.091135085 0.17635211 0.18105158 -0.02963151 0.18204558 0.060219385 -0.060792692
0.12802348 -0.056777284 0.11569563 0.11636842 -0.15335509 -0.15003197 -0.16418965 0.015789494
0.09088597 0.011446367 0.08282256 -0.14110059 0.023370646 -0.052169297 -0.031188648 -0.12412775
-0.027334802 -0.07130686 0.02186253 -0.061014466 0.023130123 0.024859566 0.034664243 -0.11717051
0.081350885 0.061145715 0.06663422 -0.019452462 0.06453001 -0.011755885 0.081267975 -0.14555945

feature_extractor.encoder.0.mlp.4.bias f4 [32]
00000000: c88d 5c3c 504c 053e 8afa b93c 1274 2b3e
00000010: 98cc 833d 3688 17be c6af 8cbd 8380 963d
00000020: 692b 423d 3f8c 8ebd 54c4 31be f947 08be
00000030: 03d7 d63d f6e4 9e3d d71c 35ba 1070 7dbd
00000040: 058e a83d 0780 9e3c 92db 95bc c96f ed3d
00000050: e517 7dbd 3135 ef3c 621a 31be 870c 733d
00000060: 7fd7 7ebd 1e76 0b3e eaae 773c cc3d 293e
00000070: 0870 3a3d 4813 043e 4d0c 013d 7ee5 e8b8
0.013461538 0.13017392 0.022702474 0.16743496 0.064355075 -0.14798054 -0.068694636 0.073487304
0.04740468 -0.069603436 -0.1736005 -0.13308705 0.10490229 0.077585146 -0.00069088995 -0.06187445
0.08230213 0.019348158 -0.018293176 0.11593587 -0.061790366 0.029200168 -0.1729522 0.05933812
-0.06221723 0.13619277 0.015117386 0.1652748 0.045516998 0.1289798 0.03150587 -0.00011105368

feature_extractor.encoder.1.mlp.0.weight f4 [32, 47]
00000000: 02ee c83d fc6c 32bc 6a63 1a3d 0aa6 a53d
00000010: 83f5 813d d85a d73b 5684 6d3c b246 0fbe
00000020: d50d 15be 71a7 bd3d 55c4 da3d 6da9 9c3b
00000030: 0725 973d 608e 613d 583e ce3d fcb0 453d
00000040: b48f ca3d c869 343d eb8b cabc fdb4 513d
00000050: 13c8 c33d 416d a73d 3dee a63d 6e9e 873c
00000060: fdb3 f6bd 3c2e 45bd caea b53a 1483 943d
00000070: 6cd1 dcbd cdfe dabd 6af8 eabd f9d1 3339
00000080: 6796 a9bd 8119 98bc 5c38 54bd be95 e83a
00000090: f8d4 c7bd e980 ba3d 69bc b3bd fba7 14bd
000000a0: 6691 643d 7744 f63d 57ce 09be 6ca9 163d
000000b0: 286d 9d3c 27c0 b1bc 922b d2bd 5a51 bebd
000000c0: fb25 38bd 8d87 c63d ee40 fb3d 6768 76bd
000000d0: b51c 2abd 54ab b4bd 22c6 b2bd 3091 afbc
000000e0: 83a8 c43b fae7 0cbd dd2b be3d d813 7b3d
000000f0: 17bd 793a 04a8 afbd aa57 7d3c 7459 083e
00000100: d7cf e7bb 8b73 8d3d 5b6c c83c 6432 053e
00000110: 6aa1 a33c 8fe8 c13d c6a8 eebd 77e9 99ba
00000120: c7fa 713d a406 a43c 3089 443c e3ff 133e
00000130: 834c 0c3d c5a1 a53c ff02 a5bd 4be2 843d
00000140: 12ba 073e 255c d7bc f2a0 02bd 70d0 b0bd
00000150: a47e d5bc 56c3 93bd 01a3 f13d daf2 c83d
00000160: 9116 113e 3a3d 43bd b5b8 9dbd be81 333d
00000170: ac52 5fbd e477 d8bd 4236 443d 3b61 97bc
00000180: 40ca eb3d 9279 743d cb5f e0bd 6b60 4cbd
00000190: 2529 323d a70c 35bd 4c91 8cbc 042a a9bd
000001a0: 7093 f2bc 0ab9 a83d c601 473c 98cf 9f3d
000001b0: 3d74 02be 9392 9f3d 05ae 803d 2629 d8ba
000001c0: 1be3 ed3c ba7d 233d 0b4d 423d 6066 15be
000001d0: 295a 493d 0114 e23b 920a 32bc b668 033b
000001e0: 08a5 a5bd 9303 cdbc fe87 a2bd 33dd 1c3e
000001f0: 8230 01be 4949 fa3d d73c d7bc 97e3 a6bc
00000200: 5be0 723d 88d6 0d3e ddd5 ebba a121 62bc
00000210: fc59 013e 1d50 9b3a 23b8 bd3d d87e 183e
00000220: 6213 633d f0ca 723d 4986 36bd 5b04 d9bd
00000230: 1d22 84bd 1569 be3d 7b6b e0bc e789 4f3d
00000240: 4d4f 04be 7d5a e5bd 85cd 46bd 06a1 103e
00000250: 8b7b 8cbd b592 bd3c f764 2fbd b4ed 09be
00000260: 8832 c83d 6d7a a23d 678e c23c 1571 0eba
00000270: b373 243d 2e05 87bd 8fcf b9bd 2cd0 5c3d
00000280: 4b93 9dbc 0ebf 9abd 3600 8a3c 110f 05bd
00000290: e4d9 dc3d b2d9 073d 7d2c 9ebd 17c6 fa3d
000002a0: fd13 69bd 9ca7 6bbd 9439 aebb 9fed 043e
000002b0: cd28 cf3d c4d4 113e a2f8 813d 3a65 04be
000002c0: e954 05be 14ab aa3d bada 83bd 54c6 593c
000002d0: 83ca 113d dddf 95bd 1bcb c73d 0e60 ad3c
000002e0: a1b0 c23d 5e50 903d d162 b4bb 0e6c fabd
000002f0: 6263 11be d4c3 81bd a330 d4bd 16bc 193d
00000300: b015 dbbd 44c7 2dbd b48a 97bd 846f 0c3d
00000310: 1ce6 93bc 60d9 b4bc c9ed be3d 8e8e 89bb
00000320: 2a3e 1ebd a984 47bd c08c a13d 9618 3bbd
00000330: 6e34 7b3d bb8d 92bd 5b5e f4bc 669f 073b
00000340: 495f c6bd 2f6f 4b3c a2b9 5bbd b8a9 46bd
00000350: e1f5 c8bd 8603 d83c 2c3f b93d bead d1bd
00000360: 9201 febd c74f b0bd dd4e 70bd f13f 973d
00000370: 976b 33bc 7bbb bf3c 4f80 c0bd b6da 08be
00000380: cca3 ddbd 7052 83bd c96d e13d 5c58 983d
00000390: f25f 1dbd 294d ed3d c40f f03c b727 863d
000003a0: b32a 253d 8888 123b 54df 923d a032 2dbd
000003b0: 4fa6 04be e7e3 6dbd 10c4 5b3b bd6e 333d
000003c0: 2d06 59bd 7868 ebbc b1a7 b53d 8981 cabc
000003d0: 3240 123e d90c 86bd eeca 7c3d a3d5 083e
000003e0: 7d01 06be e497 bd3d e16c db3d 6be4 eabd
000003f0: c745 02bd 735a e2bd 76ca 773a 79dd 47bd
0.098110214 -0.010890242 0.037692465 0.0808831 0.06345656 0.0065721087 0.014496883 -0.13991812
-0.14556058 0.092604525 0.106819786 0.0047809393 0.07380109 0.05506742 0.10070485 0.04826449
0.098906904 0.044046193 -0.024724921 0.051197995 0.095596455 0.081751354 0.08150909 0.016555037
-0.12046049 -0.048139796 0.0013879177 0.07251564 -0.107821316 -0.10693131 -0.114731625 0.00017148991
-0.0828064 -0.018566849 -0.05181156 0.0017744822 -0.097574174 0.09106619 -0.08776171 -0.03629301
0.055802725 0.120247774 -0.13457619 0.036782667 0.019217089 -0.02169807 -0.10262217 -0.0929286
-0.044958096 0.09693823 0.12268244 -0.06015816 -0.041531283 -0.08821741 -0.08729197 -0.021431535
0.0060015335 -0.034400918 0.0928571 0.06129822 0.0009526773 -0.08576968 0.015462795 0.13315374
-0.007074337 0.06906804 0.02446573 0.13007504 0.01997443 0.09468185 -0.11653285 -0.0011742552
0.05907705 0.020022698 0.011995599 0.14453082 0.034252655 0.02021874 -0.08057212 0.064884745
0.13254574 -0.026289055 -0.03189177 -0.08633506 -0.026061364 -0.07214992 0.11798669 0.09811945
0.14168765 -0.047665812 -0.07701246 0.043824904 -0.0545222 -0.10569742 0.047903307 -0.01847898
0.115131855 0.05968625 -0.10955771 -0.04989664 0.04349627 -0.04420152 -0.017159127 -0.08259967
-0.02961132 0.082384184 0.012146419 0.07803267 -0.12739654 0.07791629 0.062831916 -0.0016491755
0.029038956 0.039914824 0.047436755 -0.14589834 0.04915825 0.0068993573 -0.010866778 0.0020051426
-0.08088118 -0.025026118 -0.07936095 0.15318756 -0.1261616 0.12221009 -0.026274128 -0.020372195
0.059295993 0.13851368 -0.0017992813 -0.013801963 0.12631983 0.0011849437 0.09263637 0.14892137
0.055438407 0.059275568 -0.044561658 -0.10596534 -0.06451819 0.092973866 -0.027395 0.050668623
-0.12920876 -0.111989 -0.048535842 0.14123926 -0.068595015 0.023141244 -0.042820897 -0.13469583
0.09775263 0.07933507 0.023749543 -0.00054337207 0.040149402 -0.06592785 -0.09072792 0.053909466
-0.019235274 -0.07555972 0.016845804 -0.03248507 0.10783747 0.033166595 -0.07723329 0.12244814
-0.056903828 -0.05753289 -0.0053169224 0.1298127 0.10115204 0.1424132 0.06346251 -0.1292924
-0.13020672 0.08333412 -0.06438203 0.013291914 0.03559352 -0.07318089 0.09755536 0.021163967
0.095063455 0.07046579 -0.005504944 -0.12227641 -0.14198068 -0.063361794 -0.10360839 0.03753289
-0.10697496 -0.042426363 -0.073995024 0.034286037 -0.01805406 -0.022076309 0.09322698 -0.004197902
-0.038633503 -0.0487105 0.07888174 -0.045677744 0.061329298 -0.07155939 -0.029830148 0.0020694374
-0.09686143 0.012416645 -0.05364383 -0.0485017 -0.09812523 0.026368868 0.09045252 -0.10238217
-0.12402643 -0.08608966 -0.05866896 0.07385243 -0.010950944 0.023404827 -0.09399473 -0.13364682
-0.108222574 -0.06412208 0.11007268 0.07438728 -0.03842158 0.11586983 0.029304393 0.06550544
0.040323924 0.002235921 0.07171503 -0.042284608 -0.12954067 -0.058078673 0.003353361 0.04380678
-0.052984405 -0.028736338 0.08869875 -0.02471997 0.14282301 -0.06545419 0.061716966 0.13362746
-0.13086505 0.092574865 0.107141264 -0.114693485 -0.031804826 -0.11052408 0.0009452471 -0.048795197

feature_extractor.encoder.1.mlp.0.bias f4 [32]
00000000: 7928 d0bd 1cea b1bd 0a17 9f3d 8aa1 533c
00000010: 65e0 db3d 643c 5b3b a0a8 bf3b 321f c53d
00000020: 8f19 eebc e5fe 0fbe 1472 0a3e af18 bd3c
00000030: 01ce 953d 1d61 ec3d 1fe9 f63d c00a 903d
00000040: 7cdd bdbc 0d2d 083e dcf6 90bd 5112 06be
00000050: 51b9 393d 7c2c 7c3d dc1f ea3d 879f ae3c
00000060: 62f3 e4bd e224 02be 05e5 f7bd 8bce fabd
00000070: c72d d33d 5a86 cbbc a0d3 87bd 2851 f43d
-0.101639695 -0.08687231 0.07768066 0.012916932 0.10736159 0.0033452744 0.005848959 0.09625091
-0.029064922 -0.14062078 0.1352008 0.02308306 0.07314683 0.115419604 0.12056183 0.070333004
-0.023176901 0.13298436 -0.07078335 -0.13092925 0.045342747 0.06156586 0.11431858 0.021316303
-0.11179234 -0.12709382 -0.12104229 -0.12246426 0.10311466 -0.024844337 -0.06632161 0.11929542

feature_extractor.encoder.1.mlp.2.weight f4 [32, 32]
00000000: 688b 16bd 9acf 29be e74b c03d 71bc 5bbd
00000010: d226 2bbe 93c8 28bc dc6c fdbb 6125 7fbd
00000020: 040b d63c 2b69 dbbd 556e 23bc f004 45bd
00000030: 7954 e0bd d404 4ebd ef47 7bbd ddee aebc
00000040: b4aa 44bd c282 3a3e 258b cfba a680 213e
00000050: 0386 bfbd 08d9 bcbd 9bd7 453c 54e3 953c
00000060: 180b 933d f63a 2b3e a641 28be 5164 95bd
00000070: 29e7 f03d 0a71 34be 6541 0b3e 95bf ca3c
00000080: 4fab 273e d831 c5bd 8267 12bd 2198 fe3d
00000090: f6bc 9a3c 2fcc 8e3b 719e a3bc ec59 7b3c
000000a0: d71e a13d cdc7 31bd d404 8bbd 04c8 32bc
000000b0: b563 733d 6b0f dc3c 39f1 32be 036b 213d
000000c0: 3239 1dbe f5f4 2fbe 9222 b9bd 4b4a ef3d
000000d0: a2e0 883c cc74 1dbd 7598 8bbd 711a f6bd
000000e0: b174 3abd 40ab 143e c7e2 32be 98b4 f53c
000000f0: 96a3 39bc e94f 2dbe 8967 443d b179 d63c
00000100: 00fe ccbd 9a52 2ebe a4ec b13d 143f aebd
00000110: 7e69 2a3e a82f efbd f0c9 133e a99a 243e
00000120: e889 eebd 1c3a 26be 531d ad3d 0207 5c3d
00000130: 7485 9cbd 5c26 853d 263d 2d3d 2229 6b3d
00000140: b004 03bc 84e6 eabd 356c 893b a5ea fb3d
00000150: b552 e1bd 7480 213e 428e c6bd 89c8 30be
00000160: c080 743d a9fc 923d 6fd5 6cbd 1af9 f0bd
00000170: 41ee dcbc 3e0c c6bd 2d93 cdbd c556 cb3d
00000180: 20aa b13d 35f3 803d 151c 103e 5d65 d4bd
00000190: 7b4d 41be 494f 48bd b6bc bebb aaad 843d
000001a0: ee79 f7bc 782d 0cbd 72fe 16be 53b9 b8bc
000001b0: 0338 25bd 4ebb 0bbe 75ab 303e 2237 b5bd
000001c0: 4293 09bd 6bcc 02be e6ad 07bd 4f27 ce3d
000001d0: e552 9bbd dd35 11be b184 163d e60e 3bbe
000001e0: 3070 073e 7f52 02be 72ff a6bc 5334 d73d
000001f0: 4fbc 0e3e 95e4 2b3d f45a e73d a75c 0dbe
00000200: a794 bf3b 5766 543d 2e00 353e 2cba 02be
00000210: 15cc 85bd 8473 f53d 19f7 e6bd d4cc d13b
00000220: 1c88 9d3d 4b56 ae3d 28ed d13d 75ce 883b
00000230: b968 9f3d 7172 013d d50a 13be fb93 1cbc
00000240: d8b9 2abe 0b43 0abd 733f 913d 9e0f 33be
00000250: 0612 143e 24eb 10be 4a9a 003e cb60 ed3d
00000260: 7d4d 903d c9c9 503d e03e 023d 9d3b 7c3b
00000270: 29b2 22be 5431 823d f006 113e 9abc 11be
00000280: a26f 2dbd c274 d33d 4109 b6bc 7c42 1c3e
00000290: 1a56 a5bd d373 9bbd 94f0 d53c 55da 0d3e
000002a0: 5401 e7bd a87f 883d b4c5 c93d 657f 1cbe
000002b0: a256 e33d c969 163c 115a cc3b 7107 dabc
000002c0: f26e 26be 5930 583d 1bda a93c c0f2 2d3c
000002d0: 10a4 7c3d e561 d53d 2a93 edbd 34ac 113e
000002e0: ef98 c13c 0f62 a2bd 599e d6bd c5cd 9fbd
000002f0: 4e8a 6c3d cb6c c43c af07 0a3e fe93 bcbd
00000300: c8f0 013e 6eb7 d43d b99f 30bd d072 2bbe
00000310: 3996 9b3d 2d18 b63d dbc1 17be c39c 0f3d
00000320: 3aeb ae3d e354 bc3c 62b1 233e 2063 6d3d
00000330: 5395 04be 1956 673d 8a0b 343d b330 57bd
00000340: d092 d1bd 41dd cd3c 4359 18be d94d 2dbe
00000350: d1ca 63bd 2d44 c73d adeb 3bbc a5a9 22bc
00000360: 16ad 12be dec8 13be c7a3 3ebd 92db f6bd
00000370: 96e9 36be 0dba 243e 7fc5 283e dcbf dbbd
00000380: 2cb1 073d 05e7 da3d 2728 24be bfbe 30bd
00000390: 838d 173d d38e ecbd ef10 eabd cb88 bb3d
000003a0: e328 f3bd fa12 12be 359c 2bbe 2771 993d
000003b0: f3d1 a13d dd28 623d f51d a5bd 5f3c 273e
000003c0: 6856 98bd aee9 fcbd 8b3d 84bd 7eb5 96bd
000003d0: 710c 0fbe d8b4 aabd c8fd adbd ca72 1d3e
000003e0: 15d0 a3bd dd3c 773c b0f4 e23d 8a02 ad3d
000003f0: 1793 153d b038 1ebe 4489 1ebe 8ba2 b13d
-0.036754042 -0.165831 0.09389477 -0.05364651 -0.16714028 -0.010301727 -0.0077339243 -0.062291507
0.0261283 -0.107134186 -0.009975036 -0.048100412 -0.10953612 -0.050297573 -0.061347898 -0.021354133
-0.048014358 0.18213943 -0.0015834315 0.15771732 -0.093517326 -0.09221083 0.01207533 0.018296875
0.0717985 0.1672171 -0.16431293 -0.072945245 0.1176284 -0.17621246 0.13599165 0.024749557
0.16373943 -0.096286476 -0.035743244 0.1243136 0.018888932 0.0043578367 -0.019973012 0.015341263
0.0786721 -0.043403435 -0.0678803 -0.010911945 0.05942126 0.02686282 -0.17474832 0.039408695
-0.1535385 -0.17183287 -0.09039797 0.11684092 0.016708676 -0.038441464 -0.06816188 -0.12016762
-0.04552144 0.14518452 -0.17469321 0.02999334 -0.011330506 -0.16925015 0.0479503 0.026181074
-0.10009384 -0.17023697 0.08687714 -0.08508125 0.16641805 -0.116790116 0.14432502 0.16074623
-0.11647397 -0.16233104 0.08452859 0.05371762 -0.07642642 0.06501457 0.042294644 0.057412274
-0.007996723 -0.114697486 0.0041938075 0.12300614 -0.11002103 0.15771657 -0.09695102 -0.17263998
0.059693098 0.07177097 -0.057820734 -0.11766262 -0.026969077 -0.09670304 -0.10037837 0.09928659
0.08675027 0.06296388 0.14073212 -0.10370896 -0.18877213 -0.048903737 -0.005820836 0.06478436
-0.030209508 -0.03422305 -0.147455 -0.022549307 -0.04033662 -0.1364567 0.17252906 -0.088484064
-0.0335877 -0.12773292 -0.033124827 0.10066091 -0.0758417 -0.14180703 0.036747638 -0.18267402
0.1322639 -0.12726782 -0.020385478 0.10508027 0.13939022 0.04196604 0.11296645 -0.13804875
0.005846578 0.05185541 0.1767585 -0.12766331 -0.06533066 0.119849235 -0.11277599 0.0064025912
0.076919764 0.08512553 0.10250312 0.004175002 0.07783646 0.03160328 -0.14359601 -0.009556766
-0.16672456 -0.033755343 0.0709218 -0.17486426 0.1446 -0.14152199 0.12558857 0.115907274
0.0704603 0.050973687 0.031798244 0.003848768 -0.15888275 0.06357065 0.14162803 -0.14232102
-0.04234279 0.10325004 -0.02222121 0.15259737 -0.08073063 -0.07590451 0.026115693 0.13852818
-0.1127955 0.066649735 0.09852162 -0.15282972 0.11100508 0.009180495 0.0062363227 -0.026614876
-0.1625326 0.052780483 0.020733884 0.010616958 0.0616799 0.104190625 -0.11600335 0.14225847
0.023632495 -0.079288594 -0.10479421 -0.07802919 0.057749085 0.023977658 0.13479494 -0.09207915
0.12689507 0.10386549 -0.043121073 -0.16743016 0.07597012 0.0889133 -0.14820044 0.03506161
0.0854096 0.022989696 0.15985635 0.05795586 -0.12947588 0.056478593 0.043956317 -0.052536678
-0.102330804 0.025129916 -0.148778 -0.16924228 -0.055613343 0.097298004 -0.011469764 -0.009928142
-0.1432384 -0.14432094 -0.04654291 -0.120535985 -0.17862543 0.16086598 0.16481589 -0.10729954
0.03312795 0.10688595 -0.16030942 -0.04315066 0.03700019 -0.11550679 -0.11429011 0.091569506
-0.11873033 -0.14265051 -0.16758807 0.07492285 0.07901373 0.05521475 -0.080623545 0.16331623
-0.07438356 -0.12349258 -0.06457051 -0.07358836 -0.1396959 -0.083352745 -0.084956706 0.1537582
-0.07998673 0.0150901945 0.11081827 0.0844775 0.03651723 -0.15451312 -0.1548205 0.08673581

feature_extractor.encoder.1.mlp.2.bias f4 [32]
00000000: 4ee2 d8bb 0247 ea3d f59e d13d 4a26 563d
00000010: a6c6 debd 1dfe cebc 6dee 983d 1f1a 883d
00000020: fc06 123e 8988 9c3c bcc5 ce3c f97a bb3a
00000030: 09ba 28bd 1e81 033c 8743 ce3d 4709 d6bd
00000040: 6172 23be 606a a6bd 5908 273e bae0 9f3d
00000050: aff5 163e d86c 9fbd 79f7 0bbe c7e7 f6bd
00000060: f8f2 83bd 80f3 3bbd cc55 00be d978 273e
00000070: 5818 f8bd eb44 d63c d8f1 343d 1e7a c33d
-0.0066187745 0.11439325 0.10235397 0.05228261 -0.10877733 -0.025267655 0.07467351 0.06645607
0.14260477 0.019108074 0.025240771 0.0014303616 -0.041193042 0.008026389 0.100714736 -0.10450988
-0.15961601 -0.08125758 0.16311778 0.07806535 0.14742158 -0.07784432 -0.13668622 -0.12055927
-0.06442827 -0.045886517 -0.12532729 0.16354693 -0.12114018 0.02615591 0.044175953 0.095447764

feature_extractor.encoder.1.mlp.4.weight f4 [32, 32]
00000000: 110f 0abe d270 7ebd 0873 253e b330 cebd
00000010: a590 8f3d 4f96 bebd 07b1 c3bd 2f54 4b3d
00000020: 4149 9cbd 2d4d 0e3e ef43 a2bd b5ba 073d
00000030: 55af 3f3d 0619 1c3d 2fc4 68bd a36c 28be
00000040: 1f3d 98bd e995 e7bd 1674 f73c 9587 f5bd
00000050: 0ed2 00be 036f 2cbe c3ae 14be 70d6 c8bd
00000060: bdc6 d53d 9f73 20be 2f30 e23c 3225 203d
00000070: e100 31bd 9bdc 93bd d789 bdbd 803b 91bd
00000080: 002a 12bb d025 1f3e 373b f53d b455 933d
00000090: 1df6 fdbc 7a60 07be 54e4 803c c564 babd
000000a0: e0d2 c73d 0889 01be 6399 6a3d 378c f7bd
000000b0: bbfe b4bd 329f e83c 2611 703b b0b9 3ebd
000000c0: 55b8 d63d 8ebe 65bd 1f08 253e 81ab 1d3d
000000d0: 3e03 a43c ecc8 03be 4791 1fbe 60b8 493d
000000e0: 00bf 16be 47d8 0abe 11c2 263e 9d67 c03c
000000f0: 5429 ff3c 7f6d 0a3e dac1 2c3d a1a1 0c3e
00000100: a283 3c3e d487 94bd 411b e13c 01cb 283d
00000110: 7a18 d3bd fe2f c0bd 12d0 7c3d da7c 413d
00000120: 00b5 acbd 50b7 cb3d 179d 55bd aa13 5b3d
00000130: 3bee e3bc 0d1d 023e 199c 823d 6c66 36be
00000140: 7435 19bd dbb5 a33d 3027 42bd cd24 e33d
00000150: 38ee cfbd 3690 b0bc 6d6d 883c 3a98 763d
00000160: cdff a23d f667 253e 6d17 2f3d f545 acbd
00000170: 640c 22be 9903 d6bd 80d5 123e e862 ddbc
00000180: bcdc 0d3c e30b f4bc 9b48 8a3d b6c5 25be
00000190: 93a8 6dbd 0f4b fbbc 3cb1 abbd 14af 823d
000001a0: 3dc5 14be d746 573d 185c ac3d 3adc 9fbd
000001b0: 28a3 d63d 159c 163d 5fe9 16bd ba25 3e3b
000001c0: d5cb 0dbe 49e5 6f3b afb4 8a3d 9025 17be
000001d0: cc33 153d c88a e1bd b8c3 4abc 1c46 b2bd
000001e0: 63e6 5abc 3223 33be 513c 05bd 6fd6 933d
000001f0: 86b5 b13d acab 883d cdc0 05be 2741 bc3c
00000200: 4a6c 223d ec79 29be b89b 0e3e bfb9 5fbd
00000210: 36f6 3f3d 17e0 dd3d 86d2 da3d 33e1 833d
00000220: bac7 28be 1a90 22be 61a9 a1bc d3bc a0bd
00000230: e1e0 873b eda0 fe3d 5f7a c3bc cdb3 cc3d
00000240: 22c3 153e 23cf 0e3e 873b debd b6cf b3bd
00000250: a331 863c 590e 203e 8320 81bd 6b01 afbd
00000260: d492 7bbc dd52 293e 5064 34bc 40e2 8dbc
00000270: 602c febd 8340 153e 7995 183e 1c1b cdbd
00000280: f628 f8bd 4069 17bd 14e3 edbd a63e 223e
00000290: f2c4 6a3d d954 bfbd fd67 d5bd d984 34be
000002a0: 1d61 14be f0dd 60bd a0a6 97bd 0052 f6ba
000002b0: d645 723d 2757 7f3d b6eb 92bd 57ab 153e
000002c0: 8973 52bd 00e2 2fbe 3542 083e 250a bc3d
000002d0: d2c5 4fbd facc 02bd 06e2 36bc d032 a43d
000002e0: f07f 69bd de1a 1d3e f0a7 fcbd 12e3 cbbd
000002f0: 12dd 4a3d f4fc e9bd 21f5 cabd 1df6 793c
00000300: 4f05 ccbc 2ed7 c0bd 6a91 c43d 61d0 c0bd
00000310: 62c4 0ebe f84a f7bd 63ce 323e 9356 8bbd
00000320: 769b 893c b6f5 7abd 49dc 3abd 5495 903d
00000330: 4c90 1f3d 0259 d6bd 56bd 2e3e 6965 80bd
00000340: 9902 183e 00f7 c23c 24f6 103e 9303 843c
00000350: 1042 623d 5d98 063e 7fab ddbd 077d d6bd
00000360: b679 c73d 09b7 9e3d 7bc4 da3d d213 9f3d
00000370: 9bce 143e ca65 88bd 7bdf b7bd f762 acbc
00000380: f75c 3a3e bf68 a33d 4b38 d93d 8b19 bf3d
00000390: 8162 dabd e134 0f3d b2d3 1bbe 9525 753d
000003a0: 2455 2ebe eb66 cebd 1a06 bc3d a686 2c3e
000003b0: 632d e1bd fb01 0dbe 91a6 4f3d b3e4 0ebe
000003c0: 70dc f03d d423 6abd 1454 003e 5dc7 8fbd
000003d0: 05a6 2abe 4509 09bd 8cae e93d 144b 37be
000003e0: c4f6 233d 787d df3d 1035 86bd 971c 33bd
000003f0: 61b2 153e 3c83 f1bd 8108 1f3d 8006 12bc
-0.1348231 -0.062119313 0.16157162 -0.100678824 0.07010011 -0.09306013 -0.0955525 0.04964083
-0.076311596 0.13896628 -0.079231136 0.033137042 0.04679807 0.0381098 -0.05682772 -0.16447692
-0.07433533 -0.1130789 0.030206721 -0.11988751 -0.1258013 -0.16839223 -0.14519791 -0.09806526
0.10438297 -0.15669106 0.027610866 0.039097972 -0.04321373 -0.072198115 -0.092548065 -0.07091427
-0.0022302866 0.15541768 0.11974185 0.07194081 -0.031001145 -0.13220397 0.015733875 -0.091012515
0.09757018 -0.1264993 0.057275187 -0.12087291 -0.088376485 0.028396223 0.0036631315 -0.046563804
0.10484377 -0.05608993 0.16116379 0.038493637 0.020021077 -0.12869614 -0.15582763 0.0492481
-0.14721298 -0.13559066 0.16284968 0.023486907 0.031147636 0.13518332 0.04217706 0.13733532
0.18409589 -0.0725247 0.027478816 0.041209225 -0.10307403 -0.09384154 0.06172187 0.04723821
-0.084329605 0.099470735 -0.052151766 0.05348555 -0.027823558 0.12706394 0.063774295 -0.17812508
-0.037404492 0.079936706 -0.047400653 0.110910036 -0.101528585 -0.02155314 0.01665374 0.06020377
0.079589464 0.16152939 0.04274695 -0.08411781 -0.15825039 -0.10449905 0.14339256 -0.027024701
0.008658584 -0.029790824 0.0675213 -0.16188702 -0.058022093 -0.03067544 -0.08383414 0.0638105
-0.14528365 0.052557793 0.08416003 -0.07805677 0.10480338 0.036769945 -0.036843654 0.0029014186
-0.13847287 0.003660517 0.06772744 -0.14760423 0.03642635 -0.110127985 -0.012375765 -0.087047786
-0.013360593 -0.17493895 -0.032528225 0.07218634 0.08677201 0.06673369 -0.13061829 0.022980286
0.039654054 -0.16550416 0.1392659 -0.0546205 0.046865664 0.10833757 0.106846854 0.06439438
-0.1648244 -0.15875283 -0.019734086 -0.07848515 0.0041466807 0.12433038 -0.023862062 0.09995232
0.14625219 0.13946204 -0.10851198 -0.08779852 0.01638109 0.15630473 -0.06305029 -0.08545192
-0.015354831 0.16535516 -0.0110102445 -0.017319798 -0.124108076 0.1457539 0.1490077 -0.10014936
-0.12117188 -0.03696561 -0.11615577 0.15844211 0.057316728 -0.09342355 -0.10420225 -0.17628802
-0.14490171 -0.054899156 -0.07404828 -0.0018792748 0.059148632 0.062338974 -0.071738645 0.14616142
-0.051379714 -0.17176056 0.13306506 0.091816224 -0.050725766 -0.031933762 -0.011162287 0.08017504
-0.057006776 0.1534228 -0.12336719 -0.099554196 0.049527235 -0.114252 -0.09910036 0.015256432
-0.024904875 -0.09416042 0.09598048 -0.09414745 -0.13942102 -0.12074846 0.17461543 -0.06803622
0.016797762 -0.061269484 -0.045620237 0.07059732 0.03895597 -0.10466196 0.17064413 -0.062693425
0.14844741 0.02379942 0.14156395 0.016114986 0.055238783 0.1314406 -0.10823726 -0.10473066
0.097400114 0.07749755 0.10682007 0.07767452 0.14531939 -0.0666004 -0.089781724 -0.021043284
0.18199526 0.07978963 0.1060644 0.09331044 -0.106633194 0.03496254 -0.15217474 0.059850294
-0.17024666 -0.10078224 0.09180851 0.1684824 -0.10994985 -0.13770287 0.05069596 -0.1395443
0.11760795 -0.057163075 0.12532073 -0.070204474 -0.16664894 -0.033456106 0.11410245 -0.17899734
0.040030256 0.10912603 -0.065530896 -0.043728437 0.14618827 -0.11792609 0.03882647 -0.0089126825

feature_extractor.encoder.1.mlp.4.bias f4 [32]
00000000: 9040 fcbc 60b1 8c3d 1c0f e03b 15a7 78bc
00000010: 415e d3bd d2aa d03d 748f 8d3c 2c14 adbd
00000020: 79b8 1e3e fb5f b63c 87be cf3d e7bb 913d
00000030: 8682 adbd 67a7 393c fcb6 07be fd3f 36bd
00000040: f53c f03d a5d6 423e d9d2 9a3d 0a50 263d
00000050: 08b7 1cbd 0e3d 523d 1dd7 0c3e 2c0a 54bc
00000060: c851 1f3e d472 cb3d cf7f 07be 5dd3 1b3e
00000070: 3651 913b 2ea6 3bbd 523c ffbc 4209 be3d
-0.030792505 0.06869769 0.0068377387 -0.015176554 -0.10320712 0.101888314 0.017280318 -0.08451113
0.15500058 0.022262564 0.10143762 0.07115918 -0.08472161 0.011331416 -0.13253397 -0.044494618
0.11730377 0.19027193 0.07559747 0.040603675 -0.03826049 0.051327758 0.13753934 -0.012941878
0.15558541 0.09934011 -0.13232349 0.15217347 0.00443473 -0.04581278 -0.031156693 0.092791095

feature_extractor.fc1.weight f4 [32, 97]
00000000: 3360 913d ae41 50bc 3188 c9bb 8394 b43d
00000010: b660 71bd 5178 433d f346 5fbc 5992 1e3b
00000020: 545e e0bc babb b53d 11d9 0b3d d23a 023b
00000030: 2777 99bc 1e46 91bd c827 d5bd 9c07 bb3d
00000040: 7bc7 c43d 7925 3dbc 85f6 693d e87f 8e3c
00000050: a41b 833c 3f84 813d 42d1 93bd b620 c53d
00000060: 164c 9e3d 939b 8d3d bdd6 66bc d8ad 5fbd
00000070: 9934 8abd 3950 443d 9ff3 773d 37cc 4ebd
00000080: b818 903d f10b 8a3c 53e2 8a3d 52ab 4b3d
00000090: 7543 c0bd 3ac3 cb3d d987 3d3d e5c6 a83d
000000a0: c704 323b c9d8 95bd b1e1 8dbd 0007 a1bd
000000b0: fbd9 983d 276b 45bd 912a 81bd 630b 3f3d
000000c0: 88d7 82bd e5e1 bebc 7b24 0ebc 1682 b33d
000000d0: 7084 9bbd 07c7 933d 93b3 7c3d 7f56 91bc
000000e0: 8e22 c2bd 4c83 743d 19c8 f3bb f99c 36bd
000000f0: 420e e53d 23bb c03c 4ce6 893d d2f7 1dbd
00000100: 741c bbbd 5ff1 953c 0c66 febc cf9b 413d
00000110: 1b2d 023c ad11 a1bd 92c0 8f3d 6c7d c6bd
00000120: 78fa 81bd 0e63 e9bb 29c9 bbbd 5fd0 a7ba
00000130: 496d 9a3c 8ade 6cbd 39bb 393d c524 a53d
00000140: de7e 933d fc55 8cbd 98c5 cd3d 0cca c03d
00000150: 3c6e 313d 1c88 82be 20ae 9cbd 986f 21be
00000160: 6a68 a43d 3190 8dbd 6acf c1bc 18d1 12bb
00000170: 3b0f 89bd bc68 cbbd 2c86 c9bd 9608 cabd
00000180: 85f7 65bd 12fe d4bd 9e6e 4b3d 6592 863d
00000190: 304d aebc c06c 153d 55e6 dbbb 7f64 80bc
000001a0: a30a 89bd cff8 86bd 5481 333d 7f30 5e3d
000001b0: 4138 0ebc 745e 7abc 5c24 79bd d4c2 503c
000001c0: b763 0a3d 834f 9f3d 8da7 98bc fb06 c03d
000001d0: 0bc7 9fbd 148c a6bd 3691 c33d b3aa e73d
000001e0: 9545 0fbd 1ff5 a73c 0198 e23c 376f a73d
000001f0: 0fab 64bd 0b98 72bd 5aaa 7d3d f8b3 8e3d
00000200: 5ec6 86bd e3d2 4e3c 367d ba3c d735 7e3d
00000210: 3bf7 9dbd 62ed 703d 9a83 4f3c ecb5 70bd
00000220: d4ed b9bd 52a1 923d e00f 303d d960 953d
00000230: dbbb 4eba a610 f9bc 055b 42bc 62e2 903d
00000240: 87d7 cbbd b637 853c 10b9 ab3c 78e1 8abd
00000250: 9f13 1cbd 5dd0 1ebd cdf0 a43d d272 003c
00000260: 0bf8 54bd 7022 29bd a8c5 7d3d 7101 1dbd
00000270: c268 1a3d 7b36 273d 30a7 c73b 885f 8fbb
00000280: 89e7 a93d 009b f6bc 1751 3abd ed60 68bd
00000290: 1980 2b3d 0d28 1dbb 2053 693d 9684 4f3d
000002a0: 3892 ebbd f590 c1bc 2701 31bd 8bf5 c23d
000002b0: cdbd c4bd 476e 90bd eda5 293c 1829 7f3d
000002c0: 67c3 cfbd daff 9abd b1c8 aebc 719b b3bd
000002d0: 2c45 b2bc 2634 e53d 9987 70bd 2ddf 133d
000002e0: 60e5 273e 8afc 99bd 0b2a 923d 70ab 76bd
000002f0: cda3 dabd 1c92 9d3b fb95 5ebd fb2d a4bd
00000300: ae5c 093d 4ef4 b6bd ecfa 35bd 7826 35bd
00000310: ce4a 1b3d ce17 54bb 6f44 bdbd 4de3 81bd
00000320: 18a7 943d 6fd7 203d b431 0dbd f64c 60bd
00000330: 37e8 e23d d533 4abd 7364 68bd 53ea 9bbd
00000340: 68d8 873d 90dc 933d 58ea 093d a2dd 983d
00000350: 357a 3c3d c4f2 af3c 51a4 76bd 0559 a0bd
00000360: 95ea 2c3b 9c6b c43c 7a53 e2bd b25a 2fbd
00000370: b398 13bc 5492 b0bb 9db0 6abc 3665 75bd
00000380: 7f26 803d aeef 3f3d b28a 90bd 30e9 75bd
00000390: 56ad 083c 6b0d a13d 92a3 53bc 9779 bb3c
000003a0: d709 70bd 8346 383d d62f 99bd 5ecd 963d
000003b0: 721d 463c 5ebf 84bd 164d b1bc 5598 963c
000003c0: 6808 64bd 49aa d5bd cb11 6abd af61 783c
000003d0: a8d7 06bd 072d 09bd cca5 2f3d ce7f a33d
000003e0: 10e7 a03d 9d86 1f3d 2ebf 7fbd 2187 293c
000003f0: 2be1 16bd bafa 4bbb 8b7d ac3d a014 60bd
0.07098427 -0.012710972 -0.0061502685 0.08817389 -0.05893012 0.047722165 -0.013627755 0.0024196117
-0.02738873 0.088736966 0.034142558 0.0019871485 -0.018733574 -0.07093452 -0.10407978 0.09132311
0.096083604 -0.011544579 0.057119865 0.017394975 0.016004391 0.06324052 -0.07217647 0.0962538
0.07729356 0.06914439 -0.0140892835 -0.05460915 -0.067483135 0.04792807 0.06053507 -0.050487723
0.07035965 0.016851397 0.06781449 0.04972393 -0.093878664 0.09949346 0.046272133 0.08241061
0.0027163492 -0.07316739 -0.06927813 -0.07862663 0.074634515 -0.04819789 -0.06306947 0.04664172
-0.063887656 -0.023301074 -0.00867569 0.08765046 -0.0759362 0.07215696 0.061694693 -0.01774144
-0.09479247 0.059695527 -0.007439625 -0.044583295 0.1118436 0.023526734 0.06733379 -0.038566418
-0.091362864 0.018303571 -0.03105452 0.04726773 0.007945324 -0.078646995 0.07019152 -0.09691891
-0.06346601 -0.007122404 -0.09169228 -0.0012803188 0.01885094 -0.057829417 0.045344565 0.08063654
0.07201932 -0.06852338 0.10047454 0.094135374 0.04331802 -0.25494468 -0.07650399 -0.15765226
0.08027728 -0.06912268 -0.023658473 -0.0022402462 -0.06692358 -0.09932086 -0.098400444 -0.09864919
-0.056144256 -0.104000226 0.04966604 0.06570891 -0.02127704 0.036480665 -0.0067108073 -0.01567292
-0.06691482 -0.06590425 0.04382451 0.05424547 -0.008680404 -0.015281308 -0.06082569 0.012741763
0.0337865 0.077788375 -0.018634582 0.093763314 -0.07801636 -0.081321865 0.09549181 0.11311855
-0.034978468 0.020502625 0.027660372 0.081755094 -0.055827197 -0.05922703 0.061930038 0.0696792
-0.06580804 0.0126235215 0.022764783 0.062063064 -0.07713171 0.058820136 0.012665654 -0.058767244
-0.09078565 0.07159676 0.04298389 0.07293863 -0.0007886269 -0.030403446 -0.011862521 0.07074429
-0.09953218 0.016261917 0.020962268 -0.06781286 -0.03810465 -0.03877293 0.080537416 0.007839875
-0.051994365 -0.041292608 0.061956078 -0.038331453 0.03769756 0.04082344 0.0060929283 -0.004375402
0.08296115 -0.030103207 -0.04548749 -0.05673306 0.04187021 -0.002398017 0.05696404 0.050663553
-0.115024984 -0.023628691 -0.04321399 0.0951949 -0.09606514 -0.07052284 0.010354501 0.06229505
-0.10144692 -0.07568331 -0.021335931 -0.087698825 -0.0217615 0.11191587 -0.058723066 0.03610151
0.16396093 -0.07518871 0.07136925 -0.06022209 -0.10675774 0.0048086774 -0.05434225 -0.080165826
0.03353565 -0.08933316 -0.04442875 -0.04422614 0.037913136 -0.0032362822 -0.09241568 -0.06342182
0.07258433 0.039267953 -0.03447123 -0.054760896 0.11079448 -0.049365837 -0.05673642 -0.07613053
0.06633073 0.07219803 0.033670753 0.07464148 0.046014983 0.021478064 -0.060215298 -0.07829479
0.002638494 0.023977093 -0.11051078 -0.042811103 -0.009008574 -0.0053885374 -0.014324334 -0.059910975
0.062573425 0.046859436 -0.07057704 -0.060036838 0.008342108 0.078638874 -0.012917416 0.022885127
-0.058603134 0.04498912 -0.07479827 0.073633894 0.012091981 -0.06481813 -0.021643203 0.018383184
-0.05567208 -0.1043287 -0.057145875 0.015160008 -0.03292051 -0.033490207 0.042882726 0.07983361
0.07856572 0.038946737 -0.062438183 0.010347159 -0.03683583 -0.0031124786 0.08422383 -0.05470717

feature_extractor.fc1.bias f4 [32]
00000000: ca07 0cbd 8d70 533b 3375 25bd fcd9 acbd
00000010: 422b ccbd 8161 dfbd ebf2 babc b5ea 11b9
00000020: 8bc5 ab3d 7f0b 94bd 50cb 91bd 4bcc b8bd
00000030: c86c 13bd b798 ec3b 40ba 02bd 545a c7bd
00000040: f225 a5bd 34c2 b03d 85f0 843d 0f52 793d
00000050: 0419 b93d d1b5 ccbd de35 88bd 8122 353d
00000060: 4506 d63c ba2c b33c 633a d9bd 41e1 99bd
00000070: 5e36 65bc 3e21 6b3b 0091 633d 7179 2b3c
-0.034187116 0.003226313 -0.040394973 -0.08440015 -0.09969188 -0.10907269 -0.02282091 -0.00013915713
0.08387288 -0.07228755 -0.07118857 -0.09023341 -0.035992414 0.0072203535 -0.031915903 -0.097340256
-0.08063878 0.08630791 0.06491188 0.060869273 0.090379745 -0.09995616 -0.06650899 0.04422236
0.026126036 0.021871913 -0.106068395 -0.07513667 -0.013990013 0.0035877968 0.055558205 0.010465966
