src/quicktune/pretrained/mtlbm/surrogate/micro/dyhpo.pth (torch, 109150 bytes, 37 tensors)

feature_extractor.encoder.0.mlp.0.weight f4 [32, 45]
000000 c0 10 88 bd d8 5a 92 bd da 7a e8 bc 5b 8b 00 be
       -0.0664382 -0.07146233 -0.028378893 -0.1255316
000010 aa 2a 2d bd f7 61 9e 3d 49 fa b9 3d 2f c1 ab bd
       -0.042277016 0.07733529 0.09080941 -0.08386456
000020 73 80 bd bd 77 3d eb 3d 88 a9 84 bd b4 c6 dd bd
       -0.09253015 0.11486333 -0.06477648 -0.10828915
000030 c1 91 b0 bc 49 82 e8 3d c6 db e9 3d ea ca 56 bd
       -0.021553876 0.11352975 0.114188716 -0.052439608
000040 ac e1 19 be fa 32 38 bd 2e 9a f7 3c 93 67 75 3c
       -0.15027493 -0.04497049 0.030224886 0.014978307
000050 28 02 c3 bd f7 e8 28 be 22 b6 5d 3c ff ed 17 3e
       -0.09521896 -0.16495119 0.013532193 0.14836882
000060 ea 7a d5 bd d5 ea 9c bd d6 bc 4a bd ea 88 32 be
       -0.104238346 -0.07661978 -0.049496494 -0.17435041
000070 57 84 1f 3d 44 de b8 bd 95 65 09 3d ab 5c 11 3d
       0.03894457 -0.09026769 0.03354414 0.035488766
000080 b7 94 f9 3d 4f eb 76 bc d3 9e f1 3d 14 04 48 bd
       0.12186568 -0.01507075 0.117978714 -0.048832014
000090 03 e8 b3 bd 85 08 fb 3d 6d 9b 07 3e 4e e3 fb bd
       -0.08784487 0.12257484 0.13242884 -0.12299214
0000a0 56 c6 64 3d c7 8f 8a bd 5f c0 b6 bd 05 1e 83 3d
       0.05585321 -0.067657046 -0.089234106 0.0640221
0000b0 a4 94 d1 3d 62 68 a7 3d 4c b5 99 bc cf ff 04 3d
       0.10233429 0.08174206 -0.018763207 0.03247052
0000c0 44 8a a3 3c 02 74 f4 bc 70 7b 18 3e 27 fc cb 3d
       0.019963391 -0.029840473 0.14890838 0.099602036
0000d0 be d3 f5 3d 13 4d 1a 3e b5 d3 9c 3d c7 1b 90 3d
       0.12003277 0.15068464 0.076575674 0.07036548
0000e0 3b e4 27 be ea f6 92 ba 35 e8 16 be dc 5b 05 be
       -0.16395657 -0.0011212502 -0.14737017 -0.13023323
0000f0 34 1c fd 3d a7 0c 82 3d 43 43 c7 3d 18 09 d2 bd
       0.12358895 0.063500695 0.09729626 -0.10255641
000100 ba 3b a4 3c ea d8 10 be 2d 74 64 bd e4 49 cb bc
       0.020048011 -0.14145246 -0.055774856 -0.024815507
000110 e6 a6 d3 bd 1a f0 27 3e 0a 76 e8 3d 6f 08 f2 3d
       -0.10334568 0.16400185 0.11350639 0.11818015
000120 ed 39 26 3e b5 8c f3 3d 49 f0 9f bd 98 b3 ab bd
       0.16233034 0.11892072 -0.07809503 -0.08383864
000130 7a 20 f9 3d 9f 4c c3 3d 29 95 07 3e 48 5d 85 bd
       0.121643975 0.09536099 0.13240494 -0.065119326
000140 c5 61 e1 3d 72 d5 3e be 69 27 a0 bd 84 88 04 3e
       0.11004976 -0.1863611 -0.07820017 0.12942702
000150 6a 3d a2 bd 96 25 03 bd 7d 75 81 3d 56 e5 ae bd
       -0.0792187 -0.032018267 0.06321237 -0.08539836
000160 6f 40 11 be ec eb 85 3c dc 38 54 3d d9 06 9c 3d
       -0.14184736 0.016347848 0.051812038 0.076184936
000170 df 8c e0 3d fd 2c 04 be 71 b6 6f 3c 2e 3c 6c 3d
       0.10964369 -0.12907787 0.0146309 0.05767458
000180 87 a5 86 bc b4 d4 06 3e 9b 6c 08 3c 27 4b 60 bd
       -0.016436351 0.13167077 0.008326675 -0.05475917
000190 73 0e af bb 43 7b 7b 3d 55 b1 fc 3c e6 6a eb 3d
       -0.0053422987 0.06139685 0.030846277 0.11494999
0001a0 b7 dc 95 3d 85 bc e9 3c b4 1c 76 bd 3e 1f 26 3d
       0.07317489 0.028532276 -0.060085967 0.04055714
0001b0 ab 09 2d bc 71 31 8f 3d 8e 90 e6 3d b9 3f 88 3d
       -0.010561387 0.06991852 0.1125804 0.06652779
0001c0 9a c8 7e 3d b1 e6 04 bd 97 66 0c be fb d7 09 3c
       0.062203027 -0.032446567 -0.1371101 0.00841331
0001d0 f0 21 10 3e 59 18 2c 3e b8 b0 2c 3d ca 79 2b bc
       0.14075446 0.16806163 0.04216072 -0.0104660485
0001e0 bc 6b f9 bd 51 75 02 bc ae f9 c8 3d 97 1d cd 3d
       -0.12178752 -0.007962541 0.098132476 0.100154094
0001f0 95 4e a8 bd 8f d4 7f bd e9 e6 38 3d 78 93 85 bd
       -0.08218113 -0.06245857 0.045142088 -0.06522268
000200 ea e6 18 be ef 04 16 be c9 d3 1e 3e 11 b7 0c 3e
       -0.14931837 -0.1465032 0.15510477 0.1374171
000210 d2 f6 f1 3d b1 fd 01 3e 14 85 06 bd 25 34 46 bd
       0.11814655 0.12694432 -0.032841757 -0.048389573
000220 43 80 2c 3d fe af c8 bd 01 f7 17 3d fa ad 4a bd
       0.042114507 -0.09799193 0.037100796 -0.049482323
000230 de d9 e9 bd c6 e7 21 bd f4 2f 49 3c e6 f2 da bd
       -0.11418508 -0.039527677 0.012279499 -0.106908605
000240 8c ac 18 3d 25 86 20 3b 7b 95 db 3d 55 ef a3 bc
       0.03727393 0.002449402 0.107218705 -0.020011583
000250 05 28 7b bd cb 43 8d 3d 33 ed a1 3d 8f 23 2a be
       -0.061317462 0.06897696 0.0790657 -0.16615127
000260 39 1f f6 bd 7a 40 4b 3d 10 1e a1 bd b8 16 f2 bb
       -0.12017674 0.049622037 -0.07867062 -0.007387962
000270 51 51 fc bd dd 7e c3 3d 30 78 9f bd 9c ae 74 3d
       -0.123201974 0.095456816 -0.07786596 0.059736833
000280 b2 7c 8f 3c ca 82 8d bc 7b 55 bc bd d2 e2 31 3d
       0.017515514 -0.01727428 -0.091959916 0.043429203
000290 25 6d 6c bd 37 0d 28 bd 76 37 be 3d 05 92 45 bd
       -0.057721276 -0.041028228 0.09287922 -0.04823496
0002a0 21 38 2a 3e d1 3f b4 3d c4 28 6b bd b6 47 10 be
       0.16622974 0.088012345 -0.057411924 -0.14089856
0002b0 61 e2 a6 3d 7c 66 cb bd dc 12 8c 3d 38 7f 00 3e
       0.08148647 -0.09931657 0.06839535 0.1254853
0002c0 f4 6b 0a be b0 f5 0c bd 8e 9f 09 be 6b 57 d1 bd
       -0.13517743 -0.034413993 -0.13439772 -0.10221752
0002d0 09 49 57 3d 14 1e 6a bd 5b 25 32 be 48 da 9d 3d
       0.052559886 -0.05715759 -0.17397062 0.077076495
0002e0 cd c6 4a 3d 3f 16 ac bd ff cc 48 3c 8f 78 e3 3d
       0.049505997 -0.084026806 0.012255906 0.11106979
0002f0 ee 2c 58 bd 32 6f 9f bc 83 34 a6 3d 47 e0 fd bd
       -0.052777223 -0.019462202 0.081154846 -0.12396293
000300 66 ad d5 3d 05 b1 00 ba 64 85 0d be 3f 9b ba 3d
       0.10433464 -0.00049091905 -0.13820416 0.09111642
000310 37 21 df 3c 4b 10 bf bd cd 15 3f bd 2b ff 00 3e
       0.027237518 -0.093292795 -0.04665165 0.12597339
000320 a1 31 8a bc 2b 90 b0 3d 9a e3 05 3d 01 51 99 bd
       -0.016869368 0.08621248 0.03268776 -0.074861534
000330 bb 93 3e bc 88 92 0c be d5 9a c7 bd 82 e9 43 3d
       -0.011631901 -0.13727772 -0.09746329 0.047830112
000340 6b 15 74 3d d7 ef 6e 3c 9d 96 18 3c 38 59 ba bd
       0.05959074 0.014583549 0.009313253 -0.090990484
000350 64 21 d3 bd f7 29 62 bd 89 0c fd 3b ce a7 85 3d
       -0.10309103 -0.055215802 0.0077224416 0.06526147
000360 0c db bc bd b1 1e 09 3d 5c 81 c3 bc d2 2f e7 3d
       -0.092214674 0.033476535 -0.023865394 0.11288418
000370 5e bf d3 3d 9c 41 e7 3c 06 f5 af 3d 1a ae 22 3c
       0.10339235 0.028229527 0.085916564 0.009929204
000380 8b 38 12 3d d2 93 9f 3d 47 6d 80 3d 2d 47 9a bd
       0.035698455 0.07791866 0.06270843 -0.07533107
000390 d4 cc 10 3e 70 4f 0b 3c d3 f2 0e be 49 2c 8e 3d
       0.14140636 0.008502826 -0.13959818 0.069420405
0003a0 8e c6 a3 3d 13 4c 00 3d 3a 7e 02 3e d9 77 8c 3d
       0.07996856 0.03132255 0.12743464 0.068587966
0003b0 92 fd bf bd b3 3d a7 3d dc 54 a8 bd 37 32 28 bd
       -0.093745366 0.08166065 -0.08219311 -0.041063514
0003c0 7e 92 09 bd 3c df 95 3d ce aa 51 bd 26 06 dd bd
       -0.03358697 0.07317969 -0.051188283 -0.10792188
0003d0 ac 63 2a 3e ed 1f 61 bc 56 ad aa bd 47 0f 39 be
       0.16639584 -0.013740522 -0.083338425 -0.18072234
0003e0 02 3e ed bd 2e 1e b5 bd 01 8f a4 bb 31 8f 1b be
       -0.11584093 -0.08843647 -0.00502193 -0.15191342
0003f0 bf 40 46 3d 88 19 14 3e 88 63 8e bc 97 6e 08 3d
       0.04840159 0.14462864 -0.017381445 0.03330859

feature_extractor.encoder.0.mlp.0.bias f4 [32]
000000 3c 02 59 bb 38 a9 11 be 73 5e 24 3c f3 42 0e bd
       -0.0033112904 -0.14224708 0.010032284 -0.034731817
000010 39 2e de bd 2e cf de bd 23 2c ff 3d 35 99 1d 3e
       -0.1084866 -0.1087936 0.1245959 0.15390475
000020 55 a7 9b bc 6e b5 a4 3d 3e b7 86 bd 62 42 43 3b
       -0.019000689 0.080424175 -0.065779194 0.0029794206
000030 44 1e c9 3d e7 7f 0d be b3 99 ac bd 5f 53 db 3b
       0.09820226 -0.13818322 -0.08427753 0.006693288
000040 25 85 8f 3d 17 e2 e6 3c e0 7c 7e 3d 95 bf 28 bd
       0.07007817 0.02818398 0.06213081 -0.041198332
000050 49 b5 ee 3d 38 89 8e 3d fa d4 f4 3d a2 f3 f1 bd
       0.11655671 0.06959766 0.119546846 -0.118140474
000060 9b e3 ce 3c 9f 24 f9 3d 66 64 bf 3a 67 18 91 bd
       0.025255015 0.12165188 0.0014602065 -0.070847325
000070 3b c4 04 3e 25 8f 15 3e ac 2a b6 bb 23 cf f3 3d
       0.12965481 0.14605387 -0.005559286 0.119047426

feature_extractor.encoder.0.mlp.2.weight f4 [32, 32]
000000 60 5d 86 3d fc 37 40 be 93 74 d7 bd 6f fd 05 3e
       0.065607786 -0.18771356 -0.10520282 0.13084958
000010 57 63 1f 3e f9 cb 06 be 00 1d 40 bd d7 f9 12 3e
       0.15565239 -0.13163747 -0.046902657 0.14353119
000020 d0 a6 d1 3d b5 b5 0e 3e 1b 66 c6 3d 8b e4 a0 3b
       0.10236895 0.13936503 0.09687444 0.004910057
000030 73 4f 32 3d ad 38 e2 3d cf 6f 13 3e 77 4e 17 3e
       0.0435328 0.11045966 0.1439812 0.14776026
000040 c9 74 f1 3d 11 d3 a2 3d 1a 13 8e bd f3 40 2c 3e
       0.11789853 0.07950414 -0.06937237 0.16821651
000050 74 68 39 3d 00 6e 17 3e ee b3 1c 3e 8b 93 d9 bd
       0.04526563 0.14788055 0.15303013 -0.10623845
000060 71 27 c9 bd ca 50 2d 3e ac 7c fa bd d1 2d fc 3d
       -0.09821976 0.1692535 -0.122308105 0.12313426
000070 c2 48 0c 3e c9 c6 da 3d 3c 9c fe 3c 20 14 0b bd
       0.1369963 0.106824465 0.031080358 -0.03395474
000080 5f db a1 3c ed 7a 1d be 8f 29 69 3d 7a 42 4e 3e
       0.019757925 -0.15378924 0.0569244 0.20142546
000090 32 f2 8e 3d 84 a1 45 3e eb 00 21 3d b5 3d e7 bc
       0.06979789 0.19299895 0.039307516 -0.028227666
0000a0 d4 55 20 3e 9b c3 1a be 14 5b ac bd 1d 59 f7 bd
       0.15657741 -0.1511368 -0.08415809 -0.12077544
0000b0 4c 0f 16 3e 8e 60 ad 3c 20 91 85 3d ec 8a b1 bd
       0.14654273 0.021164205 0.06521821 -0.08669075
0000c0 3c e9 ce bd 17 b2 fc bd 02 36 41 3d c8 08 6d bd
       -0.1010308 -0.123386554 0.047170646 -0.057869703
0000d0 48 92 87 3d 79 2c ed bd 90 dd f6 bd 45 5b 82 bc
       0.06619698 -0.11580748 -0.120539784 -0.015912661
0000e0 85 71 d4 bc ea 40 2f 3e a7 bd 96 3c b8 7f d9 bc
       -0.025933037 0.17114606 0.01840098 -0.026550159
0000f0 c9 7a 19 3e e2 1f 86 bb 55 a9 67 3d b0 bb 4c bb
       0.14988245 -0.004093156 0.056557972 -0.00312398
000100 66 77 75 bd c1 c7 d5 bd 03 7a 4e 3d 97 3f 83 bc
       -0.05992832 -0.10438491 0.05040933 -0.016021533
000110 d3 e1 5d 3d 19 b4 13 be 32 eb ec 3d 70 01 18 be
       0.05417044 -0.1442417 0.115682974 -0.14844298
000120 cc 07 4c be b7 dc 18 3c 7f 76 e8 bd ca c0 26 bc
       -0.1992485 0.009329966 -0.11350726 -0.0101778
000130 df 70 e6 3b 32 cd 16 be fb 47 da bd df 06 ce 3d
       0.0070324983 -0.14726713 -0.106582604 0.10059904
000140 12 d9 3f 3d 3e c4 5a 3d f4 2d fd 3d 1e 10 96 3d
       0.046837874 0.053409807 0.123622805 0.07327293
000150 86 f9 a5 bc 01 a7 24 3e 86 cd b7 3d bc 1f 17 3e
       -0.020260584 0.16079332 0.08974747 0.147582
000160 2e 34 1b be 66 c5 f0 bd 4e c7 1e 3e a0 a8 b9 bc
       -0.15156624 -0.11756401 0.15505716 -0.022663414
000170 f9 d3 55 bc 70 54 25 3c 42 da 2c 3e 39 15 18 bc
       -0.0130510265 0.010090932 0.16880134 -0.009282404
000180 f9 e4 dc bc fa 20 01 be e8 73 87 3b f8 2e 3b 3e
       -0.026964651 -0.12610236 0.00413369 0.18279636
000190 87 78 d9 bd 19 8a 11 3d b3 58 fd 3c de 6c 01 be
       -0.10618692 0.03553209 0.030926084 -0.12639186
0001a0 0c 3c 7f bd cc 49 9a 3d 0a d3 12 be f6 48 e6 bd
       -0.062313125 0.07533607 -0.14338318 -0.11244385
0001b0 e1 a0 73 bd 4d 21 41 3d 78 ed 6c bd a8 27 02 3e
       -0.059479598 0.0471509 -0.057843655 0.1271044
0001c0 75 00 a2 3c c7 35 01 3e 78 77 e5 bd 11 05 45 bc
       0.019775609 0.1261817 -0.112044275 -0.012025134
0001d0 ff f6 58 3d 13 71 0e bd 66 2b 20 3e 8c ef 73 bd
       0.05296993 -0.034775805 0.15641555 -0.05955462
0001e0 ca a1 97 3c 48 2d 89 bd 32 08 d6 bd 0e f5 09 bd
       0.018509764 -0.0669809 -0.10450782 -0.033680968
0001f0 f5 2c f7 3d 56 6d a3 bd 1d a5 c7 bd 83 a9 27 be
       0.12069122 -0.079798386 -0.0974829 -0.16373257
000200 75 a0 5f 3d 32 4d 7b bd a9 8c 08 3e c4 0d cf 3d
       0.054596383 -0.061352916 0.13334908 0.101100475
000210 39 35 4f 39 db 52 bb bd 35 93 06 3e 70 d4 3b be
       0.00019760885 -0.09146663 0.13142093 -0.18342757
000220 79 8e 1b 3d cf c9 f4 bb 56 e8 19 3e 16 46 05 be
       0.03797767 -0.0074703465 0.15030035 -0.13015017
000230 36 7c bd 3d 40 92 47 bd 9e 40 ea bd 15 4d 9a bd
       0.09252207 -0.04872346 -0.11438106 -0.075342335
000240 b7 62 6a 3c 94 91 15 3e 73 63 36 3e 3e 00 12 3e
       0.014305762 0.14606315 0.17811374 0.14257905
000250 51 71 b4 3d f1 c5 03 be 44 08 3a 3e dd 94 dc bd
       0.08810676 -0.12868477 0.18167216 -0.10770581
000260 5e 8b ec bc 60 2f 0f bb da fd 6d 3d aa 99 15 3e
       -0.02887505 -0.0021848306 0.05810342 0.146094
000270 1e 26 dc 3d 10 13 0d be f8 53 c3 bd 4a 3c c9 bd
       0.10749458 -0.13776803 -0.095375 -0.09825952
000280 bc 99 2f 3e e7 c0 26 3d b2 2f e5 bd 55 a7 4c 3e
       0.17148489 0.04071131 -0.11190738 0.19985707
000290 a6 7b ea 3d 2c 14 90 bd 86 e5 5d bc 32 07 1b 3e
       0.11449365 -0.070350975 -0.013543492 0.15139464
0002a0 f8 21 19 be 47 e7 e0 bd 2b ba 05 be 93 8f 14 3a
       -0.14954364 -0.10981613 -0.13059299 0.0005667146
0002b0 a9 2e 7f bc 44 59 23 3e 2a f0 29 be 65 f7 de 3c
       -0.0155750895 0.15952021 -0.16595522 0.027217576
0002c0 68 bc 12 3e 75 d5 96 3d 5b cc ca 3d 3f 39 07 be
       0.14329684 0.073649324 0.09902259 -0.13205431
0002d0 74 b7 5d 3d ce 5c 12 3e 6c bd c2 3c 97 de 19 3d
       0.054130033 0.14293215 0.023771964 0.037565794
0002e0 43 7d 11 be 82 74 46 be cb 05 0f 3e 42 21 b8 bb
       -0.1420794 -0.19380382 0.13967054 -0.005619199
0002f0 ca 66 33 3e c7 b4 05 39 1b ea 00 be af 22 1b be
       0.1751968 0.00012751213 -0.12589304 -0.1514995
000300 5f 9b 9d bd 4a 4d a6 bd 75 a9 c4 3d aa 39 a0 bd
       -0.0769565 -0.081202105 0.09602634 -0.078234985
000310 ac c5 c6 bd 8a d0 67 bc 34 2e c6 bd ba bd 05 be
       -0.09705672 -0.014148841 -0.09676781 -0.13060656
000320 ae 7f 2a 3d cd 56 8e bd 35 bc 33 3d 43 ed 35 be
       0.04162567 -0.0695015 0.04388066 -0.1776629
000330 24 50 b2 bb 9d f6 70 bd 06 32 09 be 1c 7f 0c be
       -0.0054416824 -0.05882894 -0.13397989 -0.13720363
000340 97 16 13 be 3c fe 21 be ea 70 b1 bd b4 9b a8 bd
       -0.14364086 -0.15819639 -0.08664115 -0.08232823
000350 62 aa 46 be e0 bb 8d bd 15 df 28 3e a0 dc d7 3d
       -0.19400933 -0.069206 0.16491349 0.10540128
000360 47 95 18 3e 2a 35 37 bc 8f fe ff 3c 0e 98 ae bc
       0.14900695 -0.011182109 0.031249313 -0.02131274
000370 2b ae 8f 3b dd 41 c5 bd 5a 05 49 bd 05 d2 03 be
       0.004384776 -0.09631703 -0.04907737 -0.12873085
000380 a5 99 80 3d a6 9d ce bd 82 53 a5 3d f0 f9 49 3e
       0.06279305 -0.10088663 0.080725685 0.1972425
000390 c3 64 0e be bd ce 3e 3a ef b1 47 3e 34 e8 03 bd
       -0.13905625 0.0007278731 0.1950147 -0.032203868
0003a0 52 10 b3 bd 68 76 f5 bd b1 95 da bd b4 31 bc bd
       -0.08743347 -0.11985475 -0.106730826 -0.091891676
0003b0 ae 05 e5 bd c6 11 69 3d 46 44 f3 3d 51 c4 34 bc
       -0.11182724 0.056901716 0.118782565 -0.011033134
0003c0 af 96 de 3a 20 e1 d5 bd 19 d8 0b 3e 5e 21 1e 3e
       0.0016982163 -0.1044333 0.13656653 0.15442416
0003d0 e6 e2 6f bd 35 33 28 3e 54 e3 58 bc a5 64 13 be
       -0.058565997 0.16425784 -0.013237793 -0.14393862
0003e0 7b 52 35 3e 9e 39 16 3d 9b b5 55 bc 0d bb df 3d
       0.17707245 0.03667604 -0.013043786 0.10924349
0003f0 f2 a1 f5 bd e6 0e 37 3e bc c8 84 bb c7 e6 3b 3e
       -0.11993779 0.17876777 -0.0040522497 0.18349753

feature_extractor.encoder.0.mlp.2.bias f4 [32]
000000 0d 16 22 be b0 24 40 bd f9 83 6f 3c 7b 75 b7 3d
       -0.15828724 -0.046909988 0.014618867 0.089579545
000010 b0 37 41 bd 3a d8 2a 3e 02 5a 0f 3d d9 51 9f bd
       -0.04717225 0.16684046 0.034997948 -0.07779283
000020 2b db 1a be 06 98 18 be e8 c2 20 be 86 d6 ed bd
       -0.15122668 -0.14901742 -0.15699351 -0.11613183
000030 82 e5 0d be 52 c8 36 ba 08 6d a0 3c f3 e5 88 3d
       -0.13857082 -0.0006972599 0.01958324 0.06684484
000040 02 0f a2 bc 17 02 7d 3d 24 06 fa 3d cf f4 e5 3b
       -0.019782547 0.06176957 0.122082025 0.007017709
000050 79 6a 58 bd 7f c5 ad bd 29 dd 88 3d 7e a7 dc bc
       -0.052835915 -0.08484935 0.06682808 -0.026935335
000060 b6 0d 76 bd 87 4b 30 3e 71 27 04 bc 4c c8 96 3b
       -0.06007167 0.17216311 -0.008066044 0.004601514
000070 69 83 17 bd e5 e5 ea 3d 0c d9 ee bd f2 45 a7 3d
       -0.036990557 0.1146963 -0.11662492 0.08167638

feature_extractor.encoder.0.mlp.4.weight f4 [32, 32]
000000 58 ad ce 3d de 9f 3e 3c 9f b1 a4 3d ea 36 d3 bd
       0.100916564 0.011634795 0.08041691 -0.103132084
000010 1b c2 d7 bb cd 80 23 3e 56 f8 62 bd 07 a1 24 3d
       -0.0065844185 0.15967102 -0.055412613 0.04019263
000020 ca be 00 3c bd c8 2d bb 10 83 d8 bd b4 1b e7 bd
       0.007857988 -0.0026517354 -0.10571873 -0.11284581
000030 fe 6e 12 3e 89 e4 a3 bb d7 73 20 3e 30 41 37 bd
       0.14300153 -0.0050016087 0.1566919 -0.044739902
000040 bc cb 2d bd 6e ef 12 3d 18 49 e4 3d 44 56 d6 3c
       -0.042430624 0.03587287 0.11146754 0.026164182
000050 c1 b1 71 3d cc a9 b5 bd 0c 2b 48 3c ad 45 b2 bd
       0.05900741 -0.08870277 0.012217294 -0.08704696
000060 6d 49 da 3d db 38 d4 bd af 95 9b bd 09 55 33 3e
       0.10658536 -0.10362407 -0.07596909 0.17512907
000070 1c ef 04 3d 9a 38 61 3d 4f e7 1b be 60 57 9f bd
       0.032454595 0.05498562 -0.15224956 -0.07780337
000080 45 47 ee bd 4c 93 4b bd fd 8d 83 3d 73 df 49 bc
       -0.11634687 -0.04970102 0.064235665 -0.012321341
000090 36 f1 80 3d 91 67 ad bd 94 5f 40 bd 80 bd c2 3c
       0.06296007 -0.08467019 -0.04696615 0.023772001
0000a0 71 03 d2 bd ad cc 30 3d 14 ec fe 3c 0a c8 9a bc
       -0.10254563 0.043163944 0.03111843 -0.018894214
0000b0 c3 f1 ac 3d dd c5 e8 3d fa f5 18 3e 64 17 5a 3c
       0.0844455 0.113658644 0.14937583 0.013311241
0000c0 8b 2f bb 3d 2c ca 13 3e 9f 3c 0d 3e d6 45 d5 bd
       0.091399275 0.14432591 0.13792656 -0.10413711
0000d0 06 62 21 bd 95 17 41 bd 0a 5e e8 bb 64 73 14 bc
       -0.039400123 -0.04714163 -0.0070912885 -0.009060714
0000e0 87 8b f7 bd 39 70 1a bd 21 3e 99 bd 86 a7 c7 bc
       -0.120871596 -0.03770468 -0.07482553 -0.024371874
0000f0 12 e9 ca bd 1a 29 25 bd e9 e9 9f 3d ec 30 b9 3d
       -0.09907736 -0.0403224 0.07808287 0.09042534
000100 aa 92 4f be c8 fe bb bd b9 5f 90 3d 19 59 ae bd
       -0.20270792 -0.09179455 0.07049508 -0.08513088
000110 8c 5f 36 3e 49 0e c1 3d 01 57 cf bd 45 d1 22 be
       0.17809886 0.09426553 -0.101240166 -0.15900142
000120 ff 62 24 be 13 e3 be bb f0 9a 6d 3d ea ba 33 3e
       -0.16053389 -0.005825409 0.058009088 0.17551771
000130 83 bc 12 3e 20 75 1a be 62 8b 94 bd ae 58 13 3e
       0.14329724 -0.15083742 -0.07253148 0.14389297
000140 81 6e c2 3c f3 06 c2 3c 77 30 12 be 5b 40 03 be
       0.023734333 0.023684954 -0.142763 -0.12817518
000150 ac f8 08 3d c6 23 1d bd 41 12 fd 3d b4 23 35 be
       0.033440277 -0.038364194 0.12356997 -0.17689401
000160 1b 4a 0c be b0 72 32 3e 63 51 bf bb e7 a8 ff 3d
       -0.13700144 0.17426562 -0.0058385595 0.124833874
000170 5b 84 63 3d 78 61 22 3e 35 f4 03 be 09 d9 d5 bd
       0.055546146 0.15857494 -0.12886126 -0.10441787
000180 91 69 6e 3d 68 4d 91 3d e3 69 ee 3d 2f b6 e8 3d
       0.058206145 0.07094842 0.1164129 0.11362874
000190 a3 d3 64 3d 75 2d 10 be 87 fb 47 3e 65 e9 fb 3d
       0.055865895 -0.1407984 0.19529544 0.12300376
0001a0 c1 3b 67 bd 84 56 45 bd be 34 60 bd 9e 10 ef bd
       -0.05645347 -0.04817821 -0.0547378 -0.11673091
0001b0 51 45 bc bd a9 3e 7e bc ba e3 b8 3c 96 f5 b0 3d
       -0.091929086 -0.015517869 0.022569526 0.08640592
0001c0 f4 ac 81 3d 8c 59 14 bd c1 c1 41 3d e1 c3 76 3d
       0.06331816 -0.03621821 0.04730392 0.0602454
0001d0 95 23 57 bd f7 b4 38 3e cc 2c 9f 3d 9b b5 57 bd
       -0.052524168 0.18037783 0.07772216 -0.052663427
0001e0 51 1e 16 be f5 73 59 bd 3f dd 23 bc 41 67 91 3d
       -0.14660002 -0.0530891 -0.01000148 0.07099772
0001f0 bd 36 38 be d6 8c a0 bd fe 86 4f 3d 55 0a f7 bd
       -0.17989631 -0.07839362 0.050665848 -0.120625176
000200 69 e7 46 3d 35 0b 12 3d e2 07 5a bc 97 8d f1 3c
       0.048560534 0.03565522 -0.0133075435 0.02948646
000210 15 53 f5 bd 37 dc 04 be 3a 7b 3d be 84 b7 fb bd
       -0.11978737 -0.1297463 -0.18504038 -0.12290862
000220 a8 62 89 bc 73 af 1f be 88 f8 09 be e4 83 09 3e
       -0.016770676 -0.15594272 -0.13473713 0.13429219
000230 1e 5f 09 3e b2 2c 04 3d d0 84 03 be e0 44 fd 3d
       0.1341519 0.032269187 -0.12843633 0.123666525
000240 30 16 92 bd e1 b0 1e 3e 31 60 bb 3d b3 8b c1 bc
       -0.07133138 0.15497161 0.091492064 -0.023626184
000250 0e 29 97 3d ec 44 a7 bc 9b 99 c4 bd f5 9e 0d 3e
       0.073808774 -0.020418607 -0.095996104 0.13830169
000260 f6 a2 33 be d7 37 27 3e 8d 68 d6 3d f6 0f 22 3e
       -0.17542633 0.16329895 0.1046916 0.15826401
000270 a0 e6 ad bd 31 5f d6 bc e8 c9 83 bc 6b 47 07 3e
       -0.08491254 -0.026168438 -0.016087487 0.13210838
000280 cf fb 4a be ed ce 09 3e 8e eb 50 3d 90 8d b1 bd
       -0.1982262 0.13457842 0.051005892 -0.08669579
000290 b1 22 21 3d 4b 99 81 bd 3a 94 cc bd 00 d7 e2 bc
       0.039339725 -0.063280664 -0.099892095 -0.02769041
0002a0 70 b5 fc bd 39 ae 0d bd 65 dd ef bd e5 3c d0 bd
       -0.12339294 -0.03458998 -0.117121495 -0.10167865
0002b0 b4 c2 78 bd e5 5b 18 3c 4d de f2 3c 87 45 4f bd
       -0.06073256 0.009299253 0.029647017 -0.050603416
0002c0 ca 37 97 bb 03 d9 d0 3d 4d 91 36 be d1 e2 84 3c
       -0.004614805 0.10197642 -0.17828865 0.016221436
0002d0 87 ff c9 3d 0e 58 a3 bd 62 f7 3e bd 34 f4 1e be
       0.09863191 -0.079757795 -0.04662264 -0.15522844
0002e0 6d a2 b2 3d ca 98 c3 bc bb 70 2b 3e 0e 88 cb bd
       0.087223865 -0.023876566 0.16742222 -0.0993806
0002f0 86 33 84 3d 40 09 0d 3e e7 26 ce 3c 62 c2 38 3d
       0.0645514 0.1377306 0.025165034 0.045107253
000300 e9 90 07 bd 12 c4 e6 bc 8a 20 b7 bd 39 49 e8 3d
       -0.03309718 -0.028169665 -0.08941753 0.11342091
000310 55 70 3e 3e 9a e7 18 3e 26 ce 08 be d3 8b 89 3d
       0.18597539 0.14932099 -0.1335989 0.067161225
000320 7c cf 70 3d 8a 6d 1b be 7c 65 30 3e 3e 2f 0a be
       0.058791623 -0.15178505 0.17226213 -0.13494584
000330 89 84 a9 3c 27 9e 9f bd 40 86 28 3e 36 47 2d 3d
       0.02069308 -0.07793837 0.16457462 0.04230424
000340 dc a3 07 3e 76 3f 61 bd 74 93 91 3c 46 9a 60 3c
       0.13246101 -0.05499216 0.017770506 0.013708657
000350 72 86 0c 3d ee 3e c5 3d 38 dd 03 3d b2 c2 ba bd
       0.034307905 0.096311435 0.032193393 -0.091191664
000360 3b 42 cc 3d 34 a4 0d 3e 44 74 dd bd 47 89 09 3e
       0.0997357 0.1383217 -0.108131915 0.13431273
000370 8a 78 5a 3e dd c7 dd 3d 6e 0f f0 bb 69 17 3a be
       0.21335045 0.108291365 -0.007326058 -0.18172993
000380 86 84 43 3e 4d c4 a2 bd ac 1f b6 3d 48 c0 f9 3d
       0.19093522 -0.07947598 0.0889276 0.12194878
000390 47 ed 1b 3d 8f 73 c8 bc af b3 63 bd 12 e0 ba 3d
       0.038068082 -0.024469165 -0.05559128 0.09124769
0003a0 58 56 4e bb e3 d1 a1 3c 1f 7f 9a 3d 61 f0 81 bd
       -0.003148457 0.019753402 0.07543778 -0.06344677
0003b0 ce 40 1f be 16 5b d2 3d 7e f3 2c bd c0 41 b0 bd
       -0.15552065 0.102712795 -0.0422244 -0.08606291
0003c0 1f ac 6c 3d 00 03 30 3e 1c e6 03 be 83 85 c8 bc
       0.057781335 0.17188644 -0.12880749 -0.024477726
0003d0 60 b1 c6 bd 22 2c 18 3e 0e 4e 23 3e c5 81 c5 bd
       -0.097018 0.14860585 0.15947744 -0.09643892
0003e0 4f 80 16 3e 51 ca 48 bd 3c 20 2f bc 39 67 c2 3d
       0.14697383 -0.04902107 -0.010688838 0.094923444
0003f0 2f 03 aa bc cd 71 1f 3e 62 8d 7c 3d a4 d3 20 3e
       -0.020753471 0.15570755 0.06165827 0.15705734

feature_extractor.encoder.0.mlp.4.bias f4 [32]
000000 f7 30 24 bc 79 3f a1 bd 7b 42 23 be a7 1d 88 3d
       -0.01002144 -0.078734346 -0.15943329 0.06646281
000010 c8 27 79 3d 7c e7 0c bd 0b 41 f7 bc 3a 34 9d 3c
       0.060828954 -0.03440045 -0.030182382 0.019189943
000020 c2 d5 27 3d c3 eb 72 bc 13 b6 28 bd 43 3d f4 bd
       0.04097534 -0.014826718 -0.041189265 -0.11925747
000030 1c 56 05 be 20 54 10 3e b9 5c f7 3c 14 7f 19 be
       -0.1302113 0.14094591 0.03019558 -0.14989883
000040 9b 3e 27 bd 70 41 c7 3b 9c 78 21 3e 6a 80 0c 3e
       -0.04083119 0.006080799 0.15768665 0.13720861
000050 9a 81 26 3e 5d b3 55 3d ed 18 02 be 3c 1b 0f be
       0.16260377 0.052173007 -0.12704821 -0.13975233
000060 6e c2 76 bd 6e 70 2d bc da cc d0 3d 98 bb 89 bd
       -0.060244016 -0.010585887 0.10195322 -0.06725234
000070 a7 07 34 3e 5b 80 06 3d 68 78 e2 bd 37 1f 0a 3e
       0.17581044 0.032837253 -0.11058122 0.1348847

feature_extractor.encoder.1.mlp.0.weight f4 [32, 26]
000000 f6 2d 3f 3e 4e d1 bb bd 8e c4 d3 3c 7a 27 2a be
       0.18669876 -0.09170781 0.02585056 -0.16616622
000010 90 27 22 3c 63 95 88 3d bc b2 7c bd 6b 04 f1 3d
       0.009897128 0.06669118 -0.061693892 0.11768421
000020 60 64 0d be 8f 40 7d bd c0 47 37 3d aa 65 0e 3e
       -0.13807821 -0.061829146 0.04474616 0.1390597
000030 ea 3d 8f 39 7a ba 11 3e bf 74 37 be 93 79 38 bc
       0.00027321215 0.14231291 -0.17915629 -0.011259454
000040 37 68 6b bd 90 01 14 be 27 db 3b be 7e 31 dd bd
       -0.057472434 -0.14453721 -0.18345319 -0.108004555
000050 94 71 db 3b 7a b6 88 bd ef 22 a9 3d 36 db 2a 3e
       0.006696889 -0.0667543 0.08258616 0.16685185
000060 7e 34 08 bc 65 33 77 3c ab c7 18 3e ff 3d 0a be
       -0.008313296 0.015087937 0.14919917 -0.13500212
000070 48 24 7f 3c 40 8c 29 bd 5b ad 98 bb 55 8e e7 3d
       0.015572615 -0.04139352 -0.0046593375 0.113064446
000080 81 60 7d bd ae 8a 0c ba ae c9 6b bd 75 1b 04 3e
       -0.06185961 -0.0005361241 -0.057565384 0.12901099
000090 03 60 43 3d 4c 57 3c 3e 40 fd 9d 3d b2 bb 26 bd
       0.047698986 0.18392676 0.07714319 -0.040706344
0000a0 11 29 d0 3b 94 c4 31 be 53 1f aa bd e2 02 13 bc
       0.0063525517 -0.17360145 -0.08306756 -0.008972855
0000b0 43 1e 28 be 2c 58 ef 3b a6 89 29 3e 19 f8 89 3d
       -0.16417794 0.007304212 0.16556415 0.06736774
0000c0 58 3d a5 bd d8 ba 15 3e 99 e0 31 38 72 45 5c bd
       -0.08068341 0.14622056 4.240926e-05 -0.053777166
0000d0 be a8 d4 3c 4d 26 01 3d 90 cd 2c 3e 75 f4 dc 3a
       0.025959369 0.031530667 0.16875291 0.0016857522
0000e0 2e 4a 58 bd c3 d4 b1 3d 01 5c d5 3d 73 ad c7 3c
       -0.05280512 0.08683159 0.10417939 0.0243747
0000f0 33 4e e7 3d 51 f7 1e bd f6 54 2c 3e 47 e9 d5 3d
       0.11294212 -0.038810078 0.16829285 0.10444885
000100 e2 2f 46 be 58 65 a3 3d 22 18 2a 3d d2 1e 3e 3e
       -0.19354203 0.07978314 0.04152692 0.18566445
000110 bb 14 69 3d fc 4d 2f be 50 79 1a 3c 72 83 02 be
       0.056904536 -0.17119592 0.009428337 -0.12745455
000120 73 05 01 3e c7 01 3a 3e a3 02 3e bd 2c dc 21 be
       0.12599735 0.1816474 -0.046389233 -0.15806645
000130 05 14 0a be 21 c6 cb bd 14 65 11 be b9 1c c2 3d
       -0.134842 -0.099498995 -0.14198714 0.09478135
000140 9c 12 27 be 9e 9b 29 bd b0 7c a0 bd 07 7e 99 bd
       -0.16315693 -0.041408174 -0.07836282 -0.07494741
000150 c1 69 42 bc 3e ff dc bd c0 07 49 be 38 25 34 3e
       -0.011866034 -0.10790871 -0.19631863 0.17592323
000160 14 09 90 bc dd 87 cf bd 2e 06 ac 3d 42 c9 3a 3d
       -0.017582454 -0.10133336 0.08399616 0.04560209
000170 26 fd be bd dd 0f e9 3d 80 46 73 3d 7b ff 9f bd
       -0.09325628 0.11379979 0.059393406 -0.07812401
000180 fb 67 02 3e 09 73 fa 3d 67 d0 00 bc 15 9c e0 bc
       0.12734978 0.122289725 -0.007862187 -0.027418176
000190 ca 3c 56 bc 5b ee f5 3d 42 9f 0d 3d 5f 23 cd bd
       -0.013076017 0.12008353 0.03457571 -0.10016512
0001a0 a9 58 a3 bd e2 c3 ca 3d f6 31 54 3b 13 54 a0 3d
       -0.07975895 0.09900643 0.0032378412 0.07828536
0001b0 84 de 7b 3d fc 23 d0 3d 20 74 12 be 4f 1c 1a be
       0.061491504 0.101631135 -0.1430211 -0.15049861
0001c0 41 0d 0f be c1 c0 0e be ab ae fe bd 17 ce ee 3d
       -0.139699 -0.13940717 -0.12435659 0.11660402
0001d0 ca 31 e3 3b 0b 3f 34 3d 38 c9 3d 3e 20 70 27 3e
       0.0069334256 0.044005435 0.1853379 0.16351366
0001e0 4f 07 05 3e d2 fe 26 be ff a3 a0 bd 5e 22 3a 3e
       0.1299107 -0.16308144 -0.0784378 0.18177173
0001f0 6c 89 22 bd ca c0 33 3d 68 9e c4 bd fe 79 b5 bd
       -0.039681837 0.04388503 -0.09600526 -0.08861159
000200 b9 9d ec 3d 40 9a 12 be 55 d6 0a 3e 00 42 de bc
       0.11553521 -0.14316654 0.13558324 -0.02713108
000210 41 58 07 3e 2c 46 03 be 0d 90 a8 3d a1 9e ea bd
       0.1321726 -0.12819737 0.082306005 -0.11456037
000220 a8 ea f4 3d 80 e4 dd 3d 49 60 98 3d 75 1b f8 3d
       0.1195882 0.108345985 0.0744024 0.12114612
000230 7c 13 b6 3d 77 4b f0 3d ea 71 9f 3d cb c4 f2 3d
       0.08890435 0.11733144 0.07785399 0.118539415
000240 7b 51 ea bb bc 1b 8a 3d d8 2f c8 3c 17 b7 1b 3d
       -0.0071508265 0.06743571 0.024436876 0.038016405
000250 11 1c 43 bd 2f a6 09 be 27 13 03 bd 98 88 9d bd
       -0.047634188 -0.134423 -0.032000687 -0.07692069
000260 19 21 8f bd 93 e0 1c be 5c 4d e4 bd fc d6 16 be
       -0.06988735 -0.15320043 -0.11147568 -0.14730448
000270 02 ec 7e bd eb 08 08 be a4 3a 85 bc 3b b4 8b 3d
       -0.062236793 -0.13284652 -0.016263314 0.068214856
000280 3b 0c f9 3d c9 1a 3e bd c1 4d 17 3e b6 67 a4 3d
       0.12160536 -0.046412263 0.14775755 0.08027594
000290 6c ee 24 bd 22 2a 85 3d 6f 29 23 3d 6e 69 76 bd
       -0.04026644 0.06502177 0.039834436 -0.06015914
0002a0 10 54 3b be 32 0f eb 3c 6f a4 a5 bd a2 71 3b be
       -0.18293786 0.02869377 -0.08088004 -0.18305066
0002b0 3e 6e 15 3d de 8d 17 3e 40 97 0d be 3d a5 02 3e
       0.03648209 0.14800212 -0.13827229 0.12758346
0002c0 72 53 2c bd c3 e1 39 be 22 c7 5a bd b7 09 71 3d
       -0.042071767 -0.18152528 -0.053412564 0.058847155
0002d0 02 c3 87 bd 8d 19 25 3e 43 18 9d 3c 27 ce f5 bd
       -0.06628992 0.16123028 0.019176608 -0.12002211
0002e0 27 b6 d8 3d d0 12 0d be 52 a4 cc bd c6 b6 d0 bd
       0.10581618 -0.13776708 -0.09992279 -0.10191111
0002f0 2b 80 40 be 3f dc e8 bd 9d 21 0c bd 0a 6f 89 bd
       -0.18798892 -0.113701336 -0.034211744 -0.06710632
000300 28 9b b3 bd 93 fe 85 3c b5 31 cb 3d ee 77 3f be
       -0.08769828 0.016356742 0.0992159 -0.18698093
000310 a4 a0 8b bd 19 07 e7 3d 69 33 12 be 6a d0 48 3d
       -0.06817749 0.11280651 -0.14277424 0.049026884
000320 ce 82 2c be d1 66 1e 3e df a3 30 3e b7 9d 3e 3d
       -0.16846773 0.15468909 0.17250012 0.046537127
000330 b5 9c cc 3d de c4 23 be 07 8f 8d bc 5d 59 08 3d
       0.09990827 -0.15993068 -0.017280115 0.03328835
000340 7b 87 e7 ba 89 91 2b 3d e8 a5 0a 3d 9f 83 ae 3c
       -0.0017664278 0.04188684 0.033849627 0.021302996
000350 58 a8 b5 3c 23 c6 e2 bd 48 98 da 3d 4d 3e 9a bd
       0.022175 -0.11072948 0.106735766 -0.07531414
000360 98 20 f2 3d 43 d1 96 bd 96 88 4a be 2b 46 82 bd
       0.11822623 -0.07364132 -0.19778666 -0.0636104
000370 6a ec 1b 3e e4 aa 3f be 96 a9 1c be c0 5f 4c bd
       0.15226904 -0.18717533 -0.15299067 -0.049896
000380 fa 3a 1a 3d 5e 64 2c 3d 64 c1 28 bc c9 0d ed bd
       0.0376539 0.042087905 -0.010300014 -0.11574895
000390 f6 cd ea bd 9e a1 b2 bc de b0 b9 3d b3 63 8c 3d
       -0.11465065 -0.02180558 0.09066938 0.068549536
0003a0 ae 36 35 3e 3b 91 e1 bc 22 66 c7 3d 6c a4 b1 3d
       0.1769664 -0.027535072 0.09736277 0.08673939
0003b0 e8 45 d8 bd 13 2b fc bc 9e f9 0e 3e 1c d9 e7 bc
       -0.105602086 -0.030782258 0.13962409 -0.028301768
0003c0 18 91 0f 3d 98 28 ff 3c 76 16 68 3d d9 43 1f 3e
       0.03505048 0.031147286 0.056662045 0.15553226
0003d0 40 dd 3c 3e 0c fa c2 3d c1 5f 18 3e ef 8a 32 3e
       0.18443775 0.09520349 0.14880277 0.17435811
0003e0 51 4d 08 be 93 53 8b 3c 0d 4c c1 39 65 b7 a3 bd
       -0.13310744 0.017007625 0.0003686849 -0.07993964
0003f0 13 92 ca 3d 80 a7 85 3d a7 9f 22 be ca 70 f8 3d
       0.09891143 0.06526089 -0.15881215 0.12130888

feature_extractor.encoder.1.mlp.0.bias f4 [32]
000000 8d 17 97 3d 44 4b 27 3e 55 42 0a bd 05 92 61 3b
       0.07377539 0.16337305 -0.033754665 0.003441931
000010 4f 90 8e 3d ec 4a 01 3e c1 be fa 3d a9 63 ed 3d
       0.069611184 0.12626237 0.12243415 0.11591274
000020 64 84 4b be fa 73 af bd 71 d8 43 be 83 46 40 3b
       -0.19874722 -0.08567043 -0.19125535 0.0029338903
000030 50 d9 15 be e2 9f 14 3e 41 26 45 3d 98 eb ce bc
       -0.1463368 0.14514115 0.048132185 -0.025258824
000040 44 f1 53 be 7a 42 32 be 60 ef 92 3d 21 cc 34 3e
       -0.20697504 -0.17408171 0.071745634 0.17655994
000050 93 92 a5 bd ba ff 8a bd cd 1b 95 bd f5 d1 44 3e
       -0.080845974 -0.06787057 -0.07280693 0.19220717
000060 42 a9 42 3e 4f 07 16 3e 09 87 db 3d 14 a3 38 3e
       0.19009879 0.14651226 0.10719115 0.1803096
000070 43 91 08 3e 29 37 59 3e 52 73 86 3d c8 c2 6e 3d
       0.13336663 0.21212448 0.06564964 0.058291227

feature_extractor.encoder.1.mlp.2.weight f4 [32, 32]
000000 71 45 09 be ce 52 2a 3e c2 9a 88 3c 56 df cd 3a
       -0.13405396 0.1663315 0.016675357 0.0015706818
000010 ca ba 29 3e 08 4f 48 3d 73 13 5a 3d 08 de b7 bd
       0.1657516 0.048903495 0.053241204 -0.08977896
000020 27 66 92 3d 85 d6 2f be ab 46 e7 3d 36 2a e1 bd
       0.0714839 -0.17171676 0.11292776 -0.10994379
000030 42 05 df 3d 49 dd 13 3e a7 6f f1 bd b7 1f 16 be
       0.10889675 0.14439882 -0.11788874 -0.14660536
000040 39 09 13 be 7e a9 24 3d 80 46 83 3d 7d ca 9a bd
       -0.14358987 0.040200703 0.06409931 -0.07558153
000050 bb 4a 05 3e b7 0a 0a be fd 96 20 3e 15 01 bb 3d
       0.13016789 -0.1348065 0.15682597 0.09131066
000060 30 61 3a 3e b2 96 d7 bd 7b 96 6f 3d 02 b3 0e 3e
       0.18201137 -0.1052679 0.05849312 0.13935474
000070 29 05 e1 3c bf 3b 69 bd ff d0 d5 bd dc 3f 28 be
       0.02746828 -0.056941744 -0.104402535 -0.1643061
000080 93 4f 41 3a 70 d3 4c bd 33 31 04 be 71 84 5f bd
       0.0007374223 -0.05000633 -0.12909393 -0.054569665
000090 82 09 1f be dc 7f ed 3d 45 79 97 3d 14 74 14 be
       -0.1553097 0.11596653 0.07396177 -0.14497405
0000a0 88 be 15 3e d1 c8 31 be d1 e8 fa 3d 27 9b 02 3e
       0.14623463 -0.17361762 0.122514375 0.12754498
0000b0 94 6e 19 be 42 fe 98 3d 96 57 43 be 8b 9d 02 be
       -0.14983588 0.07470371 -0.1907638 -0.1275541
0000c0 40 3b 05 3e 06 16 d3 3d 04 bb b5 bd 59 8b 06 be
       0.13010883 0.10306935 -0.08873561 -0.13139094
0000d0 0b 44 d7 bd c6 ff f2 bd e0 9a be 3d 1b 87 e8 bd
       -0.10511025 -0.11865191 0.09306884 -0.11353894
0000e0 43 e2 90 3c 30 54 0d 3e 2d 3a 5c bd 68 d7 b4 bd
       0.017686015 0.13801646 -0.05376642 -0.08830148
0000f0 16 a1 ba 3c 18 6e 10 be 91 3e b5 bd 47 63 cd 3d
       0.02278189 -0.14104497 -0.08849824 0.10028701
000100 de ce 64 bd 6d 60 22 3e b7 d3 42 3d ad 35 32 be
       -0.055861346 0.15857096 0.04756519 -0.17403288
000110 7a 53 53 bd 8d 37 d5 bd 6d c6 08 3d 59 43 79 3c
       -0.05159328 -0.10410986 0.03339236 0.015213811
000120 52 68 02 be 93 1d 44 bd 8d 2e 7a bb 00 4a 6e 3d
       -0.12735108 -0.047879767 -0.003817472 0.05817604
000130 ab 3f ba 3d 71 e7 1c be e3 17 8f 3c fc e5 ff 3d
       0.09094175 -0.15322663 0.017467445 0.12495038
000140 38 78 23 3d f2 d7 07 3e cf a9 fb bc 01 4c 15 be
       0.03990957 0.1326597 -0.03072062 -0.14579774
000150 44 ea 80 bd ec 2f 09 3e 2b 1b e3 3d 6a da 6f bc
       -0.062946826 0.13397187 0.11089166 -0.014639476
000160 9d 8b dd bd 90 0c 06 3e d2 cb 98 bc 97 d5 4a bc
       -0.10817645 0.1309073 -0.018651877 -0.012380025
000170 cf 03 c9 bd 70 14 87 bc 4e 54 10 be ed a1 a4 3d
       -0.098151796 -0.016489238 -0.1409466 0.080386974
000180 fc e4 c5 bd a0 ea ab 3d d6 61 6d bd 00 2c 6d 3d
       -0.09662816 0.083943605 -0.05795463 0.05790329
000190 e3 0f 2f 3d 0e 07 0a be 9b 6c cd 3b 0c b9 66 3d
       0.04273976 -0.13479254 0.0062690503 0.05632882
0001a0 c1 eb 86 3c 2d c5 05 3d d5 5f 25 3e ca a2 13 be
       0.016469838 0.032658745 0.16149838 -0.14417568
0001b0 92 03 50 be b7 a5 48 be ef 8f df bd a2 e5 21 3d
       -0.20313862 -0.19594465 -0.10916125 0.039525636
0001c0 29 5a f2 3d fb 44 f5 3d 00 ec 1b 3e 6b 94 c2 3d
       0.11833603 0.119760476 0.15226746 0.09500965
0001d0 3a f9 23 3e f4 da 7e 3d 14 8b d7 3a 87 85 ef 3d
       0.16013041 0.06222053 0.0016444647 0.1169539
0001e0 a8 d1 ba 3c 43 34 29 be a5 76 c9 bd 56 07 5a 3d
       0.02280505 -0.16523843 -0.09837083 0.053229652
0001f0 e6 27 be 3d 00 52 1a 3e 6a 8a 43 be 5f 41 47 bb
       0.09284954 0.15070343 -0.1909577 -0.0030403954
000200 8a 94 fc bd c3 cb 9b bd 1b b4 af 3d b6 f2 da 3d
       -0.12333019 -0.07607224 0.08579274 0.10690825
000210 59 78 08 bc 12 f0 0c 3d a7 4d 00 3e c3 d6 8f bc
       -0.008329474 0.034408636 0.12529622 -0.017558461
000220 7d ce 1a be 0b 2c 48 ba a3 c8 47 3d f0 a0 a2 3c
       -0.15117832 -0.00076359574 0.048775326 0.019852132
000230 31 7f 38 3e 53 80 d9 bd 2e 7c b0 bd 0e 73 0a 3e
       0.1801727 -0.10620179 -0.086174354 0.13520452
000240 3c e0 49 bd d8 97 46 3b 4f a0 bd 3d af 57 32 3c
       -0.049286112 0.0030302908 0.09259092 0.010885163
000250 ed 75 ce bd 75 22 ee bd 24 9a f6 3b d8 2a 11 3e
       -0.10081086 -0.11627666 0.007525699 0.141765
000260 90 8c 06 3e 13 9e f6 3d 5a 52 15 be c9 07 a4 3a
       0.13139558 0.12041869 -0.14582196 0.0012514527
000270 49 cf 1c be 9f 57 27 3e 8a 2c ca bd be 7a 31 3e
       -0.15313448 0.16342019 -0.098717764 0.17331979
000280 9c 7f 12 be 7b 0c 8c 3d 18 b3 e8 3d 74 41 22 3e
       -0.14306492 0.06838318 0.113622844 0.15845281
000290 ff 9e 25 bc 88 63 b9 bd 90 f8 67 3d 48 3b 8e bd
       -0.010108708 -0.09052187 0.056633532 -0.06944901
0002a0 af f7 d0 bc 40 76 16 be 84 c5 d2 bd ed 78 16 3e
       -0.02550873 -0.14693546 -0.10291579 0.14694567
0002b0 17 d9 17 3e 29 df 6a 3d af b0 ee bd 0c 49 39 bc
       0.14828907 0.05734173 -0.116547935 -0.01130892
0002c0 91 19 e5 bd 5c 5c 22 3e 60 f0 83 bd f6 66 b2 bd
       -0.11186517 0.15855545 -0.06442332 -0.087110445
0002d0 75 fa 73 3d 52 f8 34 be a2 48 ce bd e7 1d 56 3c
       0.059565026 -0.17672852 -0.10072447 0.013068653
0002e0 98 e7 4c bd 91 16 c7 3d 3a b7 f6 bd a4 bb 95 3d
       -0.050025553 0.09721101 -0.120466664 0.0731118
0002f0 43 16 7c bd d9 a8 3a be d7 d1 b1 bc d6 3c 16 be
       -0.061544668 -0.18228473 -0.021706505 -0.14671645
000300 b5 f4 64 bc e0 f2 b4 bd 43 67 98 3d a1 5e fc 3c
       -0.013974358 -0.08835387 0.074415706 0.030806841
000310 50 10 1d be a7 1b 2d bd ec 81 53 3d 14 07 2c 3e
       -0.15338254 -0.0422627 0.051637575 0.16799575
000320 62 6a c8 3d d1 51 b7 bd a6 7a d5 3d 01 3c b4 3d
       0.09785916 -0.08951152 0.10423784 0.08800507
000330 0a 5a ab bd 9e c1 4a be ce 89 e8 bb 57 86 e9 3d
       -0.08366783 -0.19800422 -0.0070965057 0.114025764
000340 4e 5f 8b bd e1 f9 12 3e f0 23 3c bb e9 09 fa bc
       -0.06805287 0.14353134 -0.0028707944 -0.030522304
000350 0e f9 c5 bd ce da f6 bd ef 94 e1 3d c2 e8 0b be
       -0.09666644 -0.120534524 0.11014735 -0.13663009
000360 f3 a1 03 3e 54 6c 10 3e 34 92 27 3e 89 12 1b be
       0.12854747 0.14103824 0.16364366 -0.1514379
000370 9d 44 2c 3e 5e 7e e2 3d fd 62 22 be 51 35 fc 3d
       0.16823049 0.11059259 -0.15858074 0.12314857
000380 78 4d a1 3d 9b 4e a1 bd 15 13 f3 3d 6c 71 1d bc
       0.07876104 -0.07876321 0.11868874 -0.009609561
000390 1e ea 2d 3e f7 09 2d be eb 3b 22 be dd e2 43 bc
       0.1698384 -0.16898333 -0.1584317 -0.011955944
0003a0 4e 01 14 be 71 5a ac bd cf 72 71 bd 8a 87 17 3e
       -0.14453623 -0.08415688 -0.05894738 0.14797798
0003b0 d8 e2 1e 3d 93 1f 15 bd d6 23 71 3b 43 e1 c3 bd
       0.038790554 -0.036407065 0.0036795042 -0.0956445
0003c0 22 62 21 3e 74 f2 48 bd 51 05 98 3d fd 96 18 3e
       0.15760091 -0.049059346 0.07422889 0.14901347
0003d0 d3 e0 b4 3d da 10 c7 bd 09 9c 7f 3d 04 7f 35 3c
       0.08831944 -0.09720011 0.062404666 0.011077646
0003e0 16 93 06 3b db 02 be bd 64 37 97 3d cc 60 95 3d
       0.0020534447 -0.092778884 0.07383612 0.07293853
0003f0 12 3c d4 3c 36 5e 1c be fb a5 0a be c2 25 d2 3d
       0.02590755 -0.15270314 -0.13539879 0.10261108

feature_extractor.encoder.1.mlp.2.bias f4 [32]
000000 2c ec 80 bd 32 05 08 3e d1 6c 7c bd b7 42 4c bd
       -0.06295046 0.13283232 -0.061627213 -0.04986831
000010 a9 4b b1 bd 23 f4 63 bd 75 29 f1 3d 39 14 ab bd
       -0.08657009 -0.05565275 0.117754854 -0.083534665
000020 d1 3d 7f bc 8a 54 87 3d e7 9d 63 3d 01 1a 92 bd
       -0.015578703 0.066079214 0.05557051 -0.07133866
000030 22 4b a6 bd 6c 5f 3a 3e 32 bd 2e 3c 31 a2 16 3e
       -0.08119799 0.18200463 0.010665225 0.14710309
000040 d0 bd 08 3d ee b9 93 3d 6f db 02 bd 5f 41 be bd
       0.033384144 0.07213198 -0.03194755 -0.09289812
000050 83 d9 03 bd a2 bb 6c bd d0 04 2d 3c ea 26 63 3d
       -0.032189857 -0.057796128 0.010560229 0.055457033
000060 41 c5 c2 bd 83 e8 ea bd 77 b5 40 bd e8 05 96 bd
       -0.095102794 -0.11470129 -0.04704806 -0.07325345
000070 a6 e7 30 3d 59 45 6f 3d 7e ae 8a bd 78 71 25 3e
       0.043189667 0.058415744 -0.06771563 0.16156566

feature_extractor.encoder.1.mlp.4.weight f4 [32, 32]
000000 16 07 5c 3d 03 54 fe 3d ee db ca bd eb 4a 29 bd
       0.053717695 0.12418368 -0.099052295 -0.041331213
000010 9a a3 c7 3d 40 a3 ee 3d 5f 88 05 be 63 51 25 be
       0.097480014 0.11652231 -0.13040303 -0.16144328
000020 6d af 00 3e ff b0 be 3d 4f 15 9e bd 08 f2 d7 bd
       0.1256692 0.09311103 -0.07718908 -0.10544211
000030 d3 a2 93 3c a8 f1 d4 bd 1c 30 fe 3d b0 29 55 3d
       0.018021977 -0.10397655 0.1241152 0.05204171
000040 85 15 f1 3d 51 32 ce bd 5d d7 10 3e b3 27 65 bb
       0.11771683 -0.10068191 0.14144655 -0.003496629
000050 a8 98 27 be 07 22 7b bc 6d ad a5 3d be 1c c2 ba
       -0.16366827 -0.015327937 0.08089719 -0.0014809591
000060 d4 a0 31 3d 89 4a 2f bd 54 34 2d be 10 8a a4 bd
       0.04336627 -0.04279569 -0.16914493 -0.08034146
000070 64 83 53 3d 2d 46 b8 bd d8 01 13 bd 45 81 ac bd
       0.051638976 -0.0899776 -0.03589043 -0.08423094
000080 7d f1 22 be f7 eb 9a bd 72 4f 35 3d 05 8b b0 ba
       -0.15912433 -0.07564538 0.044265218 -0.0013469165
000090 aa b9 99 bd 51 56 94 3d b0 8d f0 bc b6 aa 66 bd
       -0.07506116 0.07243026 -0.029364437 -0.056315146
0000a0 ed 15 2a bd f8 f2 af bc f4 85 52 3d ed f9 f0 3c
       -0.041524816 -0.021478161 0.05139728 0.029416049
0000b0 66 23 27 3e 7a 18 33 3d 48 ef 5f 3d 4e b5 8a 3d
       0.16322097 0.043724515 0.054671556 0.067728624
0000c0 da b0 22 3e c4 0a 02 3e 6b 44 e5 bc a2 a1 84 bc
       0.15887776 0.1269942 -0.027986726 -0.016190354
0000d0 46 ae e4 bc 3f e5 17 3e 1e 0c 2c bd bf 1f 01 be
       -0.027915131 0.14833544 -0.042003743 -0.12609766
0000e0 94 c6 1e be 38 73 de bd 2a 4e 20 3e a9 8f 43 3d
       -0.15505439 -0.1086182 0.15654817 0.047744427
0000f0 80 73 d2 3d 33 d6 09 3e 49 73 2f bc 3b e4 4d bd
       0.10275936 0.13460617 -0.0107086385 -0.050266486
000100 fd 7d 09 be 71 6b 50 bd 79 1f 31 bd 95 fe 36 bc
       -0.13426967 -0.050883714 -0.043242905 -0.0111690955
000110 3d 0d 87 3c 70 48 b3 bb 3b ba 98 bd c9 2e 43 3d
       0.016485805 -0.0054712817 -0.07457396 0.04765204
000120 53 91 1d 3e 9e 77 ef 3d 39 b5 36 bd a2 d0 f8 bc
       0.15387468 0.11692737 -0.04460642 -0.030372921
000130 db 88 03 bd 74 1c 1e be 58 cf 2b bd 75 3d f4 3c
       -0.032112937 -0.15440542 -0.041945785 0.029814461
000140 12 09 05 be f6 bc 18 be 08 8a 0a be e2 94 e0 bd
       -0.12991741 -0.14915833 -0.13529217 -0.10965897
000150 9b da dc 3d 76 dd e1 3c 50 6f 69 bd af 96 dc 3d
       0.10783883 0.027571421 -0.05699092 0.10770928
000160 b3 55 61 3d 73 82 6f 3d 07 88 91 3d 55 f7 1c 3d
       0.05501337 0.058474015 0.07106023 0.03832181
000170 82 3d 85 3d 70 2e 92 3d 99 26 b0 bd e7 0e f7 bc
       0.06505872 0.071377635 -0.08601112 -0.030158473
000180 65 69 a9 3d 38 2c 85 3b 62 30 0b be 58 be e1 bb
       0.082720555 0.004064109 -0.13592675 -0.006889146
000190 f2 62 89 3d 2f bc 9a 3d 55 d1 0e be 35 8a 0e 3e
       0.067083254 0.075554244 -0.13947041 0.1391991
0001a0 de ca 8d bd 2c 79 1e 3e 3f 86 56 3d ea 7b 12 bd
       -0.069234595 0.15475911 0.05237412 -0.035762705
0001b0 20 d2 03 3e ed 6b 01 bc 07 42 03 be 32 8c 47 3d
       0.12873125 -0.007899267 -0.12818156 0.048717685
0001c0 1e 78 27 be 0c 4f 84 3d 9f aa 0e be 57 c5 bd 3d
       -0.16354415 0.064603895 -0.13932274 0.09266155
0001d0 45 e6 b5 3d 6f e1 54 3d ba a6 23 bc f5 70 03 3d
       0.08881811 0.051972803 -0.009988481 0.032090146
0001e0 ec 19 1d 3e 95 30 18 3e 54 24 19 3e 50 c1 2a 3d
       0.1534192 0.14862283 0.14955264 0.041688263
0001f0 d1 c6 42 bd 28 f5 f4 3d 00 28 18 3e 00 6c f7 bd
       -0.047552887 0.11960822 0.14859009 -0.12081146
000200 af 38 e8 bd 37 6d 2c bd fc d8 a8 3d 5e 4d e4 3d
       -0.113389365 -0.042096343 0.082445115 0.11147569
000210 e4 a5 3c 3c e6 71 18 3e 73 78 25 3e 0d ac 24 3b
       0.011514161 0.14887199 0.16159229 0.0025126964
000220 0d 3d 21 be 4c 1e bd bc dc 7a 1d bd d7 be 0d be
       -0.15745945 -0.023085736 -0.038447246 -0.13842331
000230 98 46 d3 3d 1f 59 97 3d 1c 4e cd bd b1 9d 2a 3e
       0.10316199 0.073900454 -0.10024664 0.16661717
000240 6e bb ed bd eb 36 7f bd 3c 34 be 3d 95 20 34 3e
       -0.11608015 -0.062308233 0.09287307 0.17590554
000250 b4 76 ea 3d 5d a9 2f bd 4e 1f b4 bd f6 3d d5 3d
       0.11448422 -0.042886127 -0.087950334 0.10412209
000260 66 4c 27 3e 6e 30 db bd e6 15 cf 3d 46 01 37 3e
       0.16337737 -0.107025966 0.10111599 0.1787158
000270 a1 d8 dc bd 96 b3 66 3d 14 c6 ba bd 77 92 29 be
       -0.10783506 0.05632361 -0.09119812 -0.16559778
000280 30 0d 1c 3d a1 1b 02 3e a4 47 f2 3c f9 dd f4 3d
       0.038098514 0.12705852 0.029575177 0.119564004
000290 c2 9b d5 3d a1 ba f3 3c c9 ac ce bd b6 f4 b1 3d
       0.10430099 0.029752078 -0.1009155 0.08689253
0002a0 36 69 15 3e f1 e5 0b be 04 f7 97 3d 31 c9 38 bb
       0.14590916 -0.13661934 0.07420161 -0.0028196091
0002b0 de c1 e1 3d 9c ea 2f be 79 f1 bf bb c4 18 13 bd
       0.11023305 -0.1717934 -0.005857643 -0.03591229
0002c0 a7 c0 fb bd 14 b0 8a 3d e8 c6 dc bd 91 bc b7 3d
       -0.12292605 0.067718655 -0.10780126 0.08971513
0002d0 5a 51 94 bd 6c b5 09 3e 26 4a 2e 3d 07 f0 9b 3d
       -0.07242079 0.13448113 0.042551182 0.07614141
0002e0 76 44 71 3d a4 48 dc bd fd 80 3a bd cb 52 d9 3d
       0.05890318 -0.107560426 -0.04553317 0.10611495
0002f0 05 13 e2 bd 9c 8c da 3d 60 0b ec bd 0e 36 be 3c
       -0.11038784 0.1067135 -0.11525607 0.023219135
000300 0a 0e b1 bd 3f ad 24 3e 9b 16 34 be 15 51 03 be
       -0.08645256 0.16081713 -0.17586748 -0.12823899
000310 a3 12 53 bd c1 6b 89 bc f4 c1 9e 3d b9 54 14 be
       -0.051531445 -0.016775014 0.077518374 -0.14485444
000320 c8 70 08 3d 9a 09 2a 3e 6c 84 b6 3d 5e fd e3 3d
       0.03331068 0.16605225 0.08911976 0.1113231
000330 e9 e5 59 3d fb e3 26 be 2d 12 01 be 19 9a 7c bb
       0.053197775 -0.16297905 -0.1260459 -0.0038543998
000340 b4 13 bc 3c 5e 82 30 3e dc 9c 0f 3e 52 55 ef bd
       0.022958614 0.17237231 0.14024681 -0.116861954
000350 07 87 27 be 0b b4 6c 3d 01 a6 da bd 72 71 9c bd
       -0.16360103 0.05778889 -0.10676194 -0.076388255
000360 b8 27 bc bc de e8 8c 3b cf 0f 01 3d 7e d7 5f bd
       -0.022968158 0.004300221 0.031509217 -0.05464887
000370 53 a7 bb 3d 14 46 25 bc 04 67 48 bb 00 03 d4 3c
       0.09162774 -0.010087509 -0.003057898 0.025880337
000380 a5 66 2b 3e 13 b0 3a 3d 1d 79 16 3e 1f a0 c3 3d
       0.16738375 0.045578074 0.14694639 0.09552025
000390 d2 db 0c 3e 81 87 3a be 0d 27 93 3d 7c 35 0f 3d
       0.1375573 -0.18215753 0.07185183 0.034963116
0003a0 21 70 c1 3d 16 a2 b0 3d 7d 1d 4e bd d7 b2 de bd
       0.09445215 0.086246654 -0.05032109 -0.10873955
0003b0 46 15 a0 3d 2f 68 a5 3c 1b c3 c1 3d 45 7a ab 3a
       0.078165576 0.02019128 0.094610415 0.0013082704
0003c0 cf 96 25 be 77 5a f5 bc f4 12 b1 3c 77 2b 4e bd
       -0.1617081 -0.029950364 0.021615483 -0.05033442
0003d0 5f c8 8e bd 63 cb c5 ba 9b 19 45 3d 18 6d 42 3d
       -0.069718115 -0.0015090521 0.048120122 0.04746732
0003e0 36 63 cb 3d ba d5 f8 3d 91 75 23 3c 7e 8e 00 be
       0.09931032 0.1215014 0.0099767605 -0.12554356
0003f0 d8 4d 4e 3d 34 e6 3a 3d a5 3e 30 3d c2 36 69 3d
       0.050367206 0.045629695 0.043028492 0.056936987

feature_extractor.encoder.1.mlp.4.bias f4 [32]
000000 07 d2 9b bd cf 60 82 bd 01 09 b5 bd ce 67 e7 3d
       -0.07608419 -0.06366121 -0.08839608 0.11299096
000010 0c d3 9c bc 07 dc a3 bd 47 23 0f 3e b7 bf 1d be
       -0.019143604 -0.08000951 0.13978301 -0.15405165
000020 41 4c 5b bd f4 30 30 be d9 53 da bd de cd a9 3c
       -0.05353952 -0.17206174 -0.10660524 0.020728048
000030 6f f9 ae bd b1 4d e6 3c d9 de 26 3e 81 f0 14 3e
       -0.085436694 0.028113218 0.16295947 0.1454487
000040 81 ab 28 3d 04 be 58 3d 72 1a fa bd f7 06 9a bd
       0.041179184 0.052915588 -0.12212075 -0.0752086
000050 00 de 3f bd 12 15 d3 bc 1c e3 0a 3e 98 93 9c bd
       -0.046842575 -0.025766883 0.13563198 -0.07645339
000060 57 db 67 bc 22 7c 0b 3b 1c 86 e2 3d d1 25 03 3e
       -0.014151416 0.0021283706 0.110607356 0.12807395
000070 c7 c2 0c 3c d7 e0 7a bd 62 9a 16 3c 2e 08 a6 3d
       0.00859136 -0.06124958 0.009192081 0.08107029
