examples/mini/cost_predictor.pt (torch, 41514 bytes, 13 tensors)

weight f4 [32, 104]
00000000: 57eb d43b 11d0 9a3d bd59 3abc 7a03 6bbc
00000010: 704e 99bd 0061 2c3d 8aa3 8739 31f2 c6bd
00000020: 5a1d b83c 4ab0 b83c 717e 9abd 6271 bc3c
00000030: 5c5c ee3b c0b9 91bd ae62 aabd 3acb 563d
00000040: 1247 413c 2759 c5bd 71d9 403d aa80 4c3c
00000050: 759d ad3c 3f13 353d 073d a4bd 3052 413d
00000060: e5f5 8cbd 7325 98bb e30c 9dbd 1e54 94bd
00000070: 488e a73d 928e e1bb 9cf4 3a3d dd14 7a3d
00000080: a8e4 aa3d 90f8 7cbd c3f0 96bd 4400 123d
00000090: 4c61 263d 20d9 103d 9b30 af3d 7aae 1bbd
000000a0: 5dae 603d 0f8a c4bc 8141 3cbd 8f7c 75bd
000000b0: cda9 983c a8e4 df3c a5f6 bbbd 53dc 84bb
000000c0: d33e c43c e1a0 00bc a450 3ebc 8b62 573c
000000d0: f7d5 ff3b 1099 c03d 74f9 6dbd 1696 6bbd
000000e0: 6ca8 b9bd 2cc1 993c f481 713c 7401 b9bd
000000f0: 4365 0a3c 23fc 96bb 9a7c ac3d bb1a e43c
00000100: 3aa0 b7bd d6b2 c2bd a83a ba3a 29c0 5e3d
00000110: b762 feba b1e4 27bd 7e44 bbbd 13ac b33c
00000120: a663 9c3d 577d c3bd 8bc9 993d ac9a c6bd
00000130: 0fc8 c2bd 4d4b a13d 9591 803d cc13 c2bd
00000140: 0c2b 4c3d 6f1b 32ba c9a1 b73d 7611 87bd
00000150: d195 31bd 937b 79bc 801c a53d 50d8 b63c
00000160: 336b 4cbd 709f b63d 1a9b 4cbd 5076 acbd
00000170: 637f a43d 98bb 88bb 91e3 2fbd cc60 81bd
00000180: 51af 43bd 2e46 acbc 81b1 84bd 0baf 283d
00000190: 5831 9dbd e1e0 5abd ffc3 373c 02de 6fbd
000001a0: fc38 a83d 0ee9 81bc ac19 9bbc e0bd af3c
000001b0: 2ebe 2f3d d339 c5bd 24f2 a3bd 1758 d5bc
000001c0: 8a47 523d 944d db3b 0733 b9bd 1c1c 133d
000001d0: 5752 9e3b 0ce3 383d 70d3 32bd 9229 ad3d
000001e0: 3e04 39bd b049 93bd ecaa 90bd 994a a8bc
000001f0: 61e0 903c 6d69 adbd 17f1 2bba f91d 8cbd
00000200: d6c8 02bd 855a 84bd 7028 1abd 9a53 88bc
00000210: 66a9 c1bc d642 a4bd d86f 9f3d 4f21 613d
00000220: 65c2 ab3d ae0a 463d 2b12 b6bd 3ea4 b2bd
00000230: 140e b23d 67d2 c9bc 4eb2 9bbd fd5f 7dbd
00000240: 683b adbd d9c6 233d f89b b3bd 3423 a13d
00000250: 57c6 8a3c e7e0 19bd bb58 2d3d c235 1c3d
00000260: a142 9d3d ef50 cc3c d41f 44bd e972 9cbc
00000270: c9ad 303d f405 8c3d 0839 c83d aa2c 86bb
00000280: 38ce afbd e60f 303d 9750 9cbc 50a2 83bd
00000290: 38a2 c6bc 5fd8 853d 89d5 6cbd 2a18 2c3d
000002a0: f7db 9a3d de09 933d 70aa 023d 9a0c 453d
000002b0: 1d7b 893d ee55 8d3d fd76 b13c a402 b33d
000002c0: bcb1 0cbd 6ae0 793d b5fc bbbd 7e23 bebd
000002d0: d28e b83d 68f4 b7bd 2bf6 b33d 3909 a7bd
000002e0: 9541 463d b9ba f9bb dca3 683c cf40 d23c
000002f0: 5d85 803d e25b ec3c 1864 8f3d a5c4 32bd
00000300: 355d 92bd a09c c1bd 3f64 9bbd 9efc 883d
00000310: cf03 533d 29d5 95bd 19e2 87bb 1ad7 e9bc
00000320: 7444 363d 5fd2 833d 1330 6ebd f6ec 863d
00000330: 588d 44bd 2b55 d93c 7d6b 8fbb 981c f73c
00000340: 2e2b 193d 60de 84bd a944 a43d 850c babc
00000350: 96e4 a8bd ebd7 a7bc 568a 903d 357a ff3c
00000360: 2a61 67bd 46f4 233d 6f23 afbc 1968 b4bd
00000370: 3d3c 7b3c d3b5 b33d d14d 683d d342 8a3d
00000380: 8c8f 4a3d 582d 573d 3814 95bd a034 84bd
00000390: 78c1 fabc c074 953d efd0 793d 18c0 6b3c
000003a0: 3149 9dbd e517 05bc be67 e63c a53d 113d
000003b0: 195d 99bd faf3 883b 5e48 21bd 35a8 93bd
000003c0: 2b87 a03d d72e f439 6181 f8bc 3188 323d
000003d0: d451 17bd 2b61 9bbd 5594 4e3d e7bd c4bd
000003e0: 2a6f e5bc 700a b13a 4c26 bbbd 56d8 423d
000003f0: 35c7 7f3d 5246 5b3b 7aa0 a83d bbee 173b
0.0064977813 0.07559217 -0.011373934 -0.014344091 -0.07485664 0.042084694 0.00025871053 -0.09714163
0.022474933 0.022544999 -0.07543648 0.023003284 0.0072741937 -0.07115507 -0.08319603 0.052439906
0.01179673 -0.09636145 0.04708237 0.012481848 0.021193245 0.044207808 -0.080194525 0.04719752
-0.06882838 -0.004643136 -0.076684736 -0.072426066 0.08181435 -0.006883451 0.045643434 0.061055053
0.08344394 -0.061760485 -0.073701404 0.035644785 0.040620133 0.035363317 0.08554193 -0.03800819
0.054853786 -0.023991613 -0.045960907 -0.05993324 0.018635655 0.027330711 -0.09177903 -0.004054585
0.023955738 -0.0078508565 -0.011615906 0.013146053 0.007807489 0.09404194 -0.058099225 -0.05751618
-0.09065327 0.01876887 0.014740456 -0.0903348 0.008446994 -0.0046076938 0.08422203 0.027844777
-0.08966108 -0.095067665 0.0014208155 0.054382477 -0.0019408081 -0.04098958 -0.09143923 0.021932637
0.07636194 -0.09545391 0.075091444 -0.0969747 -0.095108144 0.078756906 0.062777676 -0.09476432
0.04984574 -0.0006794249 0.08966405 -0.06595127 -0.043355767 -0.015227216 0.080620766 0.022319943
-0.04990692 0.08917129 -0.049952604 -0.08421004 0.080321096 -0.0041727535 -0.042941634 -0.06317291
-0.047774617 -0.021029558 -0.06479169 0.04118256 -0.07675427 -0.053437117 0.011216163 -0.058561333
0.08213994 -0.0158582 -0.01893314 0.021452844 0.04290598 -0.0963017 -0.08005169 -0.026042981
0.051337756 0.0066925976 -0.09042936 0.03591548 0.004831593 0.045138404 -0.043658674 0.084551945
-0.04517006 -0.07191789 -0.07063851 -0.020543383 0.017685117 -0.08467374 -0.00065590575 -0.06841654
-0.031929813 -0.06462578 -0.03763622 -0.016641427 -0.023640346 -0.080205604 0.077850044 0.054963406
0.08386687 0.04835003 -0.08890184 -0.08722733 0.086940914 -0.02463646 -0.07602368 -0.06185912
-0.084585965 0.039984558 -0.08769983 0.078680426 0.016940279 -0.037568 0.042320948 0.038137205
0.07678724 0.024940936 -0.047881916 -0.019097762 0.043134484 0.06837073 0.09776503 -0.00409468
-0.08584255 0.042983912 -0.019081397 -0.06427443 -0.024247274 0.0653541 -0.05782083 0.042015232
0.07561486 0.071796164 0.031900823 0.04810772 0.06712935 0.069011554 0.021663183 0.08740738
-0.03434919 0.061005034 -0.091790594 -0.09284113 0.09011616 -0.08982164 0.08787187 -0.08156056
0.048402388 -0.007621136 0.014199223 0.025665669 0.06275437 0.028852407 0.07001513 -0.043644566
-0.07146684 -0.09453702 -0.0758748 0.06688808 0.051517304 -0.07316048 -0.004146826 -0.028544951
0.044498876 0.064366095 -0.058151316 0.065881655 -0.04798636 0.026529869 -0.0043768273 0.030165002
0.037394695 -0.06487727 0.080209084 -0.022711048 -0.08246724 -0.0204887 0.070576355 0.031186203
-0.056489147 0.04002788 -0.0213792 -0.088089176 0.015334186 0.087749146 0.056714837 0.06751027
0.049453303 0.052533478 -0.07279247 -0.0645535 -0.030609831 0.07297659 0.06099027 0.01438906
-0.07679976 -0.008123373 0.02812564 0.03545918 -0.0748846 0.004179475 -0.039375655 -0.07209817
0.07838281 0.00046574205 -0.03033513 0.043586913 -0.03694327 -0.07586893 0.05043443 -0.096065335
-0.028007109 0.0013507139 -0.09138164 0.047569595 0.062445838 0.0033458662 0.082337335 0.0023183066

bias f4 [32]
00000000: 9625 c43d 2b9e b2bd f89e e53b 3f68 84bc
00000010: 84c7 523d 261d 783d bfc0 993d 3365 593d
00000020: b364 a73d 9e1b 71bd efb5 3e3d aae6 7e3d
00000030: 7546 f13c 53f5 bdbd ee0a 613c 3c82 c2bd
00000040: 3040 4ebd da5d 843c 70ff 613c 03a3 30bd
00000050: 448d e0bc cecd 8f3d da51 c03c b17d 9b3b
00000060: 3606 6b3d da3d 6ebd 9498 4cbd 5f24 c73d
00000070: b5af 263d bb24 a7bd 645e ba3d ac31 50bd
0.095774814 -0.087215744 0.007007476 -0.01616299 0.051459804 0.060574673 0.075074665 0.053075027
0.08173504 -0.05886423 0.046560224 0.062231697 0.029452542 -0.092753075 0.013735516 -0.094974965
-0.050354183 0.016158033 0.013793811 -0.04312421 -0.02741111 0.07021676 0.02347653 0.004745208
0.05737897 -0.058164455 -0.049950197 0.09723734 0.04069491 -0.08161303 0.09100035 -0.05082862

weight f4 [32, 32]
00000000: 067d f4bb aee9 133d 0e7a a83d 8631 da3d
00000010: 6b3e 1bbe 3c12 323e 7044 c33d 3377 05be
00000020: 5305 983d 34e8 c03c f5f5 36bc e39d 49bd
00000030: 85b8 5d3b ba9d 183e 2541 41bd 00a3 843d
00000040: c8fe bd3d acfa aebd bfb7 bc3d 3553 33be
00000050: 1890 9abd f4d1 c63d a3f4 253e 9e1a a43d
00000060: 83d3 22be 68c0 22be edcb 283e 62c0 243e
00000070: 7f85 b83d 1429 1c3c 7518 8c39 35ec 0dbb
00000080: 68f2 673d 3462 1bbd 77fb 463d 52b9 8cbd
00000090: 7368 033d 7a99 15bd 6044 40bd 1bfa 9abd
000000a0: 4d4b 213d b591 a43d 6b7b 0abe e008 58bd
000000b0: 85af e3bb 6d75 153e fd48 fabd 874b 743c
000000c0: 24da 98bd 707b 09be 6254 8cbb 5548 05be
000000d0: 8d3c d6bd 0ad5 febd fbfd d9bd 32dc 14be
000000e0: d2dc 823c 6cfb 05be 01bd 59bd c081 d7bc
000000f0: 71b8 a93d f8ee a63c 29e5 ef3d 0726 2c3e
00000100: 247e 26bd 9e1e dfbd 6143 8e3d 9544 2abe
00000110: 307a 613b 4e3f d5bd cab3 013c 1bd0 343e
00000120: 3342 d1bd c045 f23c 589f 41bd ad18 24be
00000130: e6df 2f3d 2bc2 a8bd 2cc4 33be 7088 2fbd
00000140: 7f36 863d 2d00 5fbd 4d49 23be a3f2 09be
00000150: 3c25 dd3d 33c9 0c3e 20ea 163e 4691 14be
00000160: 4b8b b2bd 3781 ccbd e8ca 59bd bc2a 743d
00000170: cb29 0f3e 1ee3 0a3e 5407 47bd 01e2 8ebd
00000180: 2b8b cabd f3ce 1ebd 325f dfbb 4452 9abd
00000190: f97e bbbd 2fbe f3bd 02a6 1d3d 1148 06be
000001a0: 8f9f 8e3d a102 10be b0ab 0a3e ce9b 093e
000001b0: 44d6 e73d 88a5 d23d 3906 2d3e 32df dabd
000001c0: abb8 843d ecba 563d df64 e8bc 5c12 9abd
000001d0: 5d8e 263e fb3a 6b3b 2c24 ec3d 5cc6 cdbd
000001e0: 2540 87bd befc 27be f80f a1bc 751c 03be
000001f0: 0b4c ea3d 2145 c83b 5b91 f4ba e384 b63d
00000200: 9f19 c63d aad2 2a3d 4a21 fabd b1e9 dcbc
00000210: c972 fa3d 76f9 1abd 0a5e c7bc 5288 2c3d
00000220: d93f 2bbd 2fb2 193d fa4e 18be b58a eb3d
00000230: 9334 103e ede5 d13c a7b7 de3d db17 4cbd
00000240: 687e 3b3c c88c fcbd 762c 52bc 8bed a63d
00000250: d927 233d dec5 ffbd 5613 fcbd d9e4 e13d
00000260: 2cb8 e73d 53f9 6b3d c04e f9ba 3a12 9abd
00000270: 4828 2b3e 6ed0 dfbd c5da 873d bdb2 233e
00000280: fd08 02be bef5 8b3d 04cb c63d c5e2 ca3d
00000290: 984a 0ebe 13bc 0f3e 9df3 cb3c 29f0 55bd
000002a0: e8df 04be 8fac 28be 16c8 a73d 3397 213e
000002b0: e3a8 07bd 4e22 a23d 0f70 253e c7e3 8d3d
000002c0: e6e3 723d c4fe 333e 7acb 5ebd 6df1 0a3e
000002d0: 2538 183d 22b6 3c3d d16f da3c b13a 17bd
000002e0: ba32 e7bd be08 2c3e ff7d b3bd 20be 8f3d
000002f0: 72c9 b33c 02b2 8ebd 4d38 2ebe 7f14 e13d
00000300: da30 e83c e41b 0abe 1f43 65bd 8828 a33c
00000310: 0ecf c5bd 6602 bb3c 47ec cbbb 6a63 0ebe
00000320: 9e30 1ebe 1756 10be 5099 083e 33fb c6bd
00000330: 19fb 2abe f051 9bbc 4fec 303e 1ba8 edbd
00000340: 3870 2bbd efdb 23be f249 a03d 82b2 77bc
00000350: 73e0 093d b8d0 3f3d 0eb2 d33d db10 0fbe
00000360: c889 fbbd f105 15be 1808 f13d 3db7 c8bc
00000370: cd7c 193e 9a84 1d3e 6316 fc3d 84e8 d5bc
00000380: 1452 1e3e e311 22bd df40 cb3d 42c9 a93d
00000390: 8c25 edbd e589 0b3e ec2e 8d3d 6797 0ebe
000003a0: 9743 dcbd 1a30 07bc ec52 2ebe a469 b8bd
000003b0: 7d0d 01be f703 22bd f168 033e d21e a13c
000003c0: 2565 fdbd 100b 58bb 4cb4 18be 8799 a53b
000003d0: e02b 04bd 586d e2bc 758f 1f3e bb49 1c3e
000003e0: 05d0 c2bc 7a31 0e3e 1b88 b1bd 296d 5f3c
000003f0: b2bb f8bd ddda bdbd ca2b 303e cfb8 24be
-0.007461193 0.036111526 0.08226405 0.10653977 -0.1516053 0.17389768 0.09534538 -0.13033752
0.074228905 0.023548223 -0.011167039 -0.049222838 0.0033831906 0.14903918 -0.047181267 0.06476402
0.09277111 -0.085439056 0.09214734 -0.1751221 -0.07547015 0.09708014 0.16206603 0.08012889
-0.15900998 -0.1589371 0.16484042 0.16089013 0.09009837 0.009531278 0.00026721103 -0.0021655683
0.05662766 -0.03793545 0.04857966 -0.068712845 0.032082032 -0.03652332 -0.046940207 -0.07567235
0.039378453 0.08035604 -0.13523643 -0.05274284 -0.006948414 0.14595576 -0.12220953 0.014910585
-0.07463482 -0.13425994 -0.00428252 -0.13015874 -0.10460768 -0.12442978 -0.10644146 -0.14537123
0.015974436 -0.13084191 -0.053158764 -0.026306987 0.082871325 0.020377621 0.11713631 0.16811381
-0.04064764 -0.10894512 0.06946445 -0.16627724 0.0034405105 -0.10412465 0.0079164 0.17657511
-0.102177046 0.029574275 -0.047271103 -0.16025038 0.042938136 -0.082401596 -0.17555302 -0.042854726
0.06553363 -0.054443527 -0.15945931 -0.13471465 0.107981175 0.13748626 0.14737749 -0.14508542
-0.08717974 -0.09985583 -0.053172022 0.059611067 0.13980787 0.13563201 -0.048590973 -0.069767006
-0.098898254 -0.03877158 -0.006816768 -0.07535222 -0.091550775 -0.11901509 0.038488396 -0.13113429
0.06964027 -0.14063503 0.13542056 0.13438341 0.11320165 0.10285479 0.16896905 -0.106871024
0.06480535 0.052424356 -0.028368412 -0.07523033 0.16265245 0.003589331 0.11530337 -0.100476
-0.066040315 -0.16405007 -0.019660935 -0.12803824 0.11440285 0.0061117564 -0.0018659042 0.08912065
0.096728556 0.04170481 -0.12213381 -0.026966901 0.12228925 -0.03783556 -0.024336834 0.042122193
-0.041808937 0.037523445 -0.14873877 0.11501066 0.14082555 0.025622332 0.10874873 -0.049827438
0.011443712 -0.123315394 -0.012827983 0.081507765 0.039832924 -0.12488912 -0.123083755 0.11029977
0.11314425 0.05761082 -0.0019020662 -0.07523008 0.16714585 -0.10928427 0.06633524 0.15986152
-0.12698741 0.06833981 0.09706691 0.09906534 -0.13895643 0.14036588 0.024896437 -0.052230988
-0.12976038 -0.16472076 0.0819246 0.15780334 -0.033120047 0.07916699 0.16156028 0.06928211
0.059299372 0.17577654 -0.05439327 0.13568659 0.03716292 0.046072133 0.026664646 -0.036921207
-0.11288972 0.1680021 -0.08764266 0.07018685 0.021946643 -0.06967546 -0.17013665 0.109902374
0.028343607 -0.13487202 -0.055972215 0.019916788 -0.09658633 0.022828292 -0.006223235 -0.13905111
-0.15448233 -0.1409534 0.13339734 -0.09715881 -0.16697349 -0.01895997 0.17277645 -0.11604329
-0.041855067 -0.16001867 0.07826604 -0.015118243 0.033661317 0.04682991 0.103366956 -0.13971274
-0.12282139 -0.14553048 0.11769122 -0.024501437 0.14989014 0.15382615 0.123089574 -0.026111849
0.15460998 -0.03956784 0.099244826 0.0829034 -0.11579427 0.13626821 0.06893715 -0.13924943
-0.10755079 -0.008251214 -0.1702382 -0.09004524 -0.12602802 -0.039554562 0.12833 0.019668017
-0.123728074 -0.0032965578 -0.14912528 0.0050537023 -0.032268405 -0.02764003 0.15582068 0.15262501
-0.023780832 0.13886061 -0.08668538 0.013636866 -0.12145175 -0.092702605 0.17204204 -0.16086124

bias f4 [32]
00000000: ec23 1abe 5ae5 0e3d 28b2 9abd 19b5 febc
00000010: e2ac 273e db5e fe3d e5b8 11be b383 e7bc
00000020: 42ed 133e 4154 a93c 6d7a 1ebd 25b8 2ebe
00000030: d3ba 23be 7186 c73d 4228 eabd f1c6 2ebe
00000040: 06f3 ddbd aa75 9a3d ee5d 00be b29e 0fbe
00000050: d0b4 323e 18a3 3e3b 93b3 6d3c 404e d6bc
00000060: 3385 c83d 53b7 7f3d 2cb8 d83c 290f 17bd
00000070: bfc5 05be c43c ca3c fc0c 043d a557 12bd
-0.15052766 0.034886695 -0.07553512 -0.031092213 0.16374543 0.12420436 -0.14230688 -0.028261041
0.14445975 0.020670058 -0.038690973 -0.17062433 -0.15989237 0.097424395 -0.1143346 -0.17068078
-0.10837369 0.07541974 -0.12535831 -0.14025381 0.17451787 0.002908891 0.014508146 -0.02616036
0.09791031 0.06243069 0.026455007 -0.036879692 -0.13063715 0.024687178 0.032238945 -0.035728116

weight f4 [8, 1, 3]
00000000: 6ce2 273e ab5e 9bbd 9af3 2dbe 3e99 d93d
00000010: 663a 0b3f b5b4 a2be 61a2 7abc 59f4 1a3e
00000020: 80fb e43e bc28 ab3e e600 9dbe 4e8d 463e
00000030: bd6b fd3e cb1e 853e 94df 63be 677b 043f
00000040: b0e7 b03e 30fa aabe 8839 2abe 8597 4a3e
00000050: e824 f13e ce1e a3bd 59dc b03e 7b08 fcbd
0.16394967 -0.07586416 -0.16987458 0.10624932 0.54385984 -0.31778494 -0.015297503 0.15132274
0.4472313 0.33429515 -0.30664748 0.19389841 0.4949626 0.26000056 -0.22253257 0.517508
0.34551764 -0.33394003 -0.16623509 0.19784363 0.4709847 -0.0796486 0.34543112 -0.12306305

bias f4 [8]
00000000: 4f74 fd3e 833f 333c 46af 8f3c 1349 c23e
00000010: 79a2 01bf 5311 c43e dea3 e0be e341 46be
0.495028 0.010940435 0.017539632 0.37946376 -0.5063854 0.38294467 -0.4387502 -0.19361071

weight f4 [8, 8, 3]
00000000: 06ee ed3d 260a 153e 37fd 8e3d 57bc 0fbe
00000010: 90c2 3b3e 4592 c3bd 68d4 383e 38fc 013d
00000020: 1fca 273e 7f4b 8fbd 2eb4 713d 46c1 363e
00000030: fafc e8bd 69f9 efbc b439 053e 6278 3f3e
00000040: 01ad 0c3e cd6a f0bd 8e40 c9bd d101 1a3e
00000050: e0b2 80bd 9208 eabd 6104 1fbd 9210 213c
00000060: 0c23 28be 184b 5b3d 09d8 2dbe 05b3 63bd
00000070: 7d4c d4bd d1ef 083e 5516 10be c16b 063e
00000080: 5753 903d 5b37 b73d 1c16 97bd 60e5 27be
00000090: de72 aebd e402 61bd b226 fa3c e43a f63d
000000a0: ae0a 11be 8096 383e 72f1 23be 3ac4 053e
000000b0: ee96 17be fe2b 403e 7e21 3e3e 6aa3 dfbd
000000c0: 7f51 d2bd b962 91bd 1fcf e9bc 2be3 133e
000000d0: 937c cfbb 13a9 b83d 7e08 3b3e 8986 0ebe
000000e0: 6df6 383d e3bc aabd 0f43 27be d374 963d
000000f0: 8aad f4bd 9c50 36be 2cfb 37be 8892 81bd
00000100: a81b a13d 4f1f 42be 0568 27be 5353 21be
00000110: 716f bfbd 122f f43d 053d 843c 8d14 42be
00000120: 5dad 1cbe fdc3 88bc 416b d73d 2270 90bd
00000130: ed8d 283e b2ac 34bd dc59 003e 9894 433c
00000140: 179c 89bd 5a5d 953c a2ae f53d 78ed d43c
00000150: 8db8 17be 699d 443e d7f0 9c3c 615d 8bbc
00000160: 1420 2cbe 09fc 09be 7473 1fbe 52cc 37be
00000170: 6621 493c f77d f4bd 81b5 7bbb 3719 2b3e
00000180: e873 56bc cb62 6ebc 6d95 a23c 05f5 0dbe
00000190: a74d e5bd f7d6 4fbe 4f85 36be d477 94bd
000001a0: a31d 093e 9858 753c bf04 2dbe 5ff6 463e
000001b0: 3f89 85bd f45f 16be ce37 0d3e bac6 3e3e
000001c0: 2c78 c7bd 951c 42be c279 53bd 7642 d03d
000001d0: d251 3c3e 7efc b1bc 1046 2e3e 7650 85bd
000001e0: 8099 24be d59c a8bd e013 a9bd f815 37bc
000001f0: 2fa2 4f3e e35b 4c3e 54ac 1fbe e57b 073e
00000200: 57b2 7bbd b7a8 043e c852 9cbd d6f1 8e3d
00000210: 9e62 243e 1741 22be 1173 503e 346d 43be
00000220: a98c c2ba 820a f43d 8036 89ba 860b b6bd
00000230: 66f9 af3d 462b a03d b049 e53c 24e9 3cbe
00000240: 5d26 a8bc 0534 27b9 a476 0bbd 3b98 f4bd
00000250: 77a5 efbd 3192 29be 1788 96bc 4aa5 ee3c
00000260: 32c1 d03d 8eeb 3dbe ad18 3abe ee33 34bd
00000270: 51d9 e83d dbde 41be 5946 4d3e b497 843c
00000280: cb8c 293e b5e6 8b3c 8686 943d f6a1 8d3d
00000290: 3843 eebd 9113 a5bd 033b 213e ced7 663d
000002a0: acad 203c 1e5b b23d 0020 10be 5f23 f9bd
000002b0: 2452 023e 1cb4 443e 7ba6 cbbd af96 0d3e
000002c0: 0a49 023e 207b 043d 3dde 853d 1c00 fdbd
000002d0: 6732 2d3e 0aca e6bd 2a93 07be d67e b73c
000002e0: 2906 403e 842f 05be c5b7 443e 25a7 133e
000002f0: dea3 90bc 033d d03c ab73 4f3e 80f0 acbd
0.11617665 0.14554653 0.06981891 -0.1403669 0.18335938 -0.09549383 0.18049777 0.031734675
0.16385697 -0.069968216 0.059009723 0.17847165 -0.113763765 -0.029293733 0.13010293 0.18698266
0.13737871 -0.11739121 -0.09826766 0.15039755 -0.06284118 -0.11427416 -0.038822535 0.009830611
-0.1641962 0.05353841 -0.16976942 -0.05559065 -0.103661515 0.13372733 -0.14071019 0.13127042
0.07047146 0.08946105 -0.07377264 -0.16396093 -0.08518003 -0.054934397 0.03053603 0.12022951
-0.1416423 0.18026161 -0.16010073 0.13063136 -0.14803669 0.18766782 0.18567464 -0.10919841
-0.102694504 -0.07098908 -0.028541146 0.14442126 -0.006331989 0.09016623 0.18264958 -0.13918509
0.045156885 -0.083368085 -0.16334175 0.07346501 -0.119471624 -0.17804188 -0.17966908 -0.06326777
0.07866603 -0.18957256 -0.16348274 -0.15754442 -0.09347428 0.119230404 0.016142378 -0.18953152
-0.15300508 -0.016695017 0.10518504 -0.07052638 0.1646039 -0.044110008 0.12534279 0.011937283
-0.06719225 0.01823299 0.11996199 0.02599214 -0.14816494 0.19200672 0.01915781 -0.0170123
-0.16809112 -0.1347505 -0.15571386 -0.17949036 0.012276029 -0.119380884 -0.0038407745 0.16708837
-0.013089158 -0.014549921 0.019846642 -0.13862999 -0.11196452 -0.20296846 -0.1782429 -0.07249418
0.13390212 0.014974736 -0.16896342 0.1942992 -0.06520318 -0.1468504 0.13790819 0.18630496
-0.09739718 -0.18956216 -0.05162979 0.101689264 0.18390587 -0.021726843 0.17018914 -0.06509487
-0.1607418 -0.08233038 -0.08255744 -0.011174671 0.20276712 0.19956927 -0.15593082 0.13230856
-0.061449375 0.12954985 -0.07632977 0.0697972 0.16053244 -0.15845142 0.20356394 -0.19084626
-0.0014842945 0.11916067 -0.0010468513 -0.08888917 0.08592491 0.07820754 0.027989239 -0.18448311
-0.020526106 -0.0001594574 -0.03404869 -0.11943098 -0.11701482 -0.16559674 -0.01837544 0.02913155
0.10193099 -0.18546888 -0.18173476 -0.043994837 0.11369575 -0.18932669 0.20046367 0.016185619
0.16557615 0.017077783 0.07252221 0.06915657 -0.11633915 -0.080603726 0.15745167 0.05635815
0.009807032 0.087087855 -0.14074707 -0.121649496 0.12726647 0.19209331 -0.09943863 0.13827012
0.12723175 0.032343984 0.06536529 -0.123535365 0.16913758 -0.11269005 -0.13239732 0.022399347
0.1875235 -0.13006407 0.19210728 0.1441923 -0.017656263 0.025419718 0.20258968 -0.08444309

bias f4 [8]
00000000: 3b45 3b3e 59ac b13d 76b3 d73c c045 be3d
00000010: 9c37 a5bd 7394 2dbe e6cb 213e 613d da3d
0.18288128 0.08675451 0.02633069 0.092906475 -0.08067247 -0.1695116 0.15800437 0.10656238

weight f4 [16, 200]
00000000: 42d8 e8ba af24 763d f499 983c 4e63 83bb
00000010: b253 593c 1f02 2dbd 4638 1d3d aa57 40bb
00000020: a31e 4c3d 6e01 653d eecc 793d 74dc 203c
00000030: d1e4 7bbc 8d5c a23c 6e95 6f3d c21f 0e3a
00000040: 6ca8 44bd 2489 8a3d e00e 85bd b88c 67bd
00000050: 7ed9 c0bc b032 32bd b7a9 8a3c 3484 973b
00000060: 9101 ccbc 6448 963c 8e99 a63c e327 7e3d
00000070: d0cd 593c 1fe5 ecbc 3666 313d cc3a cdbc
00000080: 958e 36bd c2b7 4fbd 20ef 183c 7b8e 633d
00000090: 627d 893d ee04 b9bc 2b5e 38bd c006 8f3c
000000a0: ef39 9dba 5914 85bd 4e6b 2e3d ea79 ba3c
000000b0: e463 84bd 7fb5 173d 1509 5c3c a76d 3d3d
000000c0: 8180 093d 3f75 f1bc fa76 85bc a2f9 6fbd
000000d0: e66d 083d efd8 8ebd c2b3 5fbd bd8a 11bd
000000e0: eff9 86bd a3c8 1cbd a831 583d 417e aebc
000000f0: bd09 323c 19ac 453c 074a 893d 1885 63bb
00000100: 44d5 613c 6eb8 863a 4f14 1dbd c6e8 60bd
00000110: be95 203d 89f2 1abd c48a 263d 0c95 833c
00000120: b066 a53b 7328 cb3c 8a59 63bc 3b01 8bbd
00000130: e832 4abb 6e78 2d3b ab57 9d3c cb90 dcbc
00000140: 42d8 18bd 25c5 f33c 629a 1d3c 5251 8fbd
00000150: 9684 b53c a560 6ebd 0fed 40bd 70bc 333d
00000160: 4c67 a63b fc82 413d 9b2d 04bc 7b69 8fbb
00000170: 8802 35bd a199 2a3d 9b17 c73c 6686 553c
00000180: 9ad3 24bd 5cab a23b 15d9 f93c 502f ba3c
00000190: b2ac 49bd d956 28bd 943b 1f3d 0d2e 4e3d
000001a0: d6d2 29bc 2e7a 2b3b fbe9 8e3d a30d 8abd
000001b0: 80e0 08bc a169 f13b 7882 4dbd 4cc8 fabc
000001c0: e6e1 753d 754f 673d a211 633d d67b e8bb
000001d0: 4e2e f139 ce52 e13b 9197 25bd 974e f2bb
000001e0: a8ed 89bd 830b 293d 4e20 893d 335d 3fbd
000001f0: 5223 cb3c ef74 10bd a98f 813c 0250 f0bc
00000200: 586f 17bd 2a68 253d a681 2fbd 4680 8f3d
00000210: 82fe 2cbd cf4a 053d ac48 02bd fc57 37bd
00000220: 726f 69bd 66c8 273d 4cb1 4fbd 6984 73bd
00000230: 23a0 5d3d 226e 8f3d 240b 873d 6421 b2bb
00000240: c4fa 03bd bd07 083c 8559 19bd afaf 893d
00000250: 7486 273b a2f6 bdbc 6912 8cbc 4c50 063d
00000260: 14eb 65bc 612a 453d 313b 7bbd 56d8 303d
00000270: bb0d 68bd 2d0b a83c 65cd fdbc e7ce 9639
00000280: 1450 7b3c de14 663b 5b2b a03b 4f0a 57bd
00000290: db0b e0bc 5c37 153d 3b2a 703c b5e0 06bd
000002a0: c706 65bd 40a9 543d 5723 013d 8591 b0bb
000002b0: f88e 903d 4c06 82bd d7b8 2c3d 30c2 04bd
000002c0: 8da7 ac3a b88f 4dbd 8105 733d 02fe a53c
000002d0: a9b6 323c 8d79 7bbd 84eb b43c 72ad 003d
000002e0: 8842 8d3d 0466 813d ec0d 4dbd 3665 90bd
000002f0: a24a 8c3d 2f05 803d de52 9ebc 7000 7d3d
00000300: f9d0 473d 7f4f 02bc a609 3dbc 5ac3 3fbd
00000310: 665b a8bc 4e22 56bd 0cf5 463b b75e 8d3b
00000320: da35 1ebd ad18 683d 5fdb 443d 09ab 33bb
00000330: 0cbb 4ebd 491e 53bd d1bc 63bd 783f 90bc
00000340: dd7f c4bc 6ea9 11bd 3fd1 bdbc 0c19 b2bb
00000350: fbed 8fbd 9e84 a1bc 87e8 27bc 38b3 123d
00000360: e9c6 55bd 2e33 5f3d 7800 0ebc 6934 113d
00000370: d792 0a3d bf14 56bd 63b9 6c3c 912c c03c
00000380: c315 21bd 115e fe3c 4ccf 8d3d 2bad 67bd
00000390: be36 76bd 0c74 6b3c b60c 023c c139 40bd
000003a0: 2d44 783d 4927 febc 1503 123c 4631 873d
000003b0: 2c7d 673d b07e 86bd 2899 303c c330 50bd
000003c0: c488 8fbd 014d 833d 2f8f 87bd a2e1 ca3c
000003d0: da49 273d ebef b0bb 1021 13bd f0b4 07bc
000003e0: f54b 7dbd 4f75 013d ee8a 4ebd fac3 85bd
000003f0: f57b 8b3d 0a2a 22bd 0977 823d 823d 993c
-0.0017764645 0.060093578 0.018628098 -0.004009641 0.013264583 -0.04223835 0.038383745 -0.0029349127
0.049833905 0.055909567 0.06098645 0.009818185 -0.015374378 0.019819522 0.058492117 0.00054216024
-0.048012182 0.06764439 -0.06496978 -0.056530684 -0.023541208 -0.04350537 0.01692663 0.004623914
-0.02490309 0.018345065 0.020336892 0.062049758 0.013293698 -0.028917847 0.043310367 -0.02505245
-0.04456957 -0.050712354 0.009334356 0.0555558 0.06713368 -0.022585358 -0.04501168 0.017459273
-0.0011995415 -0.06498022 0.042582802 0.022763211 -0.06464365 0.037038323 0.0134299 0.04624715
0.033569816 -0.029474853 -0.016292084 -0.058587678 0.033307932 -0.069749705 -0.05461479 -0.0355327
-0.0659064 -0.03827728 0.05278173 -0.021300437 0.01086658 0.012064957 0.06703573 -0.0034716781
0.013783757 0.0010278353 -0.038349446 -0.05490949 0.039205305 -0.037828956 0.04065968 0.016062282
0.0050476417 0.024799561 -0.013876328 -0.06787344 -0.0030853096 0.0026469487 0.019206842 -0.026924511
-0.037315615 0.029757092 0.009619327 -0.069979325 0.022157948 -0.058197636 -0.047101077 0.04388088
0.005078232 0.047244057 -0.008067514 -0.004376588 -0.044191867 0.04165042 0.024303248 0.013032531
-0.04024086 0.0049642753 0.03049902 0.022727638 -0.04923696 -0.04109845 0.038875178 0.050336886
-0.010365209 0.0026165354 0.06978222 -0.06740882 -0.008354306 0.0073673283 -0.050173253 -0.030613087
0.060029887 0.05647226 0.055436738 -0.0070948405 0.00046001602 0.006876326 -0.040427748 -0.0073946225
-0.067347825 0.041270744 0.06695615 -0.04671974 0.024797115 -0.035267767 0.015815573 -0.029335026
-0.03697142 0.04038254 -0.04284825 0.07006888 -0.042234905 0.032542046 -0.031807587 -0.044761643
-0.05699105 0.0409626 -0.050706193 -0.059452448 0.054107796 0.07003428 0.06593922 -0.0054361094
-0.03222157 0.008302626 -0.037438888 0.06722962 0.0025562318 -0.023188893 -0.017098622 0.03279142
-0.014033098 0.04813612 -0.061335746 0.043175064 -0.05665372 0.020513142 -0.030981729 0.00028764384
0.015338916 0.0035107653 0.004887981 -0.052500065 -0.027349403 0.036429748 0.014658506 -0.03292914
-0.055914667 0.051919222 0.031527843 -0.005388441 0.07058519 -0.06348857 0.042168465 -0.032411754
0.0013172493 -0.05018589 0.05933142 0.020262722 0.010907807 -0.061395217 0.022084959 0.03141541
0.068974555 0.06318286 -0.050062105 -0.070505545 0.068501726 0.06250989 -0.019326624 0.061767995
0.048783276 -0.007953524 -0.011537945 -0.04681716 -0.020551395 -0.05227881 0.0030358462 0.0043142694
-0.038625576 0.056664158 0.04806077 -0.0027415177 -0.05047135 -0.051542554 -0.05559999 -0.01760839
-0.023986751 -0.03556197 -0.023171065 -0.0054351147 -0.07027813 -0.019716557 -0.01024831 0.035815448
-0.05219165 0.054492168 -0.008667104 0.035450373 0.033831444 -0.05226588 0.0144484965 0.02345875
-0.039327394 0.031050714 0.06924304 -0.05656163 -0.0601108 0.014370929 0.007937601 -0.04693008
0.060611892 -0.031024592 0.008911868 0.06601195 0.056515858 -0.065671325 0.010778703 -0.050827753
-0.07008508 0.06411172 -0.06619107 0.024765793 0.040841915 -0.005399694 -0.035920203 -0.008282885
-0.061840016 0.031606015 -0.050425462 -0.0653152 0.06810752 -0.039590873 0.063703604 0.018706087

bias f4 [16]
00000000: 1fc0 7bbd 543d bcba 4ddb fabc 20c7 3fbd
00000010: fefd 03bd 9a91 7b3d 350c a2bc 7687 873d
00000020: bf00 12bc e5d9 773d dd96 4cbd 88de 463d
00000030: 44c5 98bc 456d 54bd a7ae 3ebd 2c9b e5bb
-0.061462518 -0.0014361539 -0.030622149 -0.04682076 -0.032224648 0.061418153 -0.019781211 0.06617634
-0.008911311 0.060510535 -0.049948562 0.048552066 -0.018648751 -0.05186202 -0.04655328 -0.0070070233

weight f4 [16, 4]
00000000: 7025 f33e 98cb c33e 6624 c73e a43f 29be
00000010: 50da c7be 5e11 c4be 54db a7be e0e4 5cbe
00000020: e2f9 83be f070 71be 6a1e 883e 704c 21be
00000030: 8ca5 2abe c4d6 853e 0000 7cbb f080 b8be
00000040: 3864 3d3e f40d e1be 563b b03e d02d 2d3d
00000050: e881 ca3d 0682 d5be 3058 71bd 7828 fb3d
00000060: 005b 31be 58c0 e03d bc00 64be 5c38 d9be
00000070: 288a 863d 1af5 d23e e2f6 c33e 9aca f63e
00000080: 0053 5d3e f0ae debe 6cc7 6f3e 58f5 b4be
00000090: ce79 c5be 44ac c2be 0476 20be 3e67 adbe
000000a0: fa27 b4be 2c53 adbe 84b5 553e fc63 ffbe
000000b0: a0ac 92be d843 e33d b809 963d 3853 e43e
000000c0: 781c 3dbe a0b8 633e 38b2 d1be cc85 f53e
000000d0: b8a3 5c3e d87e ec3d d8bc aa3e da28 bbbe
000000e0: bcf8 ffbe a068 163e 8e62 cfbe d4ec c73e
000000f0: 90c9 e0bd c03d f0bc 8616 b63e 48b0 9b3e
0.474895 0.38241267 0.38894957 -0.16528183 -0.39033747 -0.382945 -0.32784522 -0.21571684
-0.25776583 -0.23578238 0.26585704 -0.15751815 -0.16664714 0.26140416 -0.0038452148 -0.36035872
0.18495262 -0.43955958 0.3442027 0.04228002 0.09888059 -0.41700763 -0.058921993 0.12263578
-0.1731987 0.10974187 -0.22265905 -0.4242581 0.0656932 0.41202623 0.38274294 0.48201448
0.21613693 -0.43492842 0.23415917 -0.35343432 -0.38569492 -0.38022053 -0.1567002 -0.3386783
-0.3518675 -0.33852518 0.20870024 -0.4988097 -0.28647327 0.110969245 0.073260725 0.4459474
-0.18467891 0.22238398 -0.40956283 0.4795364 0.21546829 0.11547631 0.333472 -0.36554605
-0.49994457 0.14688349 -0.4050488 0.39047873 -0.10975945 -0.02932632 0.3556406 0.3040793

bias f4 [16]
00000000: 8086 0d3c 263e c83e d807 563e be40 eb3e
00000010: b0d4 7f3d b6c4 af3e 3c08 a4be fe85 803e
00000020: 8447 6cbe 7899 f63e f4b3 123e e4bf 383e
00000030: 7855 aabe 5878 52be d892 9bbe 4097 8d3c
0.008638024 0.39109915 0.2090143 0.45947832 0.062458694 0.34329766 -0.32037532 0.25102228
-0.23074156 0.48163962 0.14326459 0.1804195 -0.33268332 -0.2055372 -0.3038547 0.017284036

weight f4 [1, 32]
00000000: 568d c9bd 92aa 0a3d 886d 2e3e 5bd5 813d
00000010: 5a75 363b 0bf8 c3bd 8777 b2bd 8d2d 023e
00000020: 399b 25be 29fe 273e 7e1c e63c d99f 0b3e
00000030: c9bf ae3d 7597 dabc 4b60 8e3d 9244 273e
00000040: 820c 2b3e 1316 d7bd f91c c1bd 61c4 163e
00000050: 3007 2abe 06fb 743d 8f8c eebd f929 05bb
00000060: 90ca 18be 2898 d7bd f324 ef3b 1d18 f1bd
00000070: 1f5d 0fbe ec1a 2c3e 459d a13d 006e 27be
-0.09841411 0.033854075 0.1703397 0.063395225 0.0027840943 -0.09568795 -0.08714204 0.12712689
-0.16172494 0.16405548 0.028089758 0.13635196 0.08532674 -0.026683548 0.0695196 0.16334751
0.1670399 -0.10502257 -0.09429354 0.1472335 -0.16604304 0.059809707 -0.11647903 -0.0020319207
-0.14921021 -0.105270684 0.007298106 -0.11772177 -0.14000367 0.16807145 0.07891325 -0.16350555
