examples/mini/dyhpo.pt (torch, 109278 bytes, 37 tensors)

feature_extractor.encoder.0.mlp.0.weight f4 [32, 24]
0.032634698 -0.18666098 0.09162045 0.14041768 0.030117761 0.13901275 0.051180106 0.050572548
0.18361206 -0.066331185 -0.15251273 0.14090894 -0.14312923 -0.19508202 0.1911465 -0.079131216
0.16070828 0.14107884 -0.027004534 -0.2033374 0.042056676 0.17030403 0.02302669 -0.10940322
0.031344827 0.18927096 -0.09449558 -0.06872049 -0.11954246 0.085398644 -0.054768175 -0.15617055
-0.004070921 0.12119706 0.06226119 0.19881766 -0.055263266 -0.16369686 0.060305286 0.1286936
-0.021132205 0.09820481 0.0652279 0.17386253 -0.07909634 0.12603612 0.05282247 0.09738109
0.16654745 -0.0004232568 0.17802003 0.091706425 0.19145961 0.119839765 0.06622426 0.045457475
0.08343761 0.027645016 -0.16296232 -0.006863992 -0.12074855 0.14274181 0.12246245 -0.09713737
-0.008848437 0.04455161 -0.080890864 -0.11275782 -0.08630638 0.08399589 0.18328834 -0.051482353
-0.08145555 0.1009478 0.13972503 -0.17273197 -0.11954231 0.032911345 0.014570142 0.101143606
0.20282996 0.029263558 -0.019147078 -0.11223297 -0.04473073 0.17641616 0.16057296 0.16962719
-0.11644733 0.1783032 0.10792258 0.097003676 -0.10475689 0.10469618 -0.038438186 -0.151664
0.011106878 -0.003812134 0.15991265 0.13132171 -0.03391303 0.04894342 0.049204614 0.077304155
-0.0719341 0.040270183 0.13967818 -0.19197354 -0.15000293 -0.1648924 -0.17647809 -0.10090322
0.101393 0.11934567 0.012026757 0.032601483 0.14566267 0.17021501 -0.10691408 -0.15264127
-0.0476579 -0.18534574 0.0054893484 -0.19781004 -0.16860953 0.016720546 0.18423262 0.016050886
-0.011961237 -0.18259713 0.14302294 0.05627299 0.17015588 0.18231432 0.04671056 -0.09084437
0.042348538 -0.14157115 -0.1382122 0.0883727 0.016663386 -0.12004053 -0.1740588 0.09857797
-0.10107811 0.09473236 -0.0715112 0.007739178 -0.12740847 -0.09743222 -0.041853167 -0.1987474
0.12417831 -0.061141547 0.16341631 -0.011362719 0.115329556 0.16118819 0.19033742 -0.15477164
-0.09999668 -0.08680384 -0.13567023 -0.029608991 -0.09584256 -0.13092053 -0.012064505 -0.13780951
0.049851157 0.16555795 -0.09118873 -0.08488102 0.09321683 0.16480057 0.06342255 -0.1505869
0.13692273 0.20258617 0.040487286 0.10293013 0.16865595 0.083398744 -0.09382772 -0.17117678
0.1905073 -0.09341371 -0.15024804 0.013008735 -0.021996653 -0.11812858 -0.069360144 0.1643468
0.19619289 -0.17254148 0.087013565 0.06581179 -0.03560728 -0.17395698 -0.046424806 0.10313876
-0.06602125 -0.01528725 0.10405988 0.013899803 0.10898481 0.10441542 -0.17260422 0.029352887
0.095503055 0.14663982 -0.18629858 0.07080731 0.13647611 -0.1715343 0.19925597 -0.18442366
0.14666067 0.14844958 -0.14986438 0.04386521 0.058571648 0.010219411 -0.13183945 -0.13462068
-0.18057013 0.041812513 -0.07626541 -0.095904 0.13090192 -0.046940506 -0.17749415 0.06262317
-0.18660092 0.13709162 0.05480638 0.039311636 0.14282438 0.062322073 -0.1664543 0.19507408
0.1002149 -0.102601066 0.039228175 0.1016476 -0.029945431 -0.06710273 0.1564732 -0.004699163
0.037939448 0.09057633 -0.12176298 0.19290765 0.021732999 0.1375109 0.13755864 0.18613715
00000000: f6ab 053d 0e24 3fbe 81a3 bb3d a7c9 0f3e
00000010: 86b9 f63c 5c59 0e3e 3ba2 513d 2925 4f3d
00000020: cd04 3c3e a5d8 87bd 4c2c 1cbe 6f4a 103e
00000030: 7890 12be 95c3 47be e8bb 433e 8c0f a2bd
00000040: b690 243e f976 103e 9d38 ddbc ae37 50be
00000050: 9f43 2c3d 2e64 2e3e 78a2 bc3c cc0e e0bd
00000060: 6f63 003d 3fd0 413e e686 c1bd 54bd 8cbd
00000070: add2 f4bd 7ce5 ae3d 9854 60bd 2ceb 1fbe
00000080: 5c65 85bb 2a36 f83d 9705 7f3d db96 4b3e
00000090: bc5b 62bd 26a0 27be ad02 773d 41c8 033e
000000a0: 721d adbc 9a1f c93d 3596 853d 0509 323e
000000b0: 43fd a1bd 9d0f 013e 605c 583d bd6f c73d
000000c0: 6a8b 2a3e 91e8 ddb9 e24a 363e 94d0 bb3d
000000d0: fd0d 443e 8d6e f53d 96a0 873d 9e31 3a3d
000000e0: 56e1 aa3d cd77 e23c 98df 26be 57eb e0bb
000000f0: 044b f7bd e92a 123e 98cd fa3d f5ef c6bd
00000100: 09f9 10bc c07b 363d 1caa a5bd 92ed e6bd
00000110: 66c1 b0bd 0a06 ac3d f0af 3b3e 29df 52bd
00000120: 2bd2 a6bd b8bd ce3d 1414 0f3e a6e0 30be
00000130: 99d2 f4bd 0cce 063d 9bb7 6e3c 6124 cf3d
00000140: a8b2 4f3e 21ba ef3c 55da 9cbc 66da e5bd
00000150: 9237 37bd 70a6 343e 3d6d 243e c0b2 2d3e
00000160: f07b eebd 1d95 363e 8306 dd3d dda9 c63d
00000170: c88a d6bd f36a d63d 5c71 1dbd cf4d 1bbe
00000180: 9ff9 353c ffd4 79bb 24c0 233e 3379 063e
00000190: 64e8 0abd e578 483d c78a 493d a451 9e3d
000001a0: 2f52 93bd 59f2 243d cc07 0f3e b694 44be
000001b0: 5e9a 19be 8ed9 28be acb6 34be 59a6 cebd
000001c0: 22a7 cf3d 816b f43d e00b 453c 2289 053d
000001d0: 9828 153e d84c 2e3e c5f5 dabd fe4d 1cbe
000001e0: ee34 43bd 46cb 3dbe fedf b33b b78e 4abe
000001f0: faa7 2cbe 87f9 883c 7aa7 3c3e 267d 833c
00000200: 10f9 43bc befa 3abe 9b74 123e 827e 663d
00000210: 583d 2e3e 9bb0 3a3e 9253 3f3d 9d0c babd
00000220: a975 2d3d 07f8 10be 8087 0dbe bffc b43d
00000230: a781 883c cfd7 f5bd 783c 32be 3fe3 c93d
00000240: 0a02 cfbd 0a03 c23d 7774 92bd ee98 fd3b
00000250: 5e77 02be 8b8a c7bd 3a6e 2bbd 7084 4bbe
00000260: 3351 fe3d 8f6f 7abd 9b56 273e b32a 3abc
00000270: e731 ec3d 840e 253e d0e7 423e 757c 1ebe
00000280: 0fcb ccbd 36c6 b1bd 23ed 0abe 8e8e f2bc
00000290: 1b49 c4bd 0810 06be 34aa 45bc f01d 0dbe
000002a0: ba30 4c3d 0688 293e 28c1 babd 1ad6 adbd
000002b0: 77e8 be3d 7bc1 283e afe3 813d 7433 1abe
000002c0: 7935 0c3e c072 4f3e ffd5 253d 08cd d23d
000002d0: 25b4 2c3e f6cc aa3d bf28 c0bd f748 2fbe
000002e0: 5814 433e b04f bfbd 9fda 19be 9722 553c
000002f0: 5332 b4bc 66ed f1bd b10c 8ebd 874a 283e
00000300: cae6 483e b7ae 30be 2b34 b23d 55c8 863d
00000310: f0d8 11bd c721 32be f027 3ebd 6a3a d33d
00000320: 2636 87bd 6077 7abc 591d d53d 00bc 633c
00000330: 6e33 df3d c0d7 d53d 29bf 30be 7775 f03c
00000340: 1b97 c33d c028 163e 0ec5 3ebe 6c03 913d
00000350: 65c0 0b3e b0a6 2fbe c209 4c3e 8ed9 3cbe
00000360: 372e 163e 2b03 183e 0c76 19be 02ac 333d
00000370: d3e8 6f3d 516f 273c ec00 07be 01da 09be
00000380: 60e7 38be 9943 2b3d 0a31 9cbd 5169 c4bd
00000390: 270b 063e b044 40bd 07c1 35be 9440 803d
000003a0: 5014 3fbe bf61 0c3e a87c 603d 3d05 213d
000003b0: 8e40 123e 6e45 7f3d ff72 2abe 80c1 473e
000003c0: 783d cd3d 8220 d2bd b9ad 203d 9e2c d03d
000003d0: 1f50 f5bc 286d 89bd 833a 203e 70fb 99bb
000003e0: 6566 1b3d 1580 b93d df5e f9bd 9589 453e
000003f0: 6709 b23c a8cf 0c3e 2cdc 0c3e bd9a 3e3e

feature_extractor.encoder.0.mlp.0.bias f4 [32]
-0.0771311 -0.08196889 0.113281764 -0.1574913 -0.05689069 0.028361896 -0.08634147 0.08650302
0.10427312 -0.081735894 0.065508276 0.038278513 -0.09109218 0.06915464 0.085196026 0.06396585
-0.20015848 -0.07856201 -0.06756041 0.1229472 0.07410771 -0.03036835 0.17011769 0.085211374
0.049469963 -0.20911978 0.053998515 0.15757029 0.034900825 0.18643817 0.111465454 -0.19032103
00000000: e9f6 9dbd 4edf a7bd 4500 e83d 6645 21be
00000010: 3606 69bd 3557 e83c ccd3 b0bd 7f28 b13d
00000020: 258d d53d 2665 a7bd 3429 863d eec9 1c3d
00000030: 898e babd f3a0 8d3d 417b ae3d 8700 833d
00000040: 58f6 4cbe 1ee5 a0bd 1d5d 8abd becb fb3d
00000050: c8c5 973d 0cc7 f8bc 5533 2e3e 4d83 ae3d
00000060: 04a1 4a3d 7f23 56be 8c2d 5d3d 1b5a 213e
00000070: 2bf4 0e3d a6e9 3e3e 0048 e43d 84e3 42be

feature_extractor.encoder.0.mlp.2.weight f4 [32, 32]
0.010228661 -0.0040143817 0.099423654 -0.085604906 0.17011458 -0.103806436 0.17006373 0.14419138
0.04666166 0.11674095 0.17283447 0.10664805 -0.16433813 0.10560149 0.10037655 0.16445369
-0.04274567 0.058197714 0.15681882 0.0030106758 -0.021033153 -0.036222264 -0.116923474 0.06938934
0.085052125 -0.13352823 -0.14785586 -0.07216756 0.1598517 -0.03817672 0.17131789 0.10205589
-0.11720684 -0.061734196 0.13865219 0.11017089 0.0144885685 -0.048212938 -0.055361338 -0.0788201
0.02207456 0.162155 -0.14066418 0.14209789 0.1522212 -0.0058532697 -0.11747149 -0.07364759
-0.0978846 0.106896885 0.022296125 -0.027874893 0.09384417 0.07303334 0.05158127 -0.06537338
-0.14348544 0.11792047 -0.06924948 -0.15180027 0.16573878 0.036637392 0.1574497 0.032957446
-0.17272468 0.12733766 -0.1549543 -0.10390886 0.0780258 0.015167871 -0.13116103 -0.16018397
-0.024376262 0.13755526 -0.16292576 0.09803304 0.16447803 0.0233801 -0.111687124 0.15181452
0.14735155 -0.17031021 0.10999031 -0.0981166 -0.012497552 0.065372355 -0.07716727 -0.0066435654
-0.043262623 0.054585416 -0.12777877 -0.13765392 -0.057523344 0.106735714 -0.11886136 -0.09747628
-0.12594488 0.017982796 0.037506122 -0.056032676 -0.02530912 -0.13498634 0.040128857 -0.09484122
0.08973652 0.056924142 -0.0052149347 -0.039180744 -0.144779 -0.1105199 0.15110753 -0.036911555
-0.09112269 -0.12721965 0.15137163 -0.13277003 -0.02520586 -0.0986457 -0.08529514 0.09534095
0.09326242 0.011505837 -0.009526382 -0.13823567 0.0020967002 0.018585717 -0.0072812145 -0.12053208
0.033600625 -0.16144748 0.13650446 0.13594271 -0.05303913 0.076022275 -0.07374512 0.08035309
0.07394249 0.111050814 -0.12387635 0.016650977 -0.1515794 0.025639761 0.09208037 -0.02991558
-0.09924809 0.03753697 0.095692076 0.04033268 0.1324161 -0.09250575 -0.09977563 -0.00613852
-0.015861945 -0.023670513 -0.033317737 -0.1203215 -0.124121964 -0.0011118128 -0.014823342 0.13134614
-0.006328813 0.012199426 -0.15284576 0.08811525 -0.11339696 0.10378697 0.03670253 -0.14503537
-0.16688105 -0.120293066 0.02915464 0.091539435 -0.1178346 -0.070714004 0.0755893 0.023172906
0.04518705 -0.059574928 0.089880854 -0.12289591 0.063962474 0.047447573 0.09485488 0.029850358
-0.14690056 -0.12481561 -0.17482877 -0.019667994 0.16225272 0.14337076 -0.059418246 0.067179844
0.100903034 -0.07308517 -0.024654642 -0.1679664 -0.07924701 -0.0013952086 -0.122893475 -0.073232315
0.11085963 0.08235894 0.11849896 -0.090900145 -0.04030081 -0.001893407 -0.15145008 -0.13619652
0.1739294 -0.0995133 -0.16600186 -0.07782824 -0.09475642 0.13317457 0.13985494 0.05578256
-0.10693822 0.10494992 -0.035491996 0.08832576 0.12305712 0.1597955 0.11795943 0.08593443
-0.0078010024 0.07875031 0.123461165 0.12422337 -0.031680353 0.11242686 -0.022896359 0.1035398
0.08911867 0.050250698 -0.1557551 -0.04425162 -0.0099845035 0.08619659 0.11567451 0.04400447
0.012574386 -0.0130278645 0.06002242 0.043055702 -0.04960313 -0.0160707 -0.116228215 -0.14044598
-0.07541312 0.06349688 -0.01686544 0.023123467 0.012271729 -0.0038205907 0.047756087 0.07201345
00000000: 1d96 273c 138b 83bb a19e cb3d a051 afbd
00000010: 8432 2e3e 7898 d4bd 3025 2e3e e8a6 133e
00000020: 4c20 3f3d e115 ef3d 85fb 303e 4b6a da3d
00000030: 4148 28be 9845 d83d 3892 cd3d 8c66 283e
00000040: 1516 2fbd ba60 6e3d 1d95 203e c24e 453b
00000050: b84d acbc cc5d 14bd 9375 efbd 001c 8e3d
00000060: cf2f ae3d a0bb 08be 8767 17be 96cc 93bd
00000070: 2ab0 233e 315f 1cbd f56d 2f3e ae02 d13d
00000080: 240a f0bd ffdc 7cbd d7fa 0d3e 47a1 e13d
00000090: 7661 6d3c ee7a 45bd 92c2 62bd 6f6c a1bd
000000a0: b5d5 b43c f60b 263e 450a 10be 1c82 113e
000000b0: e0df 1b3e c9cc bfbb e494 f0bd 8cd4 96bd
000000c0: b977 c8bd c1ec da3d 5da6 b63c e359 e4bc
000000d0: 5f31 c03d 8192 953d e246 533d 7be2 85bd
000000e0: d9ed 12be 4a80 f13d acd2 8dbd 8871 1bbe
000000f0: 6db7 293e 1711 163d 7f3a 213e 63fe 063d
00000100: bdde 30be ce64 023e 57ac 1ebe 2bce d4bd
00000110: fecb 9f3d a982 783c 144f 06be 4407 24be
00000120: bab0 c7bc 49db 0c3e 03d6 26be 8cc5 c83d
00000130: ee6c 283e a087 bf3c 38bc e4bd 4475 1b3e
00000140: 53e3 163e cd65 2ebe 9a42 e13d 5bf1 c8bd
00000150: 88c2 4cbc f1e1 853d e009 9ebd 44b2 d9bb
00000160: 2634 31bd f594 5f3d 70d8 02be 26f5 0cbe
00000170: 999d 6bbd 4198 da3d 966d f3bd a5a1 c7bd
00000180: b2f7 00be a850 933c 05a0 193d 8582 65bd
00000190: 1255 cfbc dc39 0abe 285e 243d 1d3c c2bd
000001a0: c8c7 b73d 4a29 693d 0be2 aabb fd7b 20bd
000001b0: f240 14be 4258 e2bd efbb 1a3e 9230 17bd
000001c0: 889e babd de45 02be 2a01 1b3e def4 07be
000001d0: 857c cebc c206 cabd 38af aebd 1e42 c33d
000001e0: 5e00 bf3d fa82 3c3c 8b14 1cbc a78d 0dbe
000001f0: cb68 093b 1341 983c 4197 eebb 86d9 f6bd
00000200: cfa0 093d 7d52 25be d3c7 0b3e 9134 0b3e
00000210: 8f3f 59bd 91b1 9b3d ae07 97bd 2990 a43d
00000220: 296f 973d 9c6e e33d e2b2 fdbd a167 883c
00000230: a137 1bbe 7a0a d23c a294 bc3d 8511 f5bc
00000240: 9542 cbbd 5ec0 193d 35fa c33d e133 253d
00000250: 1698 073e a873 bdbd 2a57 ccbd a325 c9bb
00000260: e9f0 81bc aae8 c1bc 2e78 08bd 1e6b f6bd
00000270: a833 febd 3fba 91ba 9add 72bc 9a7f 063e
00000280: ee61 cfbb 1ae0 473c 9983 1cbe c575 b43d
00000290: aa3c e8bd 438e d43d 6455 163d 2784 14be
000002a0: dee2 2abe 365c f6bd b6d5 ee3c 0779 bb3d
000002b0: 4453 f1bd 81d2 90bd 90ce 9a3d 1bd5 bd3c
000002c0: 0e16 393d d704 74bd 7413 b83d dab0 fbbd
000002d0: c2fe 823d 6358 423d 4643 c23d bd88 f43c
000002e0: 1a6d 16be 549f ffbd 5006 33be c61e a1bc
000002f0: 9425 263e c9cf 123e 8c60 73bd 9695 893d
00000300: 40a6 ce3d adad 95bd 88f8 c9bc 62ff 2bbe
00000310: 424c a2bd 6fdf b6ba 93af fbbd d3fa 95bd
00000320: 600a e33d ceab a83d 95af f23d db29 babd
00000330: 7612 25bd 322c f8ba bb15 1bbe 1a77 0bbe
00000340: 8c1a 323e a1cd cbbd 64fc 29be 6a64 9fbd
00000350: a70f c2bd ea5e 083e 2236 0f3e 417c 643d
00000360: 6d02 dbbd fcef d63d 0e60 11bd 23e4 b43d
00000370: 5f05 fc3d 6ea1 233e b794 f13d 64fe af3d
00000380: 8d9f ffbb d847 a13d 35d9 fc3d d268 fe3d
00000390: 42c3 01bd 0e40 e63d 2591 bbbc ad0c d43d
000003a0: d983 b63d add3 4d3d 447e 1fbe 3041 35bd
000003b0: 0b96 23bc d687 b03d c2e6 ec3d 083e 343d
000003c0: cc04 4e3c d372 55bc 12da 753d 2d5b 303d
000003d0: a72c 4bbd b3a6 83bc 0f09 eebd 12d1 0fbe
000003e0: 3272 9abd a70a 823d 6429 8abc 6d6d bd3c
000003f0: 5d0f 493c e062 7abb e39b 433d ca7b 933d

feature_extractor.encoder.0.mlp.2.bias f4 [32]
0.1547091 -0.1535467 -0.13066277 0.119506516 0.07103325 -0.14745334 0.088613465 -0.14580965
0.050042454 0.000817368 0.06615418 0.017310617 -0.065074965 0.18470901 0.09383717 0.14268154
-0.14293589 0.15641315 -0.1606161 0.11774169 0.14894606 -0.14622928 0.048168305 0.16443866
-0.08368516 0.1700872 -0.10593037 0.15754071 0.09853783 0.026345763 -0.14973597 0.010312785
00000000: 106c 1e3e 593b 1dbe 76cc 05be d5bf f43d
00000010: e179 913d 02fe 16be fa7a b53d 204f 15be
00000020: 51f9 4c3d a344 563a d87b 873d ffce 8d3c
00000030: 0646 85bd 5c24 3d3e b42d c03d 1c1b 123e
00000040: c95d 12be c52a 203e 8c78 24be 8e22 f13d
00000050: 5185 183e 21bd 15be 214c 453d 9c62 283e
00000060: 2063 abbd 572b 2e3e 06f2 d8bd 5a52 213e
00000070: 34ce c93d 12d3 d73c 6354 19be f5f6 283c

feature_extractor.encoder.0.mlp.4.weight f4 [32, 32]
-0.042040225 0.0656752 0.048439644 -0.11121604 -0.09433923 0.15882172 0.06305987 -0.094615206
0.094963044 0.10691009 -0.02465046 -0.10582122 0.09900579 -0.14759284 0.15324134 -0.11836547
0.07428546 -0.13021295 -0.1578208 0.18263125 0.15675904 0.08681954 0.17576572 0.1761473
0.07249964 0.036847726 0.015688743 -0.13269953 -0.023113841 0.08722166 -0.116787605 -0.09759783
-0.043957174 0.14708026 -0.15544266 0.060991947 0.13313688 0.032844048 -0.06774376 -0.053098854
0.06258636 -0.05759207 -0.0103271 0.027744625 -0.027615141 -0.1861563 -0.10986028 -0.02507874
-0.16829254 -0.14207894 -0.17324951 0.14896956 0.11924161 -0.12558036 0.15364645 -0.16783835
0.098618716 -0.06362037 0.107948385 0.10780093 -0.106184736 -0.06603931 -0.044095192 -0.021052876
-0.12777008 0.04113741 0.11632317 0.13895547 -0.04618102 -0.00027770558 -0.13973515 0.015222304
0.0036704447 -0.1470809 0.16559932 -0.034743097 -0.09920059 0.036582682 0.028439308 0.13732906
-0.018068733 -0.1577654 -0.024156045 -0.08691767 0.15338585 0.09591754 0.1331282 -0.025092674
0.07914522 -0.16265093 -0.17632048 -0.128019 -0.115877 -0.17674883 0.117514744 0.0614591
-0.11481773 -0.03189033 0.10186109 0.03846808 0.031266827 0.10029169 0.17318186 0.10505941
-0.00024107117 -0.16362342 -0.096996956 -0.1566592 -0.12733227 -0.0030427882 -0.06141641 0.15729709
0.058523636 0.15138814 -0.14118342 -0.01058229 -0.080955334 0.17626911 -0.006781365 -0.050940894
0.06559792 0.014192087 -0.15468986 -0.09055339 -0.14815603 0.17429014 0.14806604 -0.15190832
0.0063967896 -0.16137396 -0.10584918 0.05571954 0.11862302 0.018884696 0.01945797 -0.16567837
-0.0036366046 0.13545185 0.14648907 0.07093113 -0.17463666 0.11234119 -0.16631386 -0.15043303
-0.12724875 0.03184064 0.08489977 0.13921797 -0.055778515 -0.012299054 -0.02875749 0.02937473
0.02449678 0.1472664 -0.04489318 -0.026779559 0.025176946 -0.02547638 -0.104642846 0.07391425
0.17460716 0.050301883 0.17304236 -0.076815866 -0.12963554 0.16695547 0.011069512 -0.13565947
-0.14192618 0.068011485 0.12840465 0.028158056 0.042178035 0.093839444 0.15117322 0.12838125
0.13735756 0.14462428 -0.09412367 0.07280354 -0.15024747 0.058617614 -0.05925847 0.10264938
0.057102405 0.010334617 -0.122387975 -0.022949886 -0.116834 0.112000614 0.16664794 0.00077796757
0.15011476 0.05316728 0.17325182 0.16425 -0.040652573 -0.0809261 0.14060941 0.088872865
0.13383695 0.016961556 0.03616866 -0.08581672 -0.053927924 0.04451066 0.0026185648 0.15874279
-0.10867607 -0.04440966 -0.12392693 0.12472352 0.180856 -0.05461704 -0.0013505114 0.106138445
0.15922299 -0.13936637 0.109230466 -0.084147654 -0.11333884 -0.08859396 -0.1524572 -0.09773966
-0.118836105 0.09133888 0.022650475 0.08582959 0.12956612 0.10526272 -0.06512727 0.012080783
-0.04464933 0.08952286 0.10852748 0.15939432 -0.13194092 0.03808271 0.0075016646 0.117702805
0.021295812 -0.066817194 0.07216895 -0.054631192 0.005184102 0.14415821 0.05445383 -0.08404867
0.060739677 0.14581355 0.017359043 -0.13781421 -0.017507905 0.12766579 -0.15524125 -0.084474504
00000000: 5f32 2cbd b880 863d a668 463d 3cc5 e3bd
00000010: ed34 c1bd 29a2 223e 8825 813d 9ec5 c1bd
00000020: fc7b c23d adf3 da3d c3ef c9bc ccb8 d8bd
00000030: 8cc3 ca3d 9422 17be 4ceb 1c3e 9869 f2bd
00000040: fa22 983d 8b56 05be c79b 21be b003 3b3e
00000050: 7185 203e 71ce b13d eefb 333e f55f 343e
00000060: b17a 943d a4ed 163d ae85 803c 63e2 07be
00000070: 3d59 bdbc 45a1 b23d 572e efbd 5fe1 c7bd
00000080: 700c 34bd 359c 163e 5c2c 1fbe b1d2 793d
00000090: 0955 083e 7b87 063d 3ebd 8abd 2f7e 59bd
000000a0: 472d 803d aae5 6bbd ff32 29bc b248 e33c
000000b0: 2639 e2bc c29f 3ebe 6dfe e0bd ee71 cdbc
000000c0: e154 2cbe 247d 11be 5268 31be 7a8b 183e
000000d0: f234 f43d 2398 00be 7f55 1d3e d1dd 2bbe
000000e0: 9cf8 c93d 664b 82bd 0b14 dd3d bcc6 dc3d
000000f0: 6277 d9bd 9e3f 87bd 299d 34bd 1577 acbc
00000100: 29d6 02be b37f 283d d83a ee3d 584a 0e3e
00000110: 4f28 3dbd 0399 91b9 bb16 0fbe f866 793c
00000120: d88b 703b 609c 16be de92 293e c74e 0ebd
00000130: ae29 cbbd b9d7 153d 8df9 e83c fd9f 0c3e
00000140: e104 94bc 418d 21be e6e2 c5bc e401 b2bd
00000150: 2e11 1d3e 6a70 c43d c252 083e 278f cdbc
00000160: e416 a23d f78d 26be 5b8d 34be 6a17 03be
00000170: ec50 edbd a5fd 34be 92ab f03d 8abc 7b3d
00000180: 8f25 ebbd 6f9f 02bd 8c9c d03d b590 1d3d
00000190: a511 003d bb65 cd3d 9656 313e 6329 d73d
000001a0: 0dc8 7cb9 e68c 27be 57a6 c6bd 456b 20be
000001b0: 6463 02be 8469 47bb c68f 7bbd 7d12 213e
000001c0: 7bb6 6f3d 7e05 1b3e 6392 10be 5761 2dbc
000001d0: e9cb a5bd e47f 343e 3636 debb 66a7 50bd
000001e0: 3458 863d ed85 683c 0567 1ebe 0e74 b9bd
000001f0: 37b6 17be 1d79 323e a09e 173e db8d 1bbe
00000200: 299c d13b 373f 25be 74c7 d8bd 2c3a 643d
00000210: a0f0 f23d 14b4 9a3c 5266 9f3c 97a7 29be
00000220: 1a54 6ebb e4b3 0a3e 3b01 163e 5744 913d
00000230: f4d3 32be 2313 e63d 2e4e 2abe 1e0b 1abe
00000240: 7f4d 02be 556b 023d eedf ad3d 288f 0e3e
00000250: 0378 64bd f981 49bc d494 ebbc 46a3 f03c
00000260: 79ad c83c 01cd 163e e9e1 37bd ce60 dbbc
00000270: e23f ce3c d7b3 d0bc fd4e d6bd 5b60 973d
00000280: 38cc 323e 5909 4e3d 0432 313e a351 9dbd
00000290: 2ebf 04be 60f6 2a3e e65c 353c 51ea 0abe
000002a0: 1955 11be 9b49 8b3d 827c 033e b9ab e63c
000002b0: e0c2 2c3d e52e c03d 27cd 1a3e 6076 033e
000002c0: 76a7 0c3e 6318 143e e9c3 c0bd 061a 953d
000002d0: 79da 19be 0619 703d 02b9 72bd d739 d23d
000002e0: 36e4 693d 8752 293c 8ca6 fabd 6601 bcbc
000002f0: aa46 efbd 9460 e53d c2a5 2a3e 85f0 4b3a
00000300: afb7 193e efc5 593d ed68 313e 2731 283e
00000310: 5083 26bd 95bc a5bd eafb 0f3e fa02 b63d
00000320: 8e0c 093e f6f2 8a3c 9725 143d adc0 afbd
00000330: 87e3 5cbd cf50 363d 3a9c 2b3b 788d 223e
00000340: 8f91 debd e7e6 35bd 67cd fdbd 0b6f ff3d
00000350: 5132 393e 1eb6 5fbd a503 b1ba 1d5f d93d
00000360: 5a0b 233e 0fb6 0ebe 39b4 df3d 9b55 acbd
00000370: 321e e8bd c070 b5bd be1d 1cbe bb2b c8bd
00000380: 5860 f3bd e10f bb3d 7d8d b93c 6dc7 af3d
00000390: fbac 043e fb93 d73d 7261 85bd 7aee 453c
000003a0: 37e2 36bd c357 b73d a843 de3d 4438 233e
000003b0: 851b 07be 9efc 1b3d 86d0 f53b 2b0e f13d
000003c0: 8e74 ae3c 74d7 88bd 51cd 933d f5c4 5fbd
000003d0: 66df a93b 369e 133e fb0a 5f3d b621 acbd
000003e0: 2bca 783d 2650 153e 8d34 8e3c 2b1f 0dbe
000003f0: bd6c 8fbc d2ba 023e 90f7 1ebe f800 adbd

feature_extractor.encoder.0.mlp.4.bias f4 [32]
0.18379268 -0.16039583 -0.042645138 0.094399646 -0.05053105 0.08088344 -0.03740446 0.10789609
-0.085289426 0.14458823 -0.13968785 -0.07515769 0.118004605 -0.01122846 0.15686995 -0.021885786
0.08354246 -0.086372115 0.18114145 0.05192821 -0.17436066 -0.09555993 -0.017487386 -0.083102226
0.05185959 -0.028646054 0.039932877 0.0066494117 0.09876846 0.017192299 -0.13587806 -0.13864493
00000000: 2634 3c3e ce3e 24be abac 2ebd 9a54 c13d
00000010: a5f9 4ebd 38a6 a53d 6b35 19bd a0f8 dc3d
00000020: 39ac aebd f00e 143e 550a 0fbe 46ec 99bd
00000030: 66ac f13d 93f7 37bc 84a2 203e d249 b3bc
00000040: 4f18 ab3d dde3 b0bd 257d 393e adb2 543d
00000050: 9a8b 32be edb4 c3bd b541 8fbc 8031 aabd
00000060: b96a 543d 21ab eabc a890 233d 4fe3 d93b
00000070: 1e47 ca3d ddd6 8c3c 9e23 0bbe f0f8 0dbe

feature_extractor.encoder.1.mlp.0.weight f4 [32, 47]
-0.03958094 0.118374065 -0.0025809966 -0.060029946 0.11142254 0.07921799 0.101578794 0.09689841
-0.0313646 -0.06982693 -0.10262084 0.07287705 -0.14386275 -0.033382777 -0.06542577 -0.14064685
0.048867144 -0.04371209 -0.098131366 -0.12512596 -0.023942417 -0.010769404 -0.033456136 0.003974313
-0.043195326 -0.11508947 -0.13000144 -0.024691258 -0.049259122 -0.09862889 0.04447124 -0.11653823
-0.05525389 0.11569218 0.04823483 -0.12308151 -0.0471805 -0.11881399 0.018169258 0.069601804
0.1228776 -0.050324094 -0.028734302 0.08855481 -0.03860572 -0.009559354 -0.09718571 0.116849
-0.092422865 -0.11911704 -0.06537056 -0.07046852 0.062424496 0.037259646 0.107542366 -0.011969656
-0.14031297 0.12792332 0.030873336 0.102865264 0.0039448133 -0.045919564 -0.032740224 -0.045599964
-0.057675656 0.006117034 -0.084469035 -0.06352524 -0.00073114235 -0.0009555055 0.069211066 0.07931251
-0.019549139 -0.007815351 0.10120665 -0.03413027 0.13493268 0.033616155 -0.103375465 -0.110324755
-0.0053238235 -0.08464083 -0.12425 0.07193855 0.0869424 -0.0029778688 -0.040578466 0.03893975
-0.12103878 -0.04179505 0.091090016 0.015450455 0.11634663 -0.09193798 0.120456986 -0.056562826
-0.0556905 0.054211292 0.035758823 0.09887153 0.07900507 0.083320364 0.051924728 0.052324854
-0.12743245 -0.118412435 0.03549215 -0.039806157 -0.028297372 0.11603046 0.100242205 0.13632369
-0.011322294 0.14424995 0.013791983 0.048819955 -0.016518459 -0.025990201 -0.05013258 -0.01672212
-0.054343004 0.0035941692 -0.0739133 0.013257312 0.048064742 0.021753574 -0.047852576 -0.01813736
-0.1300351 0.024147836 -0.10954456 0.11534001 0.14818709 -0.150223 -0.04453744 0.052132428
-0.09692961 -0.11968414 0.10481238 -0.10294175 -0.06978419 0.11400082 0.037540603 0.07010075
0.020869948 0.015771328 -0.101056166 -0.07752949 -0.11302979 0.022465743 -0.11979824 -0.052111164
-0.07939625 -0.073227756 -0.054361932 -0.015284146 -0.10982953 -0.11682168 -0.047119282 -0.10915027
0.07715448 0.035351258 -0.0069315494 -0.1027175 0.03295791 -0.13487692 -0.106750004 0.1140749
0.00575594 0.122604765 -0.03265588 -0.12571065 0.12135624 -0.08113211 0.052417763 -0.18096699
-0.10577275 0.053069934 -0.00011465143 -0.06670502 0.0005148498 -0.05560834 -0.13116525 0.13563374
-0.10003072 -0.06668092 -0.093108386 0.13511638 -0.008504685 0.024691265 -0.13034129 0.14603665
0.04544924 0.066450536 -0.08973518 -0.023683548 0.104760095 -0.08127538 0.053120576 -0.12648019
0.14581144 -0.024621721 0.099032946 -0.047722057 -0.042447876 0.0453568 -0.06881233 0.096942745
-0.0313468 0.018872574 0.11026996 0.016888112 -0.010521985 -0.04750124 0.02930633 -0.106927186
-0.03051245 -0.0014407774 -0.009084377 0.0066452557 -0.07707733 -0.051704656 -0.05647309 0.1494362
0.08032235 -0.08683277 0.14762886 -0.049524996 0.13399294 0.019414088 -0.0550693 -0.06062185
0.06539837 -0.09318502 -0.037184026 0.12934011 0.01872816 -0.025847737 -0.038482796 -0.13309221
-0.035504453 0.12771334 0.08209369 -0.13561909 0.018414298 0.023108283 -0.00324563 0.08400187
0.046776768 -0.118777335 0.1178073 -0.10640084 0.064881116 0.05700638 0.019249048 -0.06798459
00000000: a01f 22bd 1a6e f23d f025 29bb f6e1 75bd
00000010: 8031 e43d 0b3d a23d 8b08 d03d ac72 c63d
00000020: 2b78 00bd 6c01 8fbd e02a d2bd 9040 953d
00000030: c250 13be 61bc 08bd f2fd 85bd ba05 10be
00000040: ea28 483d 730b 33bd 19f9 c8bd 0521 00be
00000050: e322 c4bc 2772 30bc 4d09 09bd f43a 823b
00000060: 95ed 30bd 07b4 ebbd 191f 05be 5245 cabc
00000070: efc3 49bd f2fd c9bd 7a27 363d 98ab eebd
00000080: e751 62bd 06f0 ec3d e391 453d 2912 fcbd
00000090: 5740 41bd c054 f3bd b2d7 943c 648b 8e3d
000000a0: 40a7 fb3d a320 4ebd 3364 ebbc 395c b53d
000000b0: 0821 1ebd d69e 1cbc 4d09 c7bd 874e ef3d
000000c0: 3348 bdbd a2f3 f3bd 00e1 85bd cd51 90bd
000000d0: d4b0 7f3d 929d 183d 2c3f dc3d 601c 44bc
000000e0: 34ae 0fbe 55fe 023e 14ea fc3c 06ab d23d
000000f0: 7e43 813b 2716 3cbd 9d1a 06bd 07c7 3abd
00000100: 4f3d 6cbd 6671 c83b 1afe acbd 8519 82bd
00000110: 22aa 3fba e37a 7aba 88be 8d3d 996e a23d
00000120: 8425 a0bc f50b 00bc 6f45 cf3d 2fcc 0bbd
00000130: cb2b 0a3e 18b1 093d 84b6 d3bd f2f1 e1bd
00000140: 7873 aebb 2c58 adbd c976 febd 8554 933d
00000150: db0e b23d 5928 43bb 9b35 26bd 4a7f 1f3d
00000160: 2ee3 f7bd 4931 2bbd 678d ba3d e823 7d3c
00000170: 2447 ee3d fb49 bcbd 27b2 f63d 6cae 67bd
00000180: b91b 64bd a90c 5e3d d877 123d 287d ca3d
00000190: 69cd a13d dea3 aa3d 06af 543d 9652 563d
000001a0: a77d 02be 3882 f2bd 3760 113d c80b 23bd
000001b0: e4cf e7bc 61a1 ed3d c94b cd3d 7098 0b3e
000001c0: 2581 39bc 42b6 133e c5f7 613c 6ff7 473d
000001d0: b851 87bc 67e9 d4bc d257 4dbd d4fc 88bc
000001e0: c596 5ebd 278c 6b3b db5f 97bd 3235 593c
000001f0: 89df 443d 8d34 b23c 1001 44bd cd94 94bc
00000200: ec27 05be afd1 c53c e658 e0bd 6237 ec3d
00000210: 5bbe 173e 0fd4 19be e46c 36bd d088 553d
00000220: 0883 c6bd f51c f5bd e0a7 d63d 20d3 d2bd
00000230: 03eb 8ebd 4379 e93d 2dc4 193d fb90 8f3d
00000240: 74f7 aa3c df32 813c 89f6 cebd c8c7 9ebd
00000250: 2a7c e7bd 140a b83c c858 f5bd 8472 55bd
00000260: 809a a2bd 6ff8 95bd 9eaa 5ebd 5b6a 7abc
00000270: 4eee e0bd 3440 efbd 2600 41bd 2d8a dfbd
00000280: 2b03 9e3d 7bcc 103d 0d22 e3bb 8d5d d2bd
00000290: e0fe 063d 2d1d 0abe bf9f dabd 1aa0 e93d
000002a0: 539c bc3b 3518 fb3d 2cc2 05bd 4bba 00be
000002b0: 9f89 f83d 9728 a6bd 02b4 563d 694f 39be
000002c0: 629f d8bd dc5f 593d 0571 f0b8 a49c 88bd
000002d0: fcf6 063a 92c5 63bd 2f50 06be 92e3 0a3e
000002e0: e8dc ccbd 0290 88bd 9caf bebd f35b 0a3e
000002f0: 3c57 0bbc 5645 ca3c 3078 05be a28a 153e
00000300: fb28 3a3d 3817 883d 14c7 b7bd 0004 c2bc
00000310: 768c d63d b573 a6bd f694 593d 0684 01be
00000320: 984f 153e 7eb3 c9bc c9d1 ca3d 3478 43bd
00000330: d3dd 2dbd 0dc8 393d 7bed 8cbd eb89 c63d
00000340: 8165 00bd a89a 9a3c 37d5 e13d f058 8a3c
00000350: 6764 2cbc a990 42bd d413 f03c a4fc dabd
00000360: 3ff5 f9bc 78d8 bcba a4d6 14bc 72c0 d93b
00000370: b8da 9dbd 43c8 53bd 5450 67bd ce05 193e
00000380: 0b80 a43d 61d5 b1bd 052c 173e b9da 4abd
00000390: 7235 093e 4b0a 9f3c 5990 61bd 9e4e 78bd
000003a0: 95ef 853d cad7 bebd 474e 18bd bc71 043e
000003b0: cc6b 993c a2be d3bc 23a0 1dbd 5349 08be
000003c0: 1e6d 11bd 49c7 023e bd20 a83d bbdf 0abe
000003d0: 95d9 963c 954d bd3c a3b4 54bb 2c09 ac3d
000003e0: ff98 3f3d 8841 f3bd f444 f13d afe8 d9bd
000003f0: 64e0 843d 867f 693d 2eb0 9d3c 813b 8bbd

feature_extractor.encoder.1.mlp.0.bias f4 [32]
0.12775971 0.046771586 -0.077601954 -0.040741473 0.07492068 -0.056573454 -0.037084397 0.019975277
-0.073665306 0.13428666 0.028696096 0.123715326 -0.029080689 -0.06277847 -0.09117854 0.041996043
0.09148258 -0.110509284 0.09578934 -0.006379567 0.1410628 -0.01681165 0.07547576 0.044662993
-0.11234348 0.05443764 0.044558503 -0.13787514 0.10105108 -0.069110125 0.0072803986 0.075900294
00000000: 71d3 023e 9093 3f3d c6ed 9ebd 88e0 26bd
00000010: 0370 993d 91b9 67bd cfe5 17bd 31a3 a33c
00000020: d6dd 96bd 7182 093e 1314 eb3c 765e fd3d
00000030: a03a eebc 0092 80bd d0bb babd 0b04 2c3d
00000040: 385b bb3d b152 e2bd 342d c43d b00b d1bb
00000050: c472 103e 96b8 89bc 0993 9a3d 8bf0 363d
00000060: 5714 e6bd 01fa 5e3d fa82 363d 242f 0dbe
00000070: def3 ce3d 9c89 8dbd 6990 ee3b 9d71 9b3d

feature_extractor.encoder.1.mlp.2.weight f4 [32, 32]
0.058659595 0.075132854 -0.10073556 0.13080615 -0.020649211 0.073542096 -0.101952665 0.12058426
-0.13213338 0.049981356 0.07780999 -0.047940776 -0.02208204 0.10562961 0.10188117 -0.101253815
0.023370123 -0.027922662 0.07260562 0.03492764 -0.15694542 -0.001790808 0.15180144 -0.13306196
0.16294056 -0.0029493521 -0.12648085 -0.14032681 -0.03010272 0.16238636 -0.071454555 0.16077404
0.08358329 -0.12785433 0.07805027 -0.13425781 -0.0968194 0.059661876 -0.07698855 -0.074763134
0.06896131 0.12309748 0.117332675 -0.030644488 -0.012129399 0.008779041 -0.021167116 0.12531999
-0.0026355477 -0.04248577 -0.06925871 0.020379055 0.08441464 -0.14598724 -0.16755089 0.10364072
-0.14111508 0.09663897 -0.10138509 0.009337739 -0.092473194 -0.035061836 -0.018130751 0.03662679
-0.087938786 -0.11512521 0.13097745 -0.07022405 0.1588517 -0.011642785 -0.07361095 -0.06726984
-0.041146103 0.11939707 -0.14963834 -0.13937859 0.10211395 -0.06253174 0.023861213 0.16909651
0.11893977 0.022349328 -0.12884192 -0.0720646 0.12256173 -0.014569968 -0.107635 0.07736308
-0.1207493 0.06427685 0.11914608 -0.061205316 -0.015945623 -0.15833127 -0.03098857 -0.18646576
0.06900089 -0.065214895 0.03745976 -0.16506629 0.13090658 0.014865145 -0.048514266 0.067404754
0.12533005 0.038432255 -0.042094056 -0.060019996 -0.016885875 -0.17082435 -0.03396542 -0.06859924
-0.15730578 0.091438234 0.16192897 0.052621696 -0.180365 0.05774053 -0.038233083 0.05967727
-0.089928895 -0.17185335 -0.1038206 -0.17296982 0.15855847 0.13673949 0.00974252 -0.16864674
-0.034937523 0.004477365 0.039588723 -0.15951838 0.1498338 0.12233409 -0.15945213 -0.029173689
-0.14432986 -0.1325413 -0.06352425 0.014650581 -0.15495698 0.15095313 -0.14634164 0.048921365
-0.09272408 -0.07429912 -0.03783801 -0.14278552 -0.057971176 0.11546711 -0.081953764 0.073694356
0.08859832 0.08863189 -0.11451231 -0.11110617 0.122696996 -0.09382752 -0.15557459 -0.1419818
-0.039655533 -0.028481191 0.04325814 -0.040500928 0.06548532 -0.12409815 -0.043956824 -0.12397601
0.123240635 -0.08403662 -0.09275697 0.14727922 0.06830352 0.016088793 0.13382861 -0.032885227
-0.13053292 0.14053518 0.15409908 -0.045660906 0.0047472944 -0.08620748 -0.08235595 -0.04496528
-0.07463338 0.13012551 -0.020219149 -0.15981767 -0.031507723 0.059269045 0.012821215 0.07687305
-0.105284475 -0.0009967736 0.058258668 0.12520877 0.16680042 0.042336766 -0.08830531 0.006715762
0.008969479 0.08069817 -0.024736783 -0.06492795 0.035911776 0.16075929 0.06623496 0.1531414
0.04307685 -0.17258961 -0.005892184 0.11998188 0.06445413 0.034834098 -0.060191847 -0.017510353
-0.14594975 0.027524672 0.087665655 -0.12492612 0.030842561 0.114919014 -0.0901141 0.09608684
-0.09935234 0.1235022 -0.0036062703 0.08589746 -0.050234053 0.009084709 0.114354506 -0.12856641
-0.06129552 -0.10575262 0.16287144 -0.027403744 -0.03699165 -0.14340419 0.17199953 0.17012152
0.1520068 0.010550061 -0.0043373876 -0.117202476 -0.14060673 -0.13359845 -0.05288987 -0.09022947
0.11687164 0.046590813 -0.005443168 -0.07769234 -0.03935699 -0.0056151086 -0.04516254 -0.022983521
00000000: 0b45 703d 41df 993d 724e cebd 0cf2 053e
00000010: 8928 a9bc 3d9d 963d 8fcc d0bd e1f4 f63d
00000020: f94d 07be 40b9 4c3d d85a 9f3d 8c5d 44bd
00000030: 65e5 b4bc 5654 d83d 13a7 d03d 295e cfbd
00000040: b372 bf3c 11be e4bc 41b2 943d 4910 0f3d
00000050: 4db6 20be 8cb9 eaba d671 1b3e 6541 08be
00000060: e4d9 263e eb49 41bb 3284 01be d5b1 0fbe
00000070: fb99 f6bc 9c48 263e c456 92bd f3a1 243e
00000080: b72d ab3d 3fec 02be d2d8 9f3d e17a 09be
00000090: 4049 c6bd 0360 743d 2cac 9dbd 6a1d 99bd
000000a0: 963b 8d3d 881a fc3d 1d4c f03d 260a fbbc
000000b0: 63ba 46bc f7d5 0f3c a966 adbc e253 003e
000000c0: 27b9 2cbb 8f05 2ebd 83d7 8dbd faf1 a63c
000000d0: 95e1 ac3d ae7d 15be 7692 2bbe 9641 d43d
000000e0: 7980 10be a7ea c53d fca2 cfbd 51fd 183c
000000f0: 9662 bdbd 009d 0fbd f186 94bc f905 163d
00000100: 4019 b4bd c4c6 ebbd f41e 063e a0d1 8fbd
00000110: 05aa 223e 61c1 3ebc 56c1 96bd c5c4 89bd
00000120: d188 28bd 7386 f43d cb3a 19be 43b9 0ebe
00000130: 1e21 d13d a410 80bd 9778 c33c a327 2d3e
00000140: b296 f33d f015 b73c 23ef 03be 9b96 93bd
00000150: a501 fb3d e0b6 6ebc bd6f dcbd 8970 9e3d
00000160: 694b f7bd 95a3 833d dc02 f43d 6db2 7abd
00000170: 65a0 82bc 9821 22be bedb fdbc e1f0 3ebe
00000180: 5750 8d3d 638f 85bd 686f 193d 2307 29be
00000190: 600c 063e f08c 733c e5b6 46bd 810b 8a3d
000001a0: 8556 003e 246b 1d3d d16a 2cbd 87d7 75bd
000001b0: 3f54 8abc 94ec 2ebe 531f 0bbd c27d 8cbd
000001c0: c414 21be f843 bb3d b5d0 253e d989 573d
000001d0: 9ab1 38be 5681 6c3d 4b9a 1cbd 2770 743d
000001e0: a42c b8bd 53fa 2fbe e59f d4bd 001f 31be
000001f0: 275d 223e 7005 0c3e 179f 1f3c bbb1 2cbe
00000200: a61a 0fbd dcb6 923b c927 223d c958 23be
00000210: 086e 193e 4c8a fa3d 6b47 23be a9fd eebc
00000220: 35cb 13be e8b8 07be 0119 82bd fe08 703c
00000230: 0bad 1ebe 7593 1a3e 95da 15be c561 483d
00000240: 1fe6 bdbd 232a 98bd 07fc 1abd 5e36 12be
00000250: 2f73 6dbd 057a ec3d 60d7 a7bd 11ed 963d
00000260: 0973 b53d a384 b53d 6e85 eabd a28b e3bd
00000270: 9048 fb3d a528 c0bd f24e 1fbe ad63 11be
00000280: d76d 22bd 6351 e9bc 732f 313d 4de4 25bd
00000290: 2b1d 863d 2c27 febd 120c 34bd 22e7 fdbd
000002a0: 9665 fc3d 641b acbd 5ef7 bdbd 5dd0 163e
000002b0: b7e2 8b3d a5cc 833c 5e0a 093e a9b2 06bd
000002c0: 6caa 05be 74e8 0f3e 26cc 1d3e ee06 3bbd
000002d0: 318f 9b3b 8c8d b0bd 3caa a8bd 832d 38bd
000002e0: 63d9 98bd 9f3f 053e a1a2 a5bc 3ea7 23be
000002f0: 3e0e 01bd 19c4 723d 1310 523c 9e6f 9d3d
00000300: 639f d7bd 2ca6 82ba a4a0 6e3d ba36 003e
00000310: bbcd 2a3e 5169 2d3d 6ad9 b4bd e50f dc3b
00000320: b9f4 123c 1545 a53d cba4 cabc f2f8 84bd
00000330: 3a18 133d 159e 243e 32a6 873d 19d1 1c3e
00000340: 5a71 303d 55bb 30be 3913 c1bb 0fb9 f53d
00000350: 8700 843d 33ae 0e3d ba8b 76bd df71 8fbc
00000360: da73 15be 6c7b e13c 0d8a b33d 44d9 ffbd
00000370: 8aa9 fc3c a95a eb3d be8d b8bd 2dc9 c43d
00000380: 3d79 cbbd b9ee fc3d 2d57 6cbb 02eb af3d
00000390: 39c2 4dbd 08d8 143c b232 ea3d eaa6 03be
000003a0: 0311 7bbd d494 d8bd c5c7 263e d17d e0bc
000003b0: 8e84 17bd 8cd8 12be a520 303e 5634 2e3e
000003c0: aca7 1b3e 2ada 2c3c a520 8ebb da07 f0bd
000003d0: 36fb 0fbe 08ce 08be 0ca3 58bd 3aca b8bd
000003e0: 665a ef3d 02d6 3e3d 9a5c b2bb 291d 9fbd
000003f0: cc34 21bd f2fe b7bb 5bfc 38bd f047 bcbc

feature_extractor.encoder.1.mlp.2.bias f4 [32]
-0.1329155 -0.15209225 0.058707345 0.04079229 0.017189696 0.16111574 0.036042184 0.10613498
-0.040581472 0.16168334 -0.11770837 -0.17493106 0.14334379 -0.050248608 0.09535008 0.040967774
-0.07936305 -0.043405924 -0.013262269 0.07686964 0.1586543 -0.15306023 0.040358447 -0.04782712
-0.051866088 0.06182984 -0.12173926 -0.03361549 -0.14672893 0.14588445 -0.05357957 0.12641233
00000000: 001b 08be 12be 1bbe 1d77 703d d115 273d
00000010: 68d1 8c3c 86fb 243e f8a0 133d 4c5d d93d
00000020: c238 26bd 5190 253e 1611 f1bd 2121 33be
00000030: b7c8 123e 7cd1 4dbd e746 c33d d3cd 273d
00000040: 1889 a2bd 69ca 31bd fd49 59bc d46d 9d3d
00000050: 4676 223e d2bb 1cbe e64e 253d 5fe6 43bd
00000060: 8971 54bd 4941 7d3d 6f52 f9bd 65b0 09bd
00000070: 1c40 16be bc62 153e 4076 5bbd 3c72 013e

feature_extractor.encoder.1.mlp.4.weight f4 [32, 32]
-0.042557035 -0.15521221 -0.049358316 0.0037768092 -0.14658259 -0.10164806 -0.066575915 -0.16769432
-0.08377609 0.028505305 -0.17327344 0.039482106 -0.073846236 0.15895894 0.14025779 0.17372574
0.16864085 0.082954496 0.022695761 0.055040862 -0.0023043067 -0.0061394046 -0.1333775 -0.14598897
0.05750075 -0.04803136 -0.08485751 0.16655463 -0.07382054 0.17236762 0.061897296 -0.055610493
-0.18015502 0.008591677 0.097126275 0.09206493 -0.041334067 0.1286063 -0.110948965 -0.15990667
0.08116644 0.022978663 0.052330412 0.07941766 0.0113666775 -0.043009065 -0.1339584 0.10442195
-0.0643052 -0.002852419 -0.06378191 -0.01954535 -0.00040918772 0.047803007 0.0050403257 -0.17085384
-0.12850584 -0.085941024 0.15388699 0.03887498 -0.16426703 0.14151274 0.047902383 -0.04731163
0.0040542707 -0.15465944 -0.053543728 0.045834504 -0.16233519 -0.15286706 0.023898643 0.1598927
-0.09195171 0.034809787 0.15765591 0.08121142 0.099649414 -0.09057832 -0.15098247 -0.1356097
-0.13930455 0.004130089 -0.15092036 0.1308433 0.07621217 0.14363694 -0.010695316 -0.14994363
0.014427389 0.08505499 0.06947074 0.009053272 -0.041486416 0.011451718 0.16147134 0.052924145
0.12594357 -0.04358412 -0.13711125 -0.01013495 -0.03646916 -0.11147743 0.15467305 -0.039055817
0.043310754 -0.13930336 0.06252601 0.06132202 0.20178266 -0.1456594 -0.15066613 0.10395974
0.09773196 -0.06373541 -0.023136722 0.056642476 0.04352096 -0.09726678 0.015514766 0.004570461
-0.004168705 -0.11480982 -0.11932888 0.050577458 0.13862367 0.06621708 0.1764212 -0.16145156
-0.058656722 -0.16501601 -0.0926644 0.0322292 0.01778776 0.15373367 0.122669555 0.14292245
-0.14063142 0.038512237 0.00035605658 0.16462702 0.17001773 0.111793496 -0.030077405 -0.15718064
-0.062597066 0.09243726 0.07793679 0.057403963 0.14891633 -0.0680411 -0.14519176 0.061255407
0.16454192 -0.17238471 0.061505362 0.17305729 -0.14488515 0.11636872 0.12177363 0.14869176
-0.0066093425 0.08548228 -0.115374 -0.17063135 0.022635428 0.060104005 0.15218978 0.1099972
0.13847066 -0.107631 0.075540595 0.12904142 -0.023340894 0.16339174 0.05908408 0.0066558826
-0.040750556 0.005940781 -0.1232599 -0.065377295 -0.06708312 -0.041515928 0.15114576 -0.16639933
-0.11266923 -0.10389461 0.1503902 0.053999033 -0.14535443 -0.114684284 -0.022861665 0.15803763
-0.04594177 0.16226728 0.09588712 0.10412879 -0.08574393 0.10723085 -0.13992131 -0.118356735
0.1411307 -0.10260651 -0.041301023 -0.14695917 0.0030559963 -0.11058313 0.044208486 -0.13281485
0.067472756 -0.0441264 0.1804044 0.12972239 -0.059544686 -0.08137502 -0.105227776 0.06356267
-0.114677496 -0.03054728 -0.04930818 0.045041066 -0.06469646 0.17777956 0.11934665 0.16671629
0.14953859 -0.11181909 -0.10556013 0.0261608 -0.1548334 -0.05619559 -0.12569906 0.004374713
0.16189712 0.17985752 0.03690578 0.15005039 -0.15394937 0.109561495 -0.09645005 0.1440746
-0.073200226 0.13444547 -0.013541645 -0.11600967 -0.080519184 -0.047123685 0.1264309 -0.08698929
0.08662098 0.09221273 -0.06405424 0.08672651 -0.15856956 -0.04828922 -0.06423456 -0.0928735
00000000: 4950 2ebd f3ef 1ebe f22b 4abd 5884 773b
00000010: bf19 16be dc2c d0bd f458 88bd 0fb8 2bbe
00000020: cc92 abbd f583 e93c 986e 31be fdb7 213d
00000030: b23c 97bd 22c6 223e bd9f 0f3e 29e5 313e
00000040: 30b0 2c3e 0ce4 a93d 76ec b93c 8772 613d
00000050: da03 17bb 0f2d c9bb 1d94 08be 227e 15be
00000060: e885 6b3d 88bc 44bd c6c9 adbd 4c8d 2a3e
00000070: 392f 97bd 2381 303e 0588 7d3d d4c7 63bd
00000080: 8f7a 38be 1bc4 0c3c 24ea c63d 8a8c bc3d
00000090: e94d 29bd 5fb1 033e 3639 e3bd 93be 23be
000000a0: 973a a63d c03d bc3c 6a58 563d baa5 a23d
000000b0: 4d3b 3a3c 462a 30bd 642c 09be 2ddb d53d
000000c0: 72b2 83bd a6ef 3abb 17a0 82bd 921d a0bc
000000d0: 3f88 d6b9 16cd 433d 5129 a53b 4ff4 2ebe
000000e0: 0997 03be d901 b0bd 8d94 1d3e 5f3b 1f3d
000000f0: 9e35 28be b7e8 103e 4a35 443d d7c9 41bd
00000100: b0d9 843b 0b5f 1ebe ab50 5bbd f6bc 3b3d
00000110: 323b 26be 2f89 1cbe 16c7 c33c e9ba 233e
00000120: 2e51 bcbd b594 0e3d 8d70 213e 2c52 a63d
00000130: fe14 cc3d 2081 b9bd 269b 1abe 45dd 0abe
00000140: daa5 0ebe b355 873b de8a 1abe c9fb 053e
00000150: 2015 9c3d 9015 133e 683b 2fbc d38a 19be
00000160: db60 6c3c 5031 ae3d ad46 8e3d 2d54 143c
00000170: a9ed 29bd fd9f 3b3c be58 253e fdc6 583d
00000180: 5af7 003e 4385 32bd e466 0cbe 100d 26bc
00000190: b060 15bd 474e e4bd 9d62 1e3e fef8 1fbd
000001a0: 9e66 313d 8aa5 0ebe a30d 803d cc2c 7b3d
000001b0: 1da0 4e3e bd27 15be 3948 1abe d8e8 d43d
000001c0: b227 c83d b687 82bd 3989 bdbc f101 683d
000001d0: 0943 323d ce33 c7bd a531 7e3c cec3 953b
000001e0: a299 88bb 6921 ebbd b362 f4bd 4f2a 4f3d
000001f0: 5df3 0d3e d29c 873d c2a7 343e 8f53 25be
00000200: 0842 70bd f5f9 28be d5c6 bdbd c402 043d
00000210: a3b7 913c 5c6c 1d3e 2d3a fb3d 435a 123e
00000220: af01 10be 02bf 1d3d 1bad ba39 fc93 283e
00000230: 2119 2e3e fdf3 e43d e464 f6bc f6f3 20be
00000240: e432 80bd bf4f bd3d 539d 9f3d 6b20 6b3d
00000250: 867d 183e 2259 8bbd 26ad 14be f3e6 7a3d
00000260: ad7d 283e 9e85 30be 0ced 7b3d ee35 313e
00000270: c65c 14be b952 ee3d 7464 f93d a742 183e
00000280: 2f93 d8bb 5511 af3d 3449 ecbd fcb9 2ebe
00000290: ef6d b93c 9e2f 763d a3d7 1b3e 3646 e13d
000002a0: 41cb 0d3e a46d dcbd 07b5 9a3d 6f23 043e
000002b0: 6735 bfbc 2a50 273e 2602 723d 9719 da3b
000002c0: 0eea 26bd e2aa c23b b06f fcbd 88e4 85bd
000002d0: e062 89bd 9b0c 2abd f4c5 1a3e 9664 2abe
000002e0: 20bf e6bd b3c6 d4bd e3ff 193e 172e 5d3d
000002f0: cbd7 14be 98df eabd 6348 bbbc 9ed4 213e
00000300: 702d 3cbd 6529 263e 7760 c43d 7a41 d53d
00000310: 839a afbd d99b db3d 8847 0fbe 0465 f2bd
00000320: 9184 103e 5d23 d2bd 432b 29bd 777c 16be
00000330: 1c47 483b 6879 e2bd f513 353d 9e00 08be
00000340: 282f 8a3d e2bd 34bd eebb 383e f2d5 043e
00000350: 21e5 73bd f2a7 a6bd a981 d7bd 252d 823d
00000360: 09dc eabd 4a3e fabc 60f7 49bd fb7c 383d
00000370: 947f 84bd d80b 363e 046c f43d adb7 2a3e
00000380: a520 193e 6801 e5bd e92f d8bd 2d4f d63c
00000390: a68c 1ebe 592d 66bd 41b7 00be c159 8f3b
000003a0: 5cc8 253e 922c 383e 842a 173d cfa6 193e
000003b0: e7a4 1dbe c761 e03d 9b87 c5bd 4b88 133e
000003c0: 00ea 95bd 13ac 093e c7dd 5dbc 7a96 edbd
000003d0: 3ee7 a4bd c404 41bd 1a77 013e 7127 b2bd
000003e0: 5766 b13d 07da bc3d df2e 83bd ab9d b13d
000003f0: 0f60 22be ebca 45bd 698d 83bd 7634 bebd

feature_extractor.encoder.1.mlp.4.bias f4 [32]
-0.07510836 0.046271607 -0.039214686 -0.056165125 0.039132893 0.011845713 0.1429037 0.06607741
0.058513172 0.108900025 0.18013915 -0.014134648 0.034642804 0.04971926 -0.10478616 0.06413288
0.15164743 0.17532341 -0.10928898 -0.07724483 -0.12632038 -0.08557462 0.14614348 -0.16213928
0.1054821 -0.10826161 -0.15795445 0.17154627 0.011601364 -0.0060599125 0.09987261 0.012568382
00000000: 69d2 99bd 4c87 3d3d 949f 20bd 670d 66bd
00000010: d049 203d 8514 423c 5955 123e 9853 873d
00000020: 82ab 6f3d fa06 df3d 6676 383e 0395 67bc
00000030: 9de5 0d3d 6ca6 4b3d 209a d6bd 1958 833d
00000040: 7749 1b3e fb87 333e e7d2 dfbd 8a32 9ebd
00000050: 215a 01be bf41 afbd a3a6 153e d707 26be
00000060: 0007 d83d 43b8 ddbd d0be 21be d3a9 2f3e
00000070: a613 3e3c 3b92 c6bb 038a cc3d 9deb 4d3c

feature_extractor.fc1.weight f4 [32, 97]
0.051729023 0.011746778 -0.03422075 -0.039096616 -0.029806929 0.008953979 -0.10856085 0.023297315
-0.017739872 -0.06426692 -0.075574905 -0.05523855 -0.106228 0.070258796 -0.1204586 0.02686873
0.022878408 -0.024852725 0.05683559 0.041241646 -0.013410472 -0.10728588 -0.017554957 -0.06473182
-0.0799429 -0.005256023 -0.093899295 0.023950195 0.0018878469 -0.08702997 -0.036712762 0.038374882
-0.055888746 0.10128593 -0.054407094 -0.075680204 -0.07751197 0.11162378 0.03398067 -0.031487804
-0.05322486 -0.021848021 -0.06371095 0.021729134 0.05700253 0.0027075636 -0.06365177 -0.055852197
-0.015419769 0.005603358 -0.038169313 0.09084571 0.008779009 0.07305629 0.01665352 -0.053143844
0.081875935 -0.034240056 0.053075764 -0.049218785 -0.067552075 0.0906481 0.0440962 -0.08806655
-0.021373957 0.0035248287 0.041207343 -0.076040804 -0.066655695 0.057191316 -0.037315093 0.058408506
-0.06378722 -0.020481251 0.05806931 -0.041058335 -0.069212474 -0.04626386 -0.0688722 0.059809346
0.019421201 -0.07490046 0.04736614 0.02188158 0.011991413 0.008653057 0.05674061 0.019445146
-0.026714053 -0.0074529583 0.03396342 -0.105598785 0.0031925642 0.09829321 -0.03354844 -0.01761679
-0.020505661 0.011618921 0.04380247 -0.059298348 -0.026028441 0.023418315 0.09423062 0.011516087
-0.008405767 -0.07922246 0.049055193 0.0021841768 -0.07722376 0.04087622 0.09281299 -0.04531136
0.055904917 0.023847539 -0.05938361 -0.04915909 0.096238114 0.10472896 -0.106025465 0.043689266
0.045468993 -0.087567866 -0.054858778 0.051088605 -0.0029477165 0.010882119 0.049562216 0.08786805
0.041746814 0.07572076 -0.032760385 -0.034940932 0.016366344 -0.01692496 -0.023255553 0.1052652
-0.08637654 0.05160731 -0.076031014 0.08594171 -0.046380483 -0.032194488 -0.08208196 0.030315349
-0.034885626 -0.07305471 -0.047936738 0.062365435 0.0118841715 -0.08103982 0.024635 0.029781833
0.0502504 -0.03902307 -0.028466348 -0.06768146 -0.026833732 0.034857713 0.077830195 -0.09603127
-0.047281332 0.041713536 -0.026947279 0.06975684 0.02704638 0.079948306 0.08297174 0.08292057
-0.08825842 0.016249625 0.016156971 -0.076782286 0.0761976 -0.048945755 0.044549 0.006241834
0.05094912 0.013180336 -0.037902243 -0.06456272 -0.15551978 -0.10053477 -0.124637716 -0.19589828
-0.12668274 -0.051762864 0.037268545 0.037072577 0.0122937225 -0.05639482 0.11366385 0.052613184
-0.072244495 -0.039281577 -0.08573583 0.112489 0.07207156 -0.0054191565 -0.037474934 -0.051468328
-0.10827766 0.024441026 -0.006300684 0.051221494 -0.08934114 -0.11941151 -0.04756628 0.066837616
0.053678803 -0.055096056 -0.074600615 -0.04883626 -0.03826476 -0.07718192 0.08490218 0.06921744
-0.09274257 0.06013371 -0.014720134 0.016467068 -0.091988176 0.029440774 -0.036167752 0.04386235
-0.04380541 0.03124802 0.078646585 -0.00617016 0.00016813705 -0.06752275 -0.025568936 0.041509014
0.060324825 -0.09130949 0.11027511 -0.0264406 -0.086524315 -0.023740742 -0.042993076 0.07645071
-0.020844817 0.042771008 0.047630657 0.08029767 -0.08165079 0.023092482 -0.015502977 0.016718518
-0.023482224 -0.022388043 0.06005168 0.052590504 -0.051427532 0.034873474 0.019457668 -0.08076284
00000000: d0e1 533d 8f75 403c 0f2b 0cbd c623 20bd
00000010: a92d f4bc b6b3 123c 2755 debd 03da be3c
00000020: 3553 91bc 609e 83bd 04c7 9abd d141 62bd
00000030: 118e d9bd d8e3 8f3d 00b3 f6bd d01b dc3c
00000040: 806b bb3c f197 cbbc 70cc 683d 00ed 283d
00000050: 99b7 5bbc b3b8 dbbd 6acf 8fbc 1e92 84bd
00000060: 1ab9 a3bd b73a acbb 464e c0bd 3333 c43c
00000070: a171 f73a c53c b2bd 1f60 16bd fb2e 1d3d
00000080: 99eb 64bd ff6e cf3d f9d9 5ebd 39fe 9abd
00000090: 99be 9ebd 029b e43d 512f 0b3d 5bf9 00bd
000000a0: 5002 5abd 9ffa b2bc e37a 82bd 4c01 b23c
000000b0: 7c7b 693d 6171 313b dc5b 82bd 46c5 64bd
000000c0: 33a3 7cbc 609c b73b 6d57 1cbd 510d ba3d
000000d0: d5d5 0f3c 899e 953d f66c 883c 5cad 59bd
000000e0: 92ae a73d 4d3f 0cbd f965 593d a399 49bd
000000f0: be58 8abd b6a5 b93d 389e 343d 3c5c b4bd
00000100: 7018 afbc d000 673b 08c9 283d 48bb 9bbd
00000110: c882 88bd 7141 6a3d b6d7 18bd c23d 6f3d
00000120: e0a2 82bd 4cc8 a7bc 16da 6d3d c92c 28bd
00000130: 45bf 8dbd 2c7f 3dbd de0c 8dbd a5fa 743d
00000140: 3619 9f3c 6a65 99bd ff02 423d 0041 b33c
00000150: a277 443c 8dc5 0d3c d868 683d 6d4b 9f3c
00000160: 6ed7 dabc f237 f4bb 3a1d 0b3d 2d44 d8bd
00000170: 573a 513b f34d c93d 176a 09bd 1651 90bc
00000180: 7dfb a7bc 495d 3e3c 386a 333d d3e2 72bd
00000190: 9939 d5bc c4d7 bf3c fcfb c03d f8ad 3c3c
000001a0: 58b8 09bc 633f a2bd 19ee 483d 6824 0f3b
000001b0: 7e27 9ebd d36d 273d bd14 be3d 6898 39bd
000001c0: 8efc 643d ea5b c33c 3a3c 73bd 0b5b 49bd
000001d0: 7d18 c53d 237c d63d e123 d9bd 84f3 323d
000001e0: b23d 3a3d c856 b3bd 99b3 60bd 4942 513d
000001f0: 7a2e 41bb ea4a 323c c001 4b3d 2af4 b33d
00000200: b5fe 2a3d 7c13 9b3d c12f 06bd 391e 0fbd
00000210: b612 863c 37a6 8abc 6e82 bebc 4895 d73d
00000220: 2fe6 b0bd 3062 533d 26b6 9bbd 3502 b03d
00000230: 76f9 3dbd 5ede 03bd 961a a8bd e557 f83c
00000240: 3be4 0ebd b59d 95bd 5059 44bd e672 7f3d
00000250: d4b5 423c 35f8 a5bd 57cf c93c 08f9 f33c
00000260: 5dd3 4d3d a8d6 1fbd 4232 e9bc 949c 8abd
00000270: 6ad2 dbbc f6c6 0e3d 7065 9f3d 0bac c4bd
00000280: 12aa 41bd d0db 2a3d 8ac0 dcbc addc 8e3d
00000290: 5f90 dd3c f0bb a33d 16ed a93d 43d2 a93d
000002a0: d5c0 b4bd ef1d 853c a05b 843c 0840 9dbd
000002b0: 7d0d 9c3d 587b 48bd 0379 363d 4c88 cc3b
000002c0: 06b0 503d 56f2 573c 623f 1bbd 7639 84bd
000002d0: 9440 1fbe 2ce5 cdbd 0f42 ffbd 8f99 48be
000002e0: 1fb9 01be 4c05 54bd e7a6 183d 6ad9 173d
000002f0: 9c6b 493c 41fe 66bd 98c8 e83d ec80 573d
00000300: ecf4 93bd b8e5 20bd 4496 afbd a260 e63d
00000310: 419a 933d 2e93 b1bb 517f 19bd 74d0 52bd
00000320: aec0 ddbd 8c38 c83c f875 cebb a1cd 513d
00000330: 7df8 b6bd 068e f4bd dcd4 42bd 29e2 883d
00000340: 4ede 5b3d 67ac 61bd 35c8 98bd 8808 48bd
00000350: 82bb 1cbd 8e11 9ebd 32e1 ad3d e0c1 8d3d
00000360: d1ef bdbd c44e 763d b82c 71bc f2e5 863c
00000370: 4c64 bcbd c72d f13c a324 14bd 02a9 333d
00000380: 4d6d 33bd d9fb ff3c 7611 a13d 0e2f cabb
00000390: f24d 3039 5e49 8abd f275 d1bc 5b05 2a3d
000003a0: 2a17 773d 7800 bbbd ebd7 e13d f599 d8bc
000003b0: a933 b1bd f27b c2bc 8219 30bd 3192 9c3d
000003c0: c0c2 aabc a730 2f3d 5d18 433d 1b73 a43d
000003d0: 8838 a7bd 722c bd3c 3300 7ebc 46f5 883c
000003e0: cb5d c0bc 2167 b7bc c0f8 753d 2469 573d
000003f0: ada5 52bd 7dd7 0e3d b065 9f3c fd66 a5bd

feature_extractor.fc1.bias f4 [32]
-0.030743541 -0.095490895 0.020100212 0.0073507586 -0.04978385 -0.010338369 0.07004841 0.06618118
-0.059144244 0.015847558 -0.09631837 0.06679782 0.07378882 -0.06312733 0.049694873 -0.095958024
0.065897636 0.051074523 -0.09890049 -0.026588405 0.07041813 -0.098683015 -0.013913894 0.040424723
0.036152333 0.069995895 -0.005247218 -0.058233824 -0.036550492 -0.0776884 -0.04305874 0.08133984
00000000: e1d9 fbbc bb90 c3bd 33a9 a43c a2de f03b
00000010: 26ea 4bbd 4362 29bc 8a75 8f3d 008a 873d
00000020: 3c41 72bd bdd2 813c 9142 c5bd 4ccd 883d
00000030: 981e 973d e748 81bd da8c 4b3d a485 c4bd
00000040: 57f5 863d 8533 513d 578c cabd edcf d9bc
00000050: 6137 903d 521a cabd 1af7 63bc 6594 253d
00000060: 7814 143d 025a 8f3d dbf0 abbb 9786 6ebd
00000070: f8b5 15bd 191b 9fbd 5d5e 30bd 8195 a63d
