examples/mini/model.pt (torch, 148598 bytes, 45 tensors)

weight f4 [32, 24]
00000000: 1934 6dbd 4220 c0bd eb99 56bd 228f 3e3e
00000010: cfaa 0e3e 4e82 2dbd 20b5 66bb ea26 41be
00000020: 844a 0fbe bda1 7b3d b963 92bd 1aab 29be
00000030: 3e24 a73d ea4b 2d3e 3036 363e 06bc 77bd
00000040: af9e e6bd 250f 52be d847 723d 469f 423e
00000050: 61a3 02be 42f6 aebd 2358 263b ca28 16be
00000060: db16 47be e188 0a3e 9094 07be e5f7 053d
00000070: af7f 953d ee49 9b3d ffb8 90bd 5463 2bbe
00000080: ca73 02be 96b7 d2bd b10d 43be 1752 523e
00000090: 02ca 0d3e 44c0 d9bd 8507 26bc b8af 70ba
000000a0: c1d6 c33d 5504 cf3d ad9e ae3d 0ec2 d3bd
000000b0: 8439 fe3d 645e a2bd 2199 47be 3418 47bd
000000c0: 4908 13be 045f 3a3e b1bf 393e 13f1 6cbd
000000d0: 265b 6a3c 2c34 47be 2cfa d43c c807 243e
000000e0: 6035 15be f1c5 f0bb 1e42 c23d ec53 f13d
000000f0: 1036 18be 3cbe 43bd 740e 00be dbad 143d
00000100: 8ab8 0ebe 9cc0 ab3d 5f4a d9bd d626 e33d
00000110: 99a0 273e 1e1d 1a39 3e38 193d a7f8 9e3d
00000120: 318d 48be 90d0 973d c178 ff3d fa46 373e
00000130: 19cc aebd c8d1 febd 268f efbd 3bc9 1f3e
00000140: 0176 d83d cb44 b13d 9de0 ed3d 683b 95bd
00000150: 7afe 6abd 7203 423e 6701 c0bc 43c8 c73d
00000160: ec28 e13d 0097 f7bd f082 1e3d 4859 363e
00000170: f272 e53d d706 483d 3cc9 023e 1ff6 47be
00000180: c255 76bd 61fd bc3d fcd2 93bd 4d57 ae3d
00000190: 1e96 86bb a2bd a4bd 8544 093e b792 483d
000001a0: cda2 edbd de59 bfbd 11cf 4b3e 2e78 fabd
000001b0: 709f 88bd b2e6 503e 1748 bc3c 640c 1a3e
000001c0: 2e18 313c 7bf3 e93d 9790 c6bd b040 343e
000001d0: cc01 893d f003 36be e3d3 10be 8a84 4ebd
000001e0: d8fa f7bc 2294 e7bd 3c47 d3bd be04 1ebd
000001f0: 30ca 2c3e 9210 c5bd bdce 13be 1e4b 033d
00000200: 58d0 d2bd a1a4 3fbe a5ce cbbd 2390 45bd
00000210: 338f 27bd d693 1f3d aaf5 0a3e 9664 063e
00000220: f325 eb3c ee71 f5bd 8c0e a3bd 8ab0 e13d
00000230: b6bb e2bd e3cb ebbd f545 d03d f232 febd
00000240: c198 95bd dfe3 d53d 860f 39be 81b6 f5bd
00000250: fa77 4abe 89c8 5d3d 323d aabd ab47 d8bd
00000260: bd01 463e 1ae8 2f3d 290b 08be a7b3 37be
00000270: 7086 f93d 67a8 b23d 8cad 633c 1740 e6bd
00000280: f467 95bd 0e9b 0abe 91dc 86bd 833d 2dbe
00000290: ddb1 863d 9141 1e3e de2c c5bd ef6d b7bd
000002a0: 4409 27be 7b6f 053e 2bcc 24be ffb3 f3bd
000002b0: 75c8 a23c 4bf4 4f3e ef3e 273e aa6f e13d
000002c0: f60e 413e 5173 173e 93a0 003e a6dd e6bc
000002d0: f8d1 143e aad1 e8bd 3a71 a33d 9695 babd
000002e0: 7bd6 e5bd cde7 b9bd 010c 3dbe dc68 15be
000002f0: 11b7 293e a8ad 21be e1b7 df3d 15e2 da3d
00000300: 40bd 10bd df6e 9fbd 6e25 cebc ceb7 03be
00000310: c2eb 73bd c284 28be e9bc 2c3d 67f7 1dbe
00000320: 8cf7 c93d 1999 033d dfe9 31be d30f 283e
00000330: a0ca 03be 45eb 19be 3690 93bd 5156 d13d
00000340: 3906 e33d 810a 9a3c c444 c6bd 0705 653d
00000350: 2f30 17be a6ca 94bd c38c 433e 3227 fbbd
00000360: 8d7a 05be b098 3e3d df1e 37be 5dd5 de3d
00000370: 1bd6 3ebe 6cde 473d 0c0a 023e 8496 b7bd
00000380: 5e2f 213e b3fb 4b3e 9565 e23b 5f7b 833d
00000390: 3d3f 97bc 8922 bf3d 8265 d9bd ecd9 223e
000003a0: b339 ea3d 4653 a33d 02cf ad3d a922 bc3d
000003b0: 6923 48be d59f 8d3d 0ee3 473e 4f96 f83d
000003c0: b3f4 b0bd 3b92 e3bd 5fba f43d 0503 fc3d
000003d0: e520 b43d 1724 8e3c 018e d7bc 5d98 80bd
000003e0: e581 16be a3a0 a8bc f9f2 b13d d236 503e
000003f0: a290 493e df39 283e 85a4 183e f520 d53b
-0.057911012 -0.09381153 -0.05239288 0.18609288 0.13932346 -0.042360596 -0.0035203174 -0.18862501
-0.13993269 0.061433543 -0.07147927 -0.16569176 0.081612095 0.1692349 0.17794108 -0.060482047
-0.11260735 -0.2051359 0.059150547 0.1900607 -0.12757637 -0.08543064 0.0025382123 -0.14663997
-0.19442312 0.13528778 -0.13240266 0.032707114 0.07299744 0.0758246 -0.07066535 -0.1673711
-0.12739483 -0.102889225 -0.19048192 0.20539127 0.13846591 -0.10632375 -0.010133629 -0.00091814576
0.095624454 0.10108248 0.08526359 -0.10339747 0.12413314 -0.0792816 -0.19492008 -0.048607066
-0.1435863 0.18200308 0.1813953 -0.057847094 0.014303958 -0.19453496 0.025998197 0.16018593
-0.14571142 -0.007347815 0.09485267 0.11783585 -0.14864373 -0.047788844 -0.12505513 0.036298614
-0.13937584 0.08386347 -0.10609888 0.11091392 0.16369857 0.00014697431 0.037407152 0.077622704
-0.1958511 0.07412827 0.12474204 0.17898169 -0.08535022 -0.12442356 -0.11697225 0.15604107
0.105693825 0.08655699 0.11615107 -0.072867215 -0.057371594 0.18946627 -0.023438169 0.09754994
0.10994133 -0.12089348 0.03869909 0.17807496 0.11203565 0.048834648 0.12772077 -0.19527481
-0.06014038 0.09228016 -0.072179765 0.08512745 -0.004107251 -0.08043982 0.13405044 0.048968043
-0.116033174 -0.09343313 0.19903208 -0.12229954 -0.06671035 0.20400503 0.022983594 0.15043789
0.010808988 0.11423393 -0.09695547 0.17602801 0.06689796 -0.1777494 -0.14143328 -0.050419368
-0.030270979 -0.11307551 -0.10316321 -0.03857874 0.16874003 -0.09622301 -0.14434333 0.03205406
-0.10293645 -0.18715145 -0.09951524 -0.048233163 -0.04090805 0.038959347 0.13570276 0.13124308
0.028704619 -0.11984621 -0.07961759 0.1102 -0.11070959 -0.11513498 0.10169593 -0.12412061
-0.07304526 0.104438536 -0.18072328 -0.119977005 -0.1977233 0.054146323 -0.08312453 -0.105605446
0.193366 0.04294596 -0.13285507 -0.17939626 0.12183845 0.087235264 0.013896357 -0.11242693
-0.07295218 -0.13535711 -0.065850385 -0.16917996 0.065768935 0.15454699 -0.09627698 -0.08956515
-0.16312128 0.13030808 -0.16093509 -0.11899566 0.019870976 0.20308034 0.16332601 0.11007626
0.18853363 0.14790083 0.12561254 -0.028181862 0.14533222 -0.11368115 0.07980581 -0.091105625
-0.112225495 -0.090774156 -0.1846161 -0.14590782 0.1657374 -0.15788901 0.10923744 0.10687653
-0.035336733 -0.07784819 -0.025164332 -0.12863085 -0.059551008 -0.16456893 0.042172346 -0.15426408
0.09861669 0.032128427 -0.17374371 0.16412286 -0.12870264 -0.15031154 -0.072052404 0.10221542
0.11085171 0.018803837 -0.09681085 0.055912998 -0.14764474 -0.072652146 0.19096665 -0.12263335
-0.1303503 0.046532333 -0.1788287 0.108805396 -0.18636362 0.048796102 0.12699145 -0.089642555
0.15740725 0.19920234 0.006909082 0.064200155 -0.018462772 0.09332759 -0.10615064 0.15903443
0.114367865 0.079748675 0.08486749 0.091862984 -0.19544758 0.06915251 0.19520208 0.12138044
-0.08640423 -0.111118756 0.1194961 0.123052634 0.08795337 0.017351193 -0.02631283 -0.06279061
-0.14697988 -0.02058441 0.086889215 0.20333412 0.1968408 0.16428326 0.14906509 0.006504173

bias f4 [32]
00000000: e07f 4f3b 5da6 fb3d b7a9 1a3e 1210 9d3d
00000010: 931c a6bd ae15 483c 8a8b 99bd b384 34be
00000020: a843 14be cec0 46be 12d7 343e 40c8 02be
00000030: fc65 933d 32a9 b6bd a93a 363d 0933 873c
00000040: afef 703c 80e9 efbd 60e6 233e e3e6 75bd
00000050: a34f 213e 1811 f43d 8e09 dabd c55b 35be
00000060: d822 ac3d 2022 9b3d b584 913c 5a4a 0abe
00000070: a8a5 17be 0626 b9bd b318 48be cfc3 45be
0.0031661913 0.12287591 0.15103804 0.07669081 -0.08110919 0.0122122 -0.07497318 -0.17628746
-0.14478934 -0.19409487 0.17660168 -0.12771702 0.07197186 -0.0891899 0.044489536 0.016503828
0.0147055825 -0.117144585 0.1600585 -0.060034644 0.15753035 0.11917323 -0.10646354 -0.17710789
0.084050834 0.07574868 0.017763475 -0.13504925 -0.14809287 -0.090404555 -0.19540672 -0.19312976

weight f4 [32, 32]
00000000: fb08 b63c a2b9 1bbe 63ca 913d 2a22 673d
00000010: bd47 a4bd 53aa 163e 93d4 0b3e ce9b d9bd
00000020: cea0 8bbd aae2 c73b 5980 09bd 6003 0a3d
00000030: 87d5 52bd 4330 11be cd0b 20be b559 b43d
00000040: 6614 953d 59c5 03bd 39dc 1b3d e82f f1bd
00000050: 0525 f5bd 28fa 09be 91ac f6bd 5900 90bc
00000060: d2f1 dd3d 3fec 1c3e e536 29be bbb2 6f3d
00000070: c09b f23c 32f1 0fbe 4551 103e 065a 9cbd
00000080: f915 2fbd 4d33 243e c7b5 ff3d d603 0f3e
00000090: 0ec5 2d3e d727 233e 6bab 273e 0139 2e3d
000000a0: 79de f1bc e379 39bd b767 033e 0b5d 343c
000000b0: b7bc f13d b032 273e 367d d5bd 4bf8 1ebc
000000c0: 8ce6 30be 54d0 7d3d 87ca 1c3e 046a 503d
000000d0: 4355 c83c 6d21 35be c0d7 05bd 6b86 173d
000000e0: d8a9 313e f381 28be ab93 1cbe bc65 edbd
000000f0: 99ef 0a3e 2f58 27be b7e8 44bd 8cee 0bbe
00000100: 8fa9 8c3d 3cd4 2e3c 403b a93d 3bc3 febd
00000110: c87b 1bbe 605f 153e f6b6 d1bc b54c e6bc
00000120: cee8 27be 77bf ae3b dcc0 2cbe 473d 083e
00000130: 2273 d1bd 4c84 f4bd ab0e 92bd ec05 203d
00000140: 30a2 fb3d fe35 073e e49d a73d 463b 33bc
00000150: 9f29 2e3d 68d2 aabd 9018 153c cd85 07be
00000160: a75a 06be 6d6f e63d defd 36bd 44e5 f6bb
00000170: 6320 02be 231a be3d 9e59 083d bee7 ddbd
00000180: 4e02 c93d 36d5 79bd 7e8a 76bd 8195 1e3e
00000190: 1d9c dd3d c018 933c 6992 9d3c 9719 933d
000001a0: 1419 463d 77c8 d9bd a848 843d 7ade efbc
000001b0: 0e42 b8bd 4b88 5bbd 5a8a ce3c cf00 54bd
000001c0: f8ee a43d 7656 71bd 52c0 853c 03ea 3d3c
000001d0: 3c89 2abe 327d 08bd 3daf 09be f354 ff3b
000001e0: 7f71 283e 7b3a 8bbd 4fe1 0ebd cc34 16be
000001f0: a942 093e 918e 683d cc6a fcbd 9bb2 b6bd
00000200: 0de6 00be e77e 153e 54dc 203e d1da 7abd
00000210: 87a5 29bd d34e a9bd 8268 9d3d 84f0 34be
00000220: 2752 06bd 8ec8 393d e31c 28be 6bd1 02bd
00000230: 3166 0abe 775d c53d bdf8 91bd 78cd db3d
00000240: 6490 ba3d d8b6 cabd bf30 23be aa53 533d
00000250: 5a6e c63d 51d6 ddbd a2fb a53c 1df7 053e
00000260: c410 223e b2b9 c13d ff5b f33c 9c01 a7bc
00000270: 618a fb3d dac2 0b3d 6266 123d 73bd 1fbe
00000280: b06b 1a3e 3145 203e cbce afbd c49a 5bbd
00000290: 3416 64bd 496a 063c 88e3 283e 7045 19be
000002a0: 18c6 5b3d 6889 a1bd f306 e5bc 3de3 fdbd
000002b0: eef5 313e dfcf b43d ef76 40bd c4a8 19be
000002c0: cffe 83bd 718f 093d 88db 2fbe 7f55 30be
000002d0: ef82 6ebd 77a2 abbd 9f73 e0bd c886 0e3e
000002e0: a0fb 323e 20fe 5fbc a111 983c e9b2 0c3e
000002f0: f744 c8bd 25fe 51bd d811 213e 7aa9 84bd
00000300: e0f7 a9bd 2cb0 1a3e 4c10 e3bd a2dd 873d
00000310: 6c33 9b3d bd19 2ebd de44 80bd e3a4 adbd
00000320: a078 7d3d d5d6 f1bd c748 8b3d ea9c d4bd
00000330: e398 27be 849f 103d 07b0 913d eb18 80bc
00000340: ec31 6bbd 4931 09be f488 15be 6326 47bd
00000350: 8eaa f4bd 9068 223e 38d7 04bd 6ee8 0e3e
00000360: f260 a5bd ba7f e5bd 2a33 b7bc c275 d93d
00000370: 60e8 2f3e 0311 c03d 96b1 fabc ca35 cbbd
00000380: 2a71 9d3d 545d 023e 87d4 20be c0ab 1ebb
00000390: 7549 babd dbc5 c53b 70fe a9bd 55eb c23d
000003a0: 8ca1 003e 8641 0ebd 3928 8abd 6913 80ba
000003b0: f882 e13d 9eef 243e 8c78 d13c c30e 04be
000003c0: 3a53 343e 5af8 78bd 1f28 d43d df48 643d
000003d0: f0af a6bd 9661 28be be52 6bbd 59bd 7d3d
000003e0: e807 a93d faf2 4abd 336f 17be d2cd 3ebc
000003f0: 74e5 0a3e 90a4 9dbd 86d7 e1bb 1fbc b53d
0.02222108 -0.15207532 0.0711868 0.056429066 -0.080214955 0.14713411 0.1365531 -0.106254205
-0.068177804 0.0061000185 -0.033569667 0.033694625 -0.051473167 -0.14178567 -0.15629502 0.08806173
0.07279281 -0.032170627 0.038051818 -0.117767155 -0.119699515 -0.13474333 -0.12044633 -0.01757829
0.10837139 0.15324496 -0.16524847 0.05852006 0.029615283 -0.14056852 0.14093502 -0.07634358
-0.042745564 0.16035195 0.12485843 0.13966307 0.16969702 0.15933166 0.16373985 0.042534832
-0.029525029 -0.045282256 0.12832533 0.011008511 0.118035726 0.1632793 -0.10424273 -0.009702752
-0.17275447 0.061966255 0.15311633 0.050882354 0.024454718 -0.17688532 -0.03267646 0.036993425
0.17349946 -0.16455822 -0.15290706 -0.1159167 0.13567962 -0.16342233 -0.048073497 -0.13665217
0.06868278 0.010670718 0.08263254 -0.12439581 -0.15183938 0.14587164 -0.025599938 -0.028112749
-0.16397402 0.005332883 -0.16870445 0.13304625 -0.10227038 -0.11939296 -0.07131704 0.039068148
0.12286794 0.1320419 0.08184412 -0.010939425 0.04252016 -0.08340913 0.009100094 -0.13234635
-0.13120519 0.112517215 -0.0446757 -0.007534655 -0.12707667 0.09282329 0.03328859 -0.10835217
0.09814893 -0.06099435 -0.06019067 0.15486719 0.10820792 0.017956138 0.019234853 0.07182615
0.04836376 -0.10633939 0.064591706 -0.02928089 -0.08996974 -0.053596776 0.025212456 -0.051758584
0.08053392 -0.058920346 0.016327057 0.011591437 -0.16653913 -0.03332252 -0.13445754 0.007792109
0.16449545 -0.06798264 -0.03488284 -0.14668578 0.13404335 0.056776587 -0.123250574 -0.08920785
-0.12587757 0.1459919 0.15709049 -0.061243836 -0.041417625 -0.08266988 0.07685949 -0.17669874
-0.03279319 0.04535728 -0.1641727 -0.031937998 -0.13515545 0.09636968 -0.07127521 0.107325494
0.091095716 -0.09898156 -0.15936564 0.05159346 0.09689017 -0.10831893 0.02026159 0.13082547
0.15826708 0.09459247 0.029706953 -0.02038651 0.12282253 0.03412137 0.03574217 -0.15599613
0.15080142 0.15651394 -0.085843645 -0.053614393 -0.055685237 0.008204051 0.16493046 -0.14967895
0.053655714 -0.07887536 -0.027957415 -0.12396858 0.17378971 0.08828711 -0.046988424 -0.15005785
-0.06445085 0.033584062 -0.17173588 -0.17220114 -0.058230337 -0.08380597 -0.10959553 0.13918602
0.174788 -0.013671428 0.018563094 0.13740124 -0.09778779 -0.05126776 0.15729463 -0.064776376
-0.082992315 0.15106267 -0.11087093 0.0663407 0.07578167 -0.042505015 -0.062631354 -0.08478715
0.061882615 -0.11808554 0.068009906 -0.103814915 -0.16366915 0.035308376 0.07113653 -0.015636882
-0.057420656 -0.13397707 -0.14603025 -0.048620593 -0.11946593 0.158602 -0.03243181 0.13955852
-0.080751315 -0.112060025 -0.022363264 0.10618164 0.17178488 0.09378245 -0.030602258 -0.09922369
0.076876 0.12730914 -0.15706073 -0.0024211258 -0.09096042 0.006035549 -0.08300483 0.09517542
0.12561625 -0.034730457 -0.06745953 -0.000977141 0.110113084 0.16107032 0.025570177 -0.12896256
0.17609873 -0.06078372 0.10359215 0.055733558 -0.08139026 -0.16443476 -0.057451956 0.061948154
0.08253461 -0.049548127 -0.14788513 -0.011645751 0.13564092 -0.076974034 -0.0068921475 0.08873772

bias f4 [32]
00000000: 9829 273e a7b7 f9bd 9049 22be 10c0 e4bc
00000010: 5550 7ebd e8d3 74bd 2eb2 203e 80d7 153e
00000020: 8287 143e e48d 2bbe 34dc 263e c336 dcbd
00000030: 6b3a 9dbc 5957 343e 70e4 1dbe 9924 12be
00000040: c71c 8a3d 31f5 ae3d 22b2 0ebe 970f a0bd
00000050: e5fa 0e3e 1d85 02bd fe5e 25be 7e78 ef3c
00000060: 57b0 b03c ae00 c93b 364f 0b3e 538a 643d
00000070: d1e7 f73d 34ff 82bc c4ad ff3d a6fa a23d
0.1632446 -0.12193232 -0.15848374 -0.027923614 -0.06208833 -0.059772402 0.1569297 0.14632988
0.14504817 -0.16753346 0.16294938 -0.107526325 -0.019192895 0.17611445 -0.15419173 -0.14271773
0.0674377 0.0854286 -0.1393514 -0.078154735 0.13962896 -0.031865228 -0.16149518 0.02923226
0.02156846 0.006134114 0.13604435 0.05579598 0.12104762 -0.015990831 0.12484315 0.07957964

weight f4 [32, 32]
00000000: fd15 1a3d 5cd1 1bbd 2eff 03be 6ab3 25be
00000010: 6240 3a3e d103 263e 91e3 aa3d 4f3a 123e
00000020: 3a21 c33c e441 b0bc 4aba e4bd 093b 1abe
00000030: cbf0 01be 4203 343e 5d5c 1c3e 1729 7c3d
00000040: 78b6 143e a715 6abd 6046 043e 8092 103c
00000050: 34ec 4f3d 3488 ba3d ac3d d23c 0657 313d
00000060: 1852 5abd fd93 04be 61a8 4ebd a64d a0bd
00000070: 0d39 fcbd f191 2ebd 6eb9 373d 22a7 bdbd
00000080: 1e4b 033e b06a c7bd 377d 813c dcc5 67bc
00000090: 2ebf 48bd 6476 cbbc e417 2ebe de13 1a3e
000000a0: 9232 06bd e90b 2e3e 85c0 b73d b3b3 38bc
000000b0: 5250 a73d 5225 b73d 454d 1fbe 1d33 aa3b
000000c0: bc6b 763d 2480 c83d cc4b 073c cdf9 103d
000000d0: ba00 b63d a259 d53c 45e5 73bd f13c 0fbd
000000e0: 0f8a ea3d 2bb0 3dbc 828a 2b3e 1485 b7bd
000000f0: 16b3 2f3e 6fe5 db3c 8dfd 9f3c d332 82bd
00000100: c417 bebd 412c e63d 762c 003e 5992 a43d
00000110: 8922 1f3e 056d 30be 671c 163e efc9 fbbd
00000120: 5977 c53d 7a77 953d 131f 8e3d 5423 143d
00000130: 0bea d43d 1dee 83bd 1a52 5bbd 16ca 08be
00000140: d05b fabd 76f9 f4bc 3e69 09bd c669 f3bd
00000150: 6308 ed3d 630a 913d 3cb7 073e f0ea 19be
00000160: 3125 1bbe 3d0f 303d 9ca0 04be 74c7 1cbe
00000170: 0544 993d e34a 083e 2109 0abe dbf7 1e3e
00000180: f090 efbd 531a 5f3c 5bb1 1c3e 1328 fe3b
00000190: 0b28 243e 814f d63c d036 febc 32ee 20be
000001a0: 13e3 463b fcc7 3d3d f27e b63d 6e92 f33d
000001b0: 7ca3 213e b5b6 f9bd 1e34 20be e4b8 253e
000001c0: 29b3 713c c8af a4bd fa1e ff3d a504 38bd
000001d0: 6a4f a43d 7ad8 ed3c 03a5 6e3d 5772 e1bd
000001e0: cd88 0d3e 408f df3d 475e 0d3e 49d4 fbbd
000001f0: 22f9 a8bd 0712 cb3d 2d3b d3bd 5c14 04be
00000200: 9e7a bfbd e53a 7bbd f271 2f3e da78 133d
00000210: 75a5 1e3e 0a75 d83c 2001 20be 1f9b 1fbe
00000220: a3c0 313e 6dbb d83d 265d df3d 8037 bd3d
00000230: dd37 30bd 2063 a73d 29c9 dfbd 88eb cf3d
00000240: 8747 b83d fec5 30bd 021d 53bd fc6b 273e
00000250: 2c66 af3d e54a c4bd 726d ed3d 2a57 7fbd
00000260: 9849 873d b034 b3bd 3d15 17bd 1e2f 953d
00000270: 881b 053e 11df 293e b2fe 9dbd f113 b4bd
00000280: f997 133d bfba 5c3d 81f6 623d 08ff d73d
00000290: f0b6 b7bd 255d 8bbd ec6b edbd 28d9 903d
000002a0: e366 663d b57b 1ebe 666e 313e 1b3d 013d
000002b0: da76 d43d 8bf3 143e 04e5 0ebe ab62 ce3d
000002c0: 3df7 063e 3e75 913d 01f8 8cbd 31c1 2d3d
000002d0: 0277 d53c 3119 d23c b980 40bd d85a 323e
000002e0: b4b1 ad3d bbcd 3fbd 10aa 073e 2754 c4bd
000002f0: 36df 16be a590 573c 6157 fdbd 5906 253e
00000300: ba26 18be 4f1b 26be 4af8 c43c b776 983d
00000310: 62e8 1ebd 861d b43c fd50 44bc 68e9 103e
00000320: eeea 4bbd d0cd e83d 2bf9 f93d 5c1c 0b3e
00000330: 0a57 fd3c d680 9abd 6dba 033d bc5a 143e
00000340: 7305 a6bd 277e 413d 58f3 c13d 65af afbc
00000350: c494 b83d 56d3 b53c 0089 3abe 7289 8c3c
00000360: 114c 30be be75 0f3e 0c43 863d 82a8 3abc
00000370: 58cd e0bd 36cc 65bd 6cad 3fbe cee5 07be
00000380: bb90 2dbd 1279 9f3d 2fd4 85bd 789c 5bbc
00000390: d98b c63c 90d2 c53c f93a b13d 6667 34bd
000003a0: 1aa5 333e c314 fa3d 99a3 1cbe 2838 07be
000003b0: 0dc6 75bd ad3e 163d 6c57 153e 1146 09be
000003c0: e2d9 343e dc26 a5bd e5bc 203e 1ec3 a4bd
000003d0: 9523 f43d 38e7 ba3c 31dd efbd a54c 2f3e
000003e0: 9910 07be 7c80 b2bd 97fb fabd eae9 ed3c
000003f0: 937c 2dbe 47bd b03d a259 593d aba7 c1bd
0.037618626 -0.038041458 -0.12890312 -0.16181722 0.18188623 0.16212393 0.08344186 0.14280055
0.023819555 -0.021515794 -0.11168344 -0.15061583 -0.12689511 0.17579368 0.15269609 0.061562624
0.14522731 -0.057149556 0.12917471 0.008823991 0.05076237 0.0910801 0.025664173 0.043295883
-0.053300947 -0.12947078 -0.050453547 -0.0782731 -0.12315569 -0.04261965 0.044854574 -0.09260394
0.12821624 -0.09737146 0.015806777 -0.014146294 -0.04901045 -0.024836726 -0.17001301 0.15046641
-0.03276307 0.16996731 0.08972267 -0.011273312 0.08169617 0.08942665 -0.1555682 0.0051940815
0.060161337 0.09790066 0.0082578175 0.03539448 0.08886857 0.026043717 -0.05954482 -0.034970228
0.11452114 -0.011577646 0.16752055 -0.089609295 0.1715816 0.0268428 0.019530082 -0.0635735
-0.09281877 0.112389095 0.1251696 0.08035726 0.15540518 -0.17229088 0.14659272 -0.12294375
0.096419044 0.07298179 0.06939521 0.036166504 0.10396203 -0.06441901 -0.053545095 -0.1335834
-0.12224543 -0.029904108 -0.033547632 -0.11885409 0.11573865 0.07082059 0.13253492 -0.15031028
-0.15150906 0.042983282 -0.12951893 -0.1531046 0.07483677 0.13309817 -0.13480045 0.15524237
-0.116975665 0.013617116 0.1530203 0.007756242 0.160309 0.026160957 -0.031031996 -0.15715864
0.003034775 0.046333298 0.08910932 0.118931636 0.1578502 -0.12193052 -0.15644881 0.16183811
0.014752188 -0.0804134 0.1245708 -0.044926304 0.080229595 0.029033888 0.058262836 -0.11008137
0.13821717 0.10915995 0.13805495 -0.122963496 -0.08250643 0.09915548 -0.10314021 -0.12898391
-0.09349559 -0.061335463 0.1713331 0.036003925 0.15492804 0.026422996 -0.15625429 -0.15586518
0.17358641 0.10582624 0.109064385 0.092391014 -0.043022025 0.081732035 -0.1092704 0.10152346
0.08998018 -0.04315757 -0.051541336 0.16349787 0.085644096 -0.095845975 0.11593141 -0.062338986
0.06605834 -0.08750284 -0.03688549 0.072843775 0.12998784 0.16589 -0.07714595 -0.08792866
0.036033604 0.053889032 0.055410866 0.1054669 -0.089704394 -0.06804875 -0.1159285 0.07072669
0.056250464 -0.15476878 0.1732727 0.031552415 0.10374232 0.1454603 -0.1395455 0.10077413
0.13180251 0.0710244 -0.068832405 0.04242057 0.026057724 0.025646778 -0.04699776 0.17417467
0.0848116 -0.04682706 0.13248467 -0.09586363 -0.14733586 0.013157045 -0.12370182 0.16115703
-0.14858523 -0.16221355 0.024044175 0.07444518 -0.038795836 0.021986734 -0.0119822 0.14151537
-0.049784593 0.113673806 0.12205728 0.13585037 0.030925293 -0.07544105 0.03216021 0.14487737
-0.08106508 0.04723945 0.09470242 -0.02144594 0.0901275 0.0221955 -0.18216324 0.017155383
-0.17216517 0.14009759 0.06555757 -0.011392714 -0.10976666 -0.056102954 -0.18718499 -0.13271257
-0.042374354 0.07786764 -0.065346114 -0.013404004 0.024236606 0.024148256 0.08653826 -0.04404392
0.1754345 0.12210991 -0.15296783 -0.13205016 -0.06000333 0.036680866 0.1458413 -0.13405634
0.1766124 -0.080640525 0.15697058 -0.08045028 0.11920849 0.022815332 -0.11712111 0.17119081
-0.13189925 -0.08715913 -0.12255018 0.029042203 -0.16942053 0.08629852 0.053063996 -0.09455808

bias f4 [32]
00000000: f712 363e f251 f0bd 024b a43d 1d3e 1abe
00000010: b774 a53d a6d1 03be e7e4 90bd d787 2dbe
00000020: cd17 e23d a0ae 79bd 9d16 1f3e b331 a4bc
00000030: 913e 30bc 7b29 8ebd 4e35 f23b 5fe7 adbd
00000040: 7209 293e 86d1 18be 834c 3dbe 8a73 e23d
00000050: 2ff2 c0bd e4b9 08bd 3089 2bbe 3502 993c
00000060: 87bb 21be d2ad 643c 3778 973d fa51 203e
00000070: d4f2 fa3d 92b2 073e 7b5f 3fbd 81c5 10bd
0.17780672 -0.1173438 0.08022119 -0.15062757 0.08078902 -0.12872943 -0.0707491 -0.1694635
0.11039696 -0.06095755 0.1553597 -0.02004323 -0.0107571045 -0.069415055 0.0073916083 -0.08491396
0.1650751 -0.14923677 -0.18486218 0.110571936 -0.09421193 -0.033380404 -0.16751552 0.01867781
-0.15794192 0.013957458 0.07395976 0.15656272 0.12253347 0.13251713 -0.046721917 -0.035344604

weight f4 [32, 47]
00000000: 6565 eabd b4b5 fdbd f60a 7abd 34f7 de3d
00000010: 4167 773d d87a b7bd 2e2d ff3d e4aa 243d
00000020: 3718 62bd 7b72 b63d fa51 eb3a ec29 1cbc
00000030: ab9e e7bd 6cb6 c43d 08c7 09be 8c3a 05be
00000040: e995 ffbc 0985 2a3d 74cb 1fbc 7006 643d
00000050: e4e9 553d 4040 2abd d6c6 a8bd e6d7 8a3d
00000060: d9dc 9c3d ae05 c83d 5b18 10be 3194 74bd
00000070: 3642 ae3d 59ff 863d 5825 a5bd 1a24 253d
00000080: f0bc dd3c 1a13 8dbd 8a3c df3d 2800 693d
00000090: 3079 903d fe50 713d 1317 333d 073d abbb
000000a0: 5ac0 d93d 654a a5bd 2bb5 113e 9d34 f3bc
000000b0: 612e c13d 68cd 0cbe c9ad b73b 2fe1 123e
000000c0: e1ee 96bd 4b9e 783d 1b95 84bc 0c26 0f3e
000000d0: f508 3a3d e307 92bd c696 e0bd 8a3f cbbd
000000e0: 73cd 1e3b 52f0 76bd 1ffb 053e 4aac a53b
000000f0: 1d86 5e3d 2d4f 113e 4257 70bd ef48 38bd
00000100: a662 d4bd e8e3 f33d 983d d7bc 42de f1bd
00000110: 6eef 34bb 69ba c6bd abe2 e83d d7d3 d1bd
00000120: 921f b3bd d726 d73d 4cc5 95bd 9779 93bd
00000130: 2c48 2a3d 067e be3b 28f1 42bd 66a2 063e
00000140: a8ba 903c 7b32 933d 8802 603d a0cf 2d3d
00000150: 6c6c e2bd 9c56 0dbe e0b2 f6bd 0a85 663d
00000160: 11d6 acbc fc26 4dbc 7e21 853d f72e ed3c
00000170: e6c8 fe3d 98d4 533c 0888 503c deb4 a1bd
00000180: 0704 ddbd d52a 483d 959f c43d 77bb 193e
00000190: dad9 db3d a003 fabd 9d71 c2bd 0aec f33d
000001a0: 9795 34bd dae4 89bd f42e 75bc b2c2 04be
000001b0: 38d3 dd3d 732f f63d 6f8b a93d 9fb5 febd
000001c0: 8191 1f3d ad13 d6bd c4c7 e8bd e095 863d
000001d0: ed25 a53c a5a3 c03d 90ad 053d c3cf be3d
000001e0: 7bc9 913d c217 003c 567c 643d 8310 a4bd
000001f0: 8c08 8d3c 3734 16bd e613 dabd aed3 c13d
00000200: 10b2 dcbc c166 903d a960 37bd 0491 08be
00000210: 5357 adbd f102 bdbc 815a 9b3d 99d4 963d
00000220: 6019 aabd 322b 09be e747 f4bd a896 67bd
00000230: 9d92 d9bd f063 083e b2b9 d9bd 27b9 2e3c
00000240: 196c e2bd 964c 2a3c a6eb 9cbd 1aad 6fbd
00000250: dd92 00be 7f24 17bc 47ab 0ebe 1e7d fcbd
00000260: eac3 02be eada 84bc 96f0 aabd 7d73 d4bd
00000270: ee83 8ebd 3f54 a83d 1c05 e7bd e9d1 92bd
00000280: e791 783d 13fa 08be 3f74 8a3c b37a bb3d
00000290: c872 863c 068d 5abd 83be a3bc 88c5 e23c
000002a0: 93e9 dd3d e4d3 eebd 7a38 953c 0d1c e63d
000002b0: e9cf 3bbd 013c 1fbd ce83 eabd b151 c2bd
000002c0: c77b 2b3c 5e0f f4bd dd98 ec3c ca05 363d
000002d0: 4765 12bb 711f a13d a853 893b 3036 d43c
000002e0: 6f6c f53d 5dde a23d 04ed cabd 1eb5 84bc
000002f0: f870 cd3d 2d74 8dbd a5e3 c5bd 6364 7fbd
00000300: a77b 8fbd 6efa 0f3d 22b5 a6bc 3174 0c3e
00000310: 524a c3bd 79be ca3d 7f00 c0bd 0a84 9b3d
00000320: 6de1 fb3d 126f 96bd 30ba 0a3e 6fde 3ebb
00000330: 8d2b 13be 4428 ac3d fa8c e7bd 323c fcbd
00000340: 4d82 e8bd ab5f 8c3c d64f fdbd 7bc0 2c3d
00000350: 66f5 3fbd d736 a93d c03b 003e cf74 0c3e
00000360: 1f32 033e 6675 12be f0b3 f2bd eb9f 763d
00000370: 9e2e e6bd 4847 483d b41e 34bd 918c 00be
00000380: a2e3 3c3d 67d1 06be 795d 9b3d 89a7 df3c
00000390: 1b8b 0ebe b740 6d3c 503f 053e 730f f5bd
000003a0: 45c4 72bd 52de 703d f9ed f9bd 8844 5fbd
000003b0: 0e82 efbb 6b34 423c 0c44 fa3d 8028 7a3d
000003c0: 652f 1bbe eb4a aabc d443 a7bb 8267 efbb
000003d0: fba6 083e c5b8 1ebe c078 d1bd 1d88 c33d
000003e0: 72ee 8dbd 8f9a 2f3d db4b 12be 8ba0 fb3d
000003f0: 6297 ca3d ec4d a0bd 8c6c e93d 2983 33bd
-0.11445121 -0.12388173 -0.06104561 0.10886994 0.060401205 -0.089589775 0.12459789 0.040202036
-0.055198874 0.08908554 0.0017953508 -0.009531479 -0.113095604 0.09605107 -0.1345483 -0.13010615
-0.031199412 0.04163078 -0.009753097 0.0556702 0.05222501 -0.04156518 -0.0824105 0.067794606
0.07659311 0.09766708 -0.14071791 -0.05971164 0.085087225 0.065916725 -0.080637634 0.040317632
0.027067631 -0.06888409 0.10900219 0.056884915 0.07054365 0.05891513 0.043723177 -0.005225781
0.10632391 -0.0807083 0.14229266 -0.029688174 0.09432674 -0.13750231 0.0056054336 0.14343713
-0.07369781 0.060697835 -0.01618438 0.13979357 0.0454187 -0.071304105 -0.10966258 -0.099242285
0.0024231344 -0.06028778 0.13084076 0.005055939 0.05432712 0.1419036 -0.058676966 -0.04499143
-0.10370378 0.11908704 -0.026274487 -0.118099704 -0.0027608532 -0.09703524 0.113713585 -0.10245483
-0.08746256 0.10505455 -0.07313022 -0.07200926 0.041572735 0.005813363 -0.047593266 0.13147888
0.01766713 0.07187363 0.054689914 0.042434335 -0.11055836 -0.1380257 -0.120458364 0.05627922
-0.021098169 -0.012521502 0.06500529 0.028953059 0.12440662 0.012929104 0.012727745 -0.07895826
-0.10791784 0.048868973 0.0960075 0.15012918 0.10734911 -0.12207723 -0.09494326 0.11910255
-0.044087972 -0.06733103 -0.014964808 -0.12964895 0.108313024 0.12020769 0.08278548 -0.12436985
0.038957123 -0.104529716 -0.11366227 0.06571555 0.020159686 0.09406213 0.032636225 0.09316971
0.071185075 0.007818164 0.05578264 -0.08010962 0.01721599 -0.03667089 -0.106483266 0.09464203
-0.026940376 0.07050849 -0.044769917 -0.13336569 -0.084639214 -0.023072692 0.075856216 0.073647685
-0.08305621 -0.13395384 -0.11927777 -0.05654016 -0.106236674 0.13319373 -0.10631122 0.010664261
-0.11055774 0.010394236 -0.07662134 -0.058514692 -0.12556024 -0.00922501 -0.13932525 -0.12328552
-0.12770048 -0.016217668 -0.083466694 -0.1037359 -0.06958757 0.08219194 -0.112802714 -0.071689434
0.06068602 -0.13376646 0.016901134 0.091542624 0.016412154 -0.053357147 -0.019988304 0.02768208
0.10835566 -0.11661509 0.018215407 0.11235819 -0.045852575 -0.038875584 -0.11450921 -0.09488238
0.010466523 -0.119169936 0.028881485 0.044439115 -0.0022338198 0.07867325 0.004190881 0.025904745
0.11983573 0.07952569 -0.099084884 -0.016199645 0.10031313 -0.069069244 -0.096625604 -0.062351596
-0.07006007 0.035150938 -0.020350043 0.13716199 -0.0953566 0.09899611 -0.093750946 0.07593544
0.12298856 -0.07345404 0.13547587 -0.002912428 -0.14372082 0.084061176 -0.11306186 -0.12316169
-0.11352978 0.017135462 -0.12368743 0.04217575 -0.04686489 0.08262413 0.12522793 0.13716434
0.12812088 -0.14302596 -0.118507266 0.060211103 -0.1123936 0.048896104 -0.043974593 -0.12553622
0.046115525 -0.13165818 0.07586188 0.027301567 -0.13920252 0.014480761 0.13012433 -0.11965837
-0.05926921 0.05880577 -0.12203593 -0.054508716 -0.007309205 0.011853318 0.1222001 0.06107378
-0.15154798 -0.020787677 -0.0051045213 -0.0073060403 0.13344948 -0.15500171 -0.10228109 0.09547446
-0.069302455 0.042872008 -0.14286749 0.122864805 0.09892155 -0.078273624 0.11397657 -0.043826256

bias f4 [32]
00000000: 1e26 ee3d c716 cb3d fd1c 023e bfa7 cfbd
00000010: d765 0abe f79a 9abc 89d4 a7bd 61a4 17bd
00000020: 45cc c83d 49ab 32bd 8e73 913d 14af 4b3d
00000030: 593d 053e d54d 8dbc c5f0 133e 000f afbd
00000040: 0e9d 443d 5762 82bd 0ee9 ad3d 85be efbd
00000050: c1b2 ce3d 2a88 1b3d c903 f13d f8e1 0ebe
00000060: ec29 f13d 0cdc 173d e135 c33d 10a6 b13d
00000070: 6d05 053e ff07 7c3d 8ce2 313d fdb5 ee3c
0.11628364 0.09916454 0.1270637 -0.10139417 -0.13515411 -0.018872721 -0.08194835 -0.037022
0.09804586 -0.04362038 0.071021184 0.049727514 0.13011684 -0.017249027 0.14447315 -0.08547783
0.04800134 -0.06366413 0.08491717 -0.117062606 0.10092688 0.037971653 0.117683 -0.13953388
0.11775574 0.037075087 0.09531761 0.08674252 0.12990351 0.061531063 0.043428943 0.029139513

weight f4 [32, 32]
00000000: c2a6 9a3b a6c3 b33d 2667 8b3d 3464 253d
00000010: f3fb a7bd 181a b83d 78b1 14be 9c45 743d
00000020: 2575 613d 719a c9bd aaa8 3ebd 7b20 58bd
00000030: 9bac 83bd 8859 e4bd 6229 f0bd 6d78 703a
00000040: 029d c23a 9c95 3b3d 87ce 2bbe f4e9 333e
00000050: f86d df3c 833a 1bbe eb94 29bd d938 e3bd
00000060: 97ba 273d 09cc 9a3d afa4 d1bd 008f 203e
00000070: 12d0 1bbe f372 813d a8a7 163d ebfd d83d
00000080: a3a2 c23d 1795 393a 77be d2bd 4dd8 26be
00000090: c090 153e 40cd a53d ae23 3c3d 964c 453d
000000a0: a7ba 9e3c 3275 69bc 5305 bc3d 8f0d 0dbe
000000b0: 12a8 4b3d 99f0 033e 5949 673c d177 19be
000000c0: 313a 40bc aafb 78bd c69d 7c3c 5efa 96bd
000000d0: 9670 15bd 9d68 22be a453 9cbd 9e7f d2bd
000000e0: f15b 0f3d f952 e33d 6f7b d1bd 0682 15be
000000f0: bdd1 bfbd 0ff2 273e ae67 b43d 71c5 093e
00000100: 6bf4 933d d63c d8bd f8ed 1b3d ae9f 1fbe
00000110: 93e0 00be 6490 a7bd 96c3 30be cda8 24bd
00000120: 3464 c9bd 862c 1abe 3fa7 043e 51dd 31be
00000130: bf1a 1abd c19c ad3c 6230 0ebe 0ecb 1b3d
00000140: 5b80 a1bb 2ad0 1a3d 9c9f 16be b831 4a3d
00000150: 33c6 ee3d e2cc 313d 6d36 e33b 0d56 07be
00000160: 7646 b23d 5f69 16be 5f31 a73d a88a fb3d
00000170: 28ec 30bd 0290 033e e0ae adbc 9057 7ebd
00000180: 9f67 c73d e9dd 0f3e a8c1 03bd 2a3e 14be
00000190: bed3 c83d 6eca 02be 9d20 8c3c 5557 ff3d
000001a0: cd96 2d3e 91a0 c83c 715c 1b39 d34d 293e
000001b0: bb82 97bd af37 fd3d 4187 bd3c b7f4 6b3d
000001c0: a1d3 933c fd4d e4bd 0b76 09be 8b88 d03d
000001d0: 106e b23d 1e9d 95bd fd05 c23d f2ed 153e
000001e0: ce58 aa3d 4886 55bd 032f 043e 8ce2 21be
000001f0: c327 62bd 1131 183e ed66 b53d 800a 253c
00000200: ef7a a8bd 5b71 0b3d c872 09be 397f bbbd
00000210: b1b3 d2bd 5a51 373c 3ee8 d93d fbd2 013e
00000220: 5eae 173e bfb9 183e 7631 fbbd 5532 3a3d
00000230: fff0 a4bd 572e 953d a40f 28be c484 80bd
00000240: d560 3a3d 7bcb 9cbd 51df fabd 8810 30be
00000250: 15f7 8ebb 5949 9a3d 965d c8bc 608c 093e
00000260: 5627 20be 3922 123e 1381 dcbd dea4 11bc
00000270: 65de 8f3d dce6 3cbd 4458 78bd af37 073e
00000280: f29b cfbd 40ea d73d a016 0ebe 2dd2 583d
00000290: 0468 07be 41b7 31bc 1839 f8bd 4441 c83d
000002a0: 9c3b c1bd aaf0 2ebe 5111 2e3e fd2d 15be
000002b0: 7bc1 74bd 6de8 63bd 5ee2 c5bd 274e d03c
000002c0: 78d9 c2bd 0ad4 94bd 45f2 cc3d 0ebe 2e3e
000002d0: 8707 df3d de75 ccbd 567a 123c 2220 293e
000002e0: af7e d9bd 58f2 293d b482 a9bd 79a2 05be
000002f0: 7418 283e b800 a93d 3834 783b 65d5 ae3b
00000300: 5dbf 853d 3e37 4abd 43b1 c73d 1619 a6bd
00000310: 57e0 c43d 7670 e5bd a8c5 0cbe 69f3 8c3d
00000320: afce 393d 71bd 1cbe 01c8 0dbe 7d84 793d
00000330: 4f1d fe3b e66b 163e c630 c8bd 16a7 933d
00000340: 9fca 26bd 516e ff3d ad84 403d 7690 99bd
00000350: 9075 2b3e 6187 213e f947 7abd 2e55 313d
00000360: ccc2 b93d de1d 15be 764a ddbb 3f57 193e
00000370: deda 1dbe 75ed f73d ce91 a53d 1143 12be
00000380: 011c debc 6c9d e73c b3e5 c13d af25 e1bd
00000390: e14f 133e 36a9 c1bd f00a acbd 2f5e b53d
000003a0: fba1 4f3d 8efd 223d 3dcf 1e3e ef2b 18be
000003b0: e7f6 d33d 98b0 8dbd 09c8 983d 64eb cbbd
000003c0: a432 993d a426 583c 9da4 8bbd b54f 12be
000003d0: 579c 1abd fbe8 f03d c74e 023d f276 d53c
000003e0: d914 56bc 286a 02be 86d9 37bd 4b67 50bc
000003f0: 7007 643d db4a 653d e58e 4d3d 491e 0ebe
0.004719586 0.08777551 0.068067834 0.040378764 -0.082023524 0.08989352 -0.14520824 0.059636697
0.05504336 -0.098439105 -0.04654757 -0.05276535 -0.06429406 -0.11149889 -0.11726643 0.0009173218
0.0014847817 0.045796975 -0.16778003 0.17569715 0.027274117 -0.15159039 -0.041401785 -0.11094827
0.04094943 0.07558448 -0.10236489 0.1567955 -0.15216091 0.06320753 0.036780983 0.10595306
0.09503677 0.0007079406 -0.102902345 -0.1629345 0.14605999 0.08095789 0.045932464 0.04816874
0.019376112 -0.014249133 0.09180703 -0.13774703 0.04972083 0.1288475 0.014116609 -0.14987113
-0.011732624 -0.06078688 0.0154184755 -0.073719725 -0.036484323 -0.1586022 -0.07633141 -0.10278247
0.03499979 0.1109981 -0.10228621 -0.14600381 -0.09366176 0.16400932 0.08808838 0.13454224
0.072243534 -0.105584785 0.03806874 -0.15588257 -0.12585668 -0.08181837 -0.1726211 -0.040200043
-0.09833565 -0.15056047 0.12954424 -0.17369582 -0.037623163 0.02119291 -0.13885644 0.038035445
-0.0049286312 0.037796177 -0.14709324 0.04936382 0.11658897 0.043408282 0.0069339783 -0.1321642
0.087048456 -0.14688633 0.08163714 0.12282306 -0.043193966 0.12847903 -0.021201551 -0.062095225
0.09736561 0.14049496 -0.032167107 -0.14476839 0.098060116 -0.12772533 0.017105395 0.12467829
0.16952057 0.024490627 0.00014816389 0.16533594 -0.07397982 0.123641364 0.023135783 0.057606425
0.018045248 -0.111476876 -0.13423936 0.101822935 0.08712399 -0.07305358 0.094737984 0.1464155
0.083177194 -0.052130014 0.12908559 -0.15809077 -0.0552137 0.14862467 0.08857522 0.010073304
-0.08226573 0.03404365 -0.13422692 -0.09155125 -0.1028818 0.011188829 0.1064 0.12678139
0.1481261 0.14914607 -0.12265293 0.045458157 -0.08053779 0.07284229 -0.16412216 -0.06275323
0.045502502 -0.07655998 -0.122496255 -0.17193806 -0.0043629506 0.07533521 -0.024458688 0.13432455
-0.15640005 0.14270867 -0.107668065 -0.008889405 0.0702484 -0.046118602 -0.06063105 0.13204835
-0.10137166 0.105427265 -0.13875818 0.052934814 -0.13223273 -0.010846914 -0.12120265 0.097780734
-0.09435198 -0.17083994 0.16998793 -0.14568324 -0.05975483 -0.05564158 -0.09662317 0.025427891
-0.09514135 -0.07267006 0.10007147 0.17064688 0.108901076 -0.09983419 0.0089403 0.16516164
-0.10619866 0.041490883 -0.08276883 -0.1305026 0.16415578 0.0825209 0.0037872922 0.005335497
0.0653064 -0.04936909 0.09750607 -0.081102535 0.09613102 -0.11203091 -0.13747275 0.06882364
0.045363124 -0.15306641 -0.13845827 0.060917366 0.0077549587 0.14689597 -0.09774928 0.072096035
-0.04072058 0.12472213 0.04700153 -0.07498257 0.16744065 0.15774299 -0.061103795 0.043294124
0.09070358 -0.14562175 -0.006753261 0.14974688 -0.15415522 0.12105838 0.08084451 -0.14283396
-0.027112963 0.028273307 0.0946764 -0.10993516 0.1438594 -0.094561026 -0.08400524 0.08855855
0.050691586 0.03979259 0.15508743 -0.1486051 0.10349827 -0.06918448 0.07460029 -0.099570066
0.07480362 0.013192806 -0.06818507 -0.14288218 -0.037746754 0.117631875 0.03181341 0.026057694
-0.013066494 -0.12735808 -0.04488518 -0.012719939 0.055671155 0.05597959 0.050185103 -0.1387874

bias f4 [32]
00000000: 77a5 f03d 6144 d5bd 5aab 9e3d b745 f6bd
00000010: 164a d5bd 404a 023e d333 373c 4d29 21be
00000020: 277e 523d 6c0c aa3d 6bb3 073e 6d92 11bd
00000030: 98b3 edbd b784 423d e63e 1e3e 9c1d 0dbe
00000040: 6117 2ebd ce4a cd3c 5b03 1c3e 8ac2 2f3d
00000050: ed67 cf3c 440c a93d 28bc e13d 6574 0d3e
00000060: 4878 97bd ce31 383d 6bc5 dabc 7824 07bd
00000070: 364d 3bbe 4f42 e13b 179b 60bd 8ce0 81bd
0.1175031 -0.10413433 0.077475265 -0.12025016 -0.104145214 0.12723637 0.011181789 -0.15738411
0.05138984 0.083031505 0.13252036 -0.035540033 -0.116065204 0.047489848 0.15453681 -0.13780826
-0.042502765 0.025060084 0.15235655 0.042910136 0.02531811 0.082542926 0.11022216 0.13813932
-0.07395989 0.044969372 -0.026705464 -0.032993764 -0.18291172 0.0068743597 -0.054835405 -0.06341657

weight f4 [32, 32]
00000000: 7300 f03d 4c6f 4c3d 18a7 3a3c 3b0d bbbc
00000010: 881b b1bd e0c3 0bbe c37b c23d 621d 053e
00000020: bd67 273e b6a5 5ebd 6831 113e 34ec 9ebd
00000030: de42 ffbd 9b75 b0bd bd95 7cbd e82a 10be
00000040: e134 2e3e 66a6 b63c f4d3 f6bc 0200 56bd
00000050: 01c6 1d3d 7abf 103e 31a5 debd 6840 a93d
00000060: 7d7f b9bd 34c0 cebd 1b2c 0b3c 072d 99bd
00000070: 4e7e db3d d7d9 963d f1d4 d73d 5853 16be
00000080: 1933 d43d 75fc 27be 1d14 a13d 33d7 16be
00000090: 0c6d 8bbd 4c91 18be 6b91 ed3d e699 a3bc
000000a0: 1bed 1a3e 5236 d33d 1b78 fa3d b690 c1bd
000000b0: 5f63 2c3e 1fc5 dc3d 5dae f23d 306e 2b3e
000000c0: 445d acbc ef3b 843c e35c 343e 1998 cf3c
000000d0: f850 74bd c08f 5f3d 2fd7 103e 56fe 293d
000000e0: b2c9 7c3d 09fa 1ebe 2028 f93d 9e4a 18be
000000f0: 8e21 adbd 9df9 873c 4abf 62bc 561d 143e
00000100: 423c 963c cfb5 b9bd 83dd 093d 0dee 853d
00000110: 4b3c 8bbc 5603 29be da2c f8bd 1550 18be
00000120: 658f 213e 30e2 ae3d 8b6a 26be 3cc2 503d
00000130: 6195 c13c ec36 f3bd 0d29 943d 2d67 0abd
00000140: 35b7 f3bd de98 22be 60a6 ca3d 8cec 163e
00000150: 69f7 8cbd b8a2 133e 4719 1a3e d317 2fbe
00000160: 2cc9 913d 8e55 f93d a09a 37bc b68f adbc
00000170: 23e8 7d3b 5121 cb3d b01b 873c 5657 6fbd
00000180: cd40 983d 394e c2bd f720 6cbc ba84 77bc
00000190: deec 0abe 1e17 f83d 0077 243e 6a28 203d
000001a0: 476c 083e ec1c 68bd 6b3b 9abd 2a17 02be
000001b0: 52c1 313c 4f8f c3bd d9c8 9f3b 899e 21be
000001c0: 3cac 1c3e 7a0d 153e ded4 863d ab64 00be
000001d0: ce33 303e 0460 5ebd 1afb 6e3c a88e 05bd
000001e0: 47dc 1ebe 69db 18be 2bfb 02be 189c 39bd
000001f0: ef8e 22bc ecc7 ec3b 6bb5 fa3c 8a31 8e3d
00000200: ef26 bf3d 228d f33c 0ffb 17be a341 babd
00000210: 2c8d 203d c6ca 913d 93d3 bd3b 54b6 3f3d
00000220: 01f4 b0bd efa2 03be 3eb3 1d3c 42e5 8dbc
00000230: 742b 8e3d baa6 013e b7a3 1cbe adf6 bc3c
00000240: acc7 f3bd 3c8e 713d 78de 40bd a826 95bd
00000250: ee1e 283e 66c2 f43c 88f5 0fbe d0e9 0abe
00000260: 4e1a 07bc 1aed 923d f54e 20be 22f9 e1bc
00000270: ed8d f0bd 853e e43c 88cc 1f3e 7cb1 303e
00000280: 70c6 c1bd bd9b 49bd c529 abbc 4866 80bd
00000290: fca5 7bbd f56c 06be ae93 1e3d 2d0a a8bd
000002a0: 0234 683d 0c41 dc3c 4d2b 143e fae9 153e
000002b0: 86a8 c43d 173a 83bd cde4 dabd e759 243e
000002c0: 2e26 98bd 60ea ac3c f496 e7bd 4e39 05bd
000002d0: 57de ca3d f326 843b 1902 bdbd d357 de3d
000002e0: 5f45 153c 652b 5e3d b165 393d fc55 a43d
000002f0: 09b8 00be 25a2 87bc d48a cc3d 7b89 acbd
00000300: a5e2 ac3c 88a3 5ebd 5b8a 23bd 0749 c8bd
00000310: 1219 b53d 6820 253e d0a1 e7bd cc68 30bd
00000320: bd2e 2a3e f632 cdbc 8f51 6ebd 612e c2bc
00000330: 15e6 82bd 0f19 0dbd 41ed 2a3e 8c5b 1c3d
00000340: 3863 86bd c21e 263e b5ae 56bd 18a9 24be
00000350: ec2a 23be f1a1 873d fa64 7b3d 89e0 fc3d
00000360: 7819 273e 73c4 25be 8053 debd 8d63 613d
00000370: ecf9 0cbe d0d1 c23d c4b2 23be 4195 00be
00000380: 3d0d f4bc 4154 d43d da23 b3bc 3203 25be
00000390: 6910 103e 17e9 cebd e480 25be 1051 a13c
000003a0: e3ee 04bd da74 f8bd 5bea 06bd b43f 8cbd
000003b0: 623e 813d 3614 7dbb cecb a93d 9e52 a9bd
000003c0: 5bdb 63bd 2c74 a6bd 71a2 a83d 305c 89bd
000003d0: d24f 173e cfe5 f53d ae26 b43d abb7 fdbd
000003e0: b411 573b 8173 fe3d e82f 1ebe 0bee 13bd
000003f0: 7d62 1b3d 88f3 09be e9b1 20be cb39 59bd
0.11718836 0.04991083 0.011392377 -0.022833457 -0.08647829 -0.13648939 0.09496262 0.1299949
0.16348167 -0.054357253 0.14179003 -0.07759896 -0.12463926 -0.086161815 -0.06166624 -0.14078867
0.17012359 0.022296142 -0.030130364 -0.0522461 0.03851891 0.14135543 -0.108713515 0.08264238
-0.090575196 -0.100952536 0.008494402 -0.074792914 0.1071745 0.073657684 0.10538662 -0.1468023
0.103613086 -0.16404898 0.078651644 -0.1473053 -0.068079084 -0.14899176 0.11600002 -0.019970845
0.15129511 0.10313095 0.122299396 -0.094514295 0.16834782 0.10779785 0.118496634 0.16741252
-0.021040566 0.01614186 0.17613558 0.02534108 -0.05964753 0.05458045 0.14144586 0.04150232
0.06171579 -0.15525068 0.12165856 -0.14872214 -0.08453666 0.016598517 -0.013839552 0.14464316
0.01833928 -0.0906788 0.033658516 0.06539545 -0.016996523 -0.16505179 -0.1211793 -0.14874299
0.15777357 0.085392356 -0.1625158 0.050966486 0.0236308 -0.1187571 0.07234392 -0.033789802
-0.11900178 -0.15878627 0.09895015 0.14738673 -0.06883127 0.14417541 0.15048705 -0.17098932
0.071184486 0.121745214 -0.011206299 -0.02118669 0.00387431 0.09918464 0.016492695 -0.0584329
0.07434235 -0.09487576 -0.014412156 -0.015107328 -0.1356692 0.12113784 0.1606102 0.03910104
0.13322555 -0.056668207 -0.07530864 -0.12704149 0.010849314 -0.09548818 0.004876238 -0.15783133
0.15300077 0.14555922 0.0658357 -0.12538402 0.17207262 -0.054290786 0.014586234 -0.03260675
-0.15513717 -0.14927448 -0.12791125 -0.04531488 -0.009921773 0.007225981 0.030604085 0.069430426
0.09333598 0.029730383 -0.14841865 -0.090945505 0.039197132 0.07118754 0.005793044 0.04680474
-0.0864029 -0.12855123 0.009625254 -0.017321233 0.06941882 0.12661257 -0.15296827 0.023066843
-0.11903319 0.058973536 -0.047087163 -0.07282764 0.16418049 0.029877853 -0.14058506 -0.13565755
-0.008246018 0.0717413 -0.1565512 -0.027584616 -0.1174582 0.027861843 0.15605366 0.17255205
-0.09461677 -0.04922079 -0.02089394 -0.062695086 -0.061437592 -0.13127501 0.038715057 -0.08205066
0.056690224 0.026886486 0.14469643 0.14640036 0.09602456 -0.06407564 -0.106881715 0.1604992
-0.07429157 0.021107852 -0.11308089 -0.032525353 0.09905689 0.0040329634 -0.09228916 0.10856595
0.009110778 0.054240603 0.045262996 0.08024213 -0.12570204 -0.016556809 0.09987417 -0.0842466
0.021104166 -0.054355174 -0.039926868 -0.09779554 0.088426724 0.16125643 -0.1131016 -0.043068692
0.16619392 -0.025048714 -0.05818325 -0.023703756 -0.06391541 -0.034447726 0.16692068 0.038173243
-0.06561893 0.1622267 -0.052412707 -0.16080129 -0.15934342 0.06622685 0.061375596 0.12347514
0.1631831 -0.1618822 -0.1085577 0.05502658 -0.13767213 0.09512675 -0.15986162 -0.12556936
-0.029791469 0.10367633 -0.021867681 -0.161145 0.1406876 -0.10103052 -0.16162449 0.019691974
-0.032454383 -0.12131663 -0.032938343 -0.06848088 0.06310727 -0.0038616783 0.08290826 -0.08267711
-0.055629116 -0.08127627 0.08234108 -0.067070365 0.14776543 0.12006723 0.0879644 -0.123885475
0.0032816948 0.12424374 -0.15447962 -0.036115687 0.037935723 -0.13471806 -0.15692867 -0.05303363

bias f4 [32]
00000000: 1f5f 183e 0d23 cdbd e686 353d 78fd 90bc
00000010: 2eb8 013d 7cf0 9f3c 5160 bebc 82f2 193e
00000020: cb46 08bd de59 9fbc 2c8c cebd d396 cfbc
00000030: 89bc 0d3e 0875 ef3d fb4a 0dbd 7abf 283d
00000040: b117 de3d 6e34 f3bd b708 25be 9ccc fb3d
00000050: 9784 a43d fc22 22be 0e6f 8fbd 1953 093e
00000060: c974 cc3b e347 a03c fee9 a3bd ad8a 42be
00000070: 33d7 053c 7675 febc c8af debd d2b4 223d
0.14880036 -0.10016451 0.044318102 -0.017698988 0.031669788 0.019523852 -0.023239287 0.15033916
-0.03327064 -0.019452032 -0.100853294 -0.025340473 0.13841452 0.11692244 -0.034495335 0.04119823
0.108443625 -0.118752345 -0.16116606 0.122948855 0.08033102 -0.15833658 -0.07003604 0.13410605
0.006239508 0.019565528 -0.08003615 -0.18998213 0.008168983 -0.03106187 -0.10873371 0.039723225

weight f4 [32, 97]
00000000: 4d01 943d 6451 6dbc 65a6 8cbd ce94 1cbd
00000010: 5d3a 88bd fadb 5e3d 0f07 473d c823 a1bd
00000020: 91f7 863d 2804 22bd b17a 293c 982b 043b
00000030: a1ad 80bd e2f2 b9bd aac1 83bc 649f 533d
00000040: 0d02 8dbd cd98 973d d487 25bd 0732 aabd
00000050: 0032 a53d b002 8cbd 6e4b 49bd 0acf aebd
00000060: f050 91bd 4fba 743d 7235 683d fc9c eabc
00000070: ddb6 1cbd 9d8f 18bd da6a 5bbd 899a c93c
00000080: 1898 6abd 6f46 75bb 1ff7 bfbc a507 8bbd
00000090: e4c2 85bd 0bed a73c 96b9 bdbc 7b11 39bc
000000a0: 9ec4 11bd 5f98 a63c 6c35 883d 31b3 b5bd
000000b0: 74c7 443d 017d 183d 4917 393d 2248 83bd
000000c0: f4a5 9b3d 9435 64bd ca3a 73bd 7b10 46bc
000000d0: 2015 5c3d a7d0 d5bc 7773 12bd 41f1 e7bc
000000e0: d956 c7bc 5257 5bbd 5a98 9fbd 434e cc3d
000000f0: 1d4c ecbc d3e3 a63d 6d7f 613d a602 903d
00000100: afd4 00bd f3e2 8bbd 8993 a63d 066d b9bd
00000110: 02cb c3bd 0212 283d e24b 12bd 8e38 e4bc
00000120: 108b 41bd babf 90bd c392 423d 459e cdbd
00000130: 2c0c 863d a974 17bc b26f 903d ccb7 5ebc
00000140: be6f de3b 7a65 d4bd 51ef ffbc c273 c2bd
00000150: f718 4a3d f1b4 2a3d 46bb 9a3d 9300 27bd
00000160: 5756 aa3d dfef a1bc 4635 babd 3856 363c
00000170: 4713 7f3d 5eb2 493b b0f4 c53c 5ee6 2fbd
00000180: 96ca 033c 6d98 dabb b650 953c 99a1 1dbd
00000190: e18f a73d 36c3 a2bb 0b87 c73d a4df 10bd
000001a0: 8b43 3b3d be5a 09bd 81f2 aa3d cd89 5ebb
000001b0: a9ac 91bd 4649 cbbd 63b4 17bc 6383 bebc
000001c0: b119 9fbd 843f 0c3d edfc 8abd dfd0 0c3d
000001d0: 7810 093d 38c1 023d 4aa3 9abd 738a 85bd
000001e0: bc8c c93c 267b b33d 8aae 0dbc 986e d03d
000001f0: 8a2b 8abd f9de 373d 92db f2bc d130 24bc
00000200: e61b b63d 9cae 7ebd f872 263d c5fe 493d
00000210: 28d7 1e3d bc62 0a3d 84f5 923d ee53 c13d
00000220: 4505 853d a090 b23d 52e8 98b9 f5d4 bf3d
00000230: dff1 38bd 9e24 d23b 734e e23c 9278 85bc
00000240: ab6b ba3d aa6e b7bd 3ac8 f43c 7172 193d
00000250: 2677 b13d 74c6 b9bd c6be b2bd 7dad ab3d
00000260: 4c81 ad3d a48d 57bd 9a6a 4bbd b056 8dbd
00000270: 386f 08bd 29ce 0fbd 1142 bd3d 0533 32bc
00000280: 1037 90bd 0cf5 0bbd 3a74 d53d 8d02 cfbd
00000290: e77f 5b3d a04b 27bc 3f97 693d d393 78bd
000002a0: 6e30 8d3d 9e55 8b3d 2808 e23c e539 623d
000002b0: 6e79 2e3d 9c5c 8eba f09d c53d 7cfa 09bd
000002c0: a5ac e83c 0669 86bc 3f6d d6bd 33d0 3f3d
000002d0: 5623 a63d 0775 6b3d fb0a fb3c 410a 4abd
000002e0: c9e6 92bd f6d1 0abd 7616 a13c 8efd 9a3d
000002f0: 1ddb 02bd cffb b23d 0484 e23b bde1 b13d
00000300: ad28 673c 4ad4 f2bc 8077 8ebd c803 c33d
00000310: 93d3 00bd b4d3 83bd 2427 09bd 5b6c 613d
00000320: b2a7 123c a8c7 be3d 8b94 87bd fb72 633d
00000330: f9a4 133d ea54 893c bb72 58bd 3d0c bbbd
00000340: 2b77 bbbd 686a be3d 9430 16bd 686c 433d
00000350: 6759 a1bd 1dee acbb db33 4bbd e2a2 8c3d
00000360: eae0 553c b0fc debb cd69 803d aa18 833c
00000370: 9c31 8d3d 5a26 7fbd f0f9 943d 6cf7 7c3d
00000380: 9468 123d 0629 b33d d5f6 913d aeac 07bc
00000390: e556 903d c22f 9cbd eb1b bbbc 0067 c4bc
000003a0: b0f1 993d ce95 4e3d 390d 7bbd bb7f a23d
000003b0: 1628 8f3b 7882 2ebd 835e aebd 71e2 b4bb
000003c0: 4cd0 653d d842 b53d f073 94bd 153b b7bd
000003d0: 629e 66bd bc8a 7a3d 1aa7 8dbd bd59 113c
000003e0: 8f0c 9ebd e2ad ddbc f7fa 423c fecd 6b3d
000003f0: 73fb 3a3d a141 403d d3f4 57bd e698 193d
0.072268106 -0.014484737 -0.06867675 -0.03822785 -0.06651757 0.054409005 0.048590716 -0.07868153
0.06590188 -0.039554745 0.010344193 0.0020167585 -0.06283117 -0.09079529 -0.016083557 0.05166568
-0.06885157 0.07402191 -0.04041274 -0.08310323 0.08066177 -0.0683645 -0.0491442 -0.08535583
-0.07095516 0.05974799 0.056691594 -0.02863931 -0.03826033 -0.037246335 -0.0535687 0.02460982
-0.057273954 -0.0037426015 -0.023433266 -0.067885675 -0.06531313 0.020498773 -0.023159783 -0.011295672
-0.0355879 0.020336328 0.066508144 -0.08872069 0.048041776 0.037228588 0.045188222 -0.064102426
0.076000124 -0.05571516 -0.059382237 -0.01208889 0.053731084 -0.02610047 -0.035754647 -0.028313281
-0.024333404 -0.053550072 -0.07792731 0.09975865 -0.028844887 0.08148923 0.055053163 0.07031755
-0.03145283 -0.068303965 0.08133609 -0.09053998 -0.09560205 0.0410328 -0.0357169 -0.027858999
-0.04725176 -0.07067819 0.047503244 -0.10039953 0.0654529 -0.009244123 0.07052554 -0.013593625
0.006788223 -0.103709176 -0.031242045 -0.09494735 0.049340215 0.041676465 0.07555251 -0.040772032
0.08317249 -0.0197677 -0.09092192 0.011128955 0.062274244 0.003077648 0.024164528 -0.042944305
0.008043906 -0.0066710026 0.018226963 -0.03848419 0.081817396 -0.0049671186 0.09742554 -0.03536953
0.04571871 -0.033533804 0.08347035 -0.0033956647 -0.071130104 -0.09926085 -0.009259316 -0.02325601
-0.07768572 0.03424026 -0.06786523 0.034378882 0.03346297 0.03192255 -0.07550676 -0.06520548
0.02460324 0.08763723 -0.00864757 0.10177344 -0.06746586 0.044890378 -0.029645715 -0.010021404
0.0889204 -0.06217824 0.040636986 0.049315233 0.038779408 0.033785567 0.07175735 0.094398364
0.06495146 0.08718991 -0.0002916479 0.0936679 -0.04515254 0.0064130565 0.027625298 -0.016292844
0.09102567 -0.08956654 0.029880632 0.037462655 0.08665304 -0.09071055 -0.087277934 0.083827
0.08471927 -0.052625313 -0.04966221 -0.069013 -0.03330919 -0.03510872 0.09241117 -0.010876422
-0.07041752 -0.03416924 0.10422559 -0.101079084 0.053588774 -0.0102109015 0.057029005 -0.06068785
0.06894003 0.068034396 0.02759178 0.055230994 0.042596273 -0.001086134 0.09649265 -0.033686146
0.028402636 -0.016407501 -0.10470056 0.046829414 0.081122085 0.057484653 0.030644884 -0.049326185
-0.07172925 -0.03389164 0.01966403 0.07567893 -0.031947244 0.08739435 0.00691271 0.08685634
0.014108819 -0.029642243 -0.069563866 0.095222056 -0.031451773 -0.064368635 -0.033484593 0.055034976
0.0089511145 0.09315425 -0.06620129 0.055529576 0.036046002 0.016764123 -0.05284379 -0.09133194
-0.09153589 0.09297639 -0.03666742 0.047710806 -0.0787838 -0.0052774088 -0.04961 0.06867005
0.013054112 -0.006805025 0.0627018 0.016002972 0.06894228 -0.062292434 0.07274234 0.061759397
0.035744265 0.08748059 0.071271576 -0.008280916 0.07047824 -0.076262966 -0.02284046 -0.023974895
0.07516801 0.050435834 -0.061291907 0.07934519 0.0043687923 -0.042604893 -0.085141204 -0.005520158
0.05610685 0.0885064 -0.07248676 -0.08946816 -0.05630339 0.061167464 -0.06916638 0.008871493
-0.07717239 -0.027060453 0.011900655 0.057569496 0.045649957 0.04693759 -0.052723717 0.03749933

bias f4 [32]
00000000: 12fd c3bc 2c0e b7bd f37b 07ba 4844 a93d
00000010: 842d 713d 84cb f33b 3b2b d8bd ae3b 06bc
00000020: 3bc4 87bd 397b cabd 733d 77bd 4ea8 9a3c
00000030: 22f0 17bd 8eca 65bc 37c8 c03d 7c8a 6f3d
00000040: 3f49 c3bc 28a9 273d 49d4 2c3d ec73 813d
00000050: 7d03 0e3d 4a98 723d 88d1 d9bd 3206 3e3d
00000060: 3720 a6bd b5c9 a7bd cb10 e5bc f8e2 163d
00000070: f093 9cbd 2082 01bd 4d86 e6bd fced 9f3d
-0.023924384 -0.0893825 -0.0005168311 0.08264977 0.058881298 0.0074400324 -0.105551206 -0.00819294
-0.06629225 -0.09886784 -0.060361337 0.018879082 -0.037094243 -0.014025344 0.09413188 0.05848168
-0.023838637 0.040932804 0.04219464 0.063209385 0.034671295 0.059227265 -0.10635668 0.046392627
-0.08111613 -0.081927694 -0.02796211 0.036837548 -0.07645404 -0.031618237 -0.112560846 0.07809064
