examples/extended/cost_predictor.pt (torch, 41514 bytes, 13 tensors)

weight f4 [32, 104]
000000 97 75 0c 3d b5 d1 12 3d 53 bb a3 3c 1a ea 4f bc
       0.03429183 0.035844523 0.019986784 -0.0126900915
000010 e9 9a ff 3d 88 fc 93 3d 25 a1 81 bd 59 77 c0 3d
       0.12480719 0.07225901 -0.06329564 0.09397764
000020 f4 39 a1 3d 21 89 75 bc 14 44 49 be ae d7 2e be
       0.07872382 -0.014986307 -0.19654876 -0.17074463
000030 19 55 6d be 48 1c 25 bd 38 81 5d be 97 f0 ab bd
       -0.23176993 -0.040310174 -0.21631324 -0.08395498
000040 4d 2d d2 bd b9 85 61 bd f2 d9 d5 bc 00 f8 b0 bc
       -0.10262547 -0.05505917 -0.026104901 -0.02160263
000050 64 4f ac 3d 97 1c 02 3a e5 b8 86 bc f2 54 6e 3d
       0.0841358 0.00049633667 -0.016445586 0.05818648
000060 41 b7 c2 3c b5 ba 06 bd d3 78 ac 3d 02 3b 8a 3d
       0.023769023 -0.0328929 0.08421483 0.06749536
000070 f5 36 a3 bd 5e 11 08 3d 7d 01 f6 3d 26 b1 ac 3c
       -0.079694666 0.033219688 0.120120026 0.021080565
000080 84 f0 1a bd 1e f6 af 3c e5 9c df bb 08 d8 bd 3d
       -0.03782703 0.021479663 -0.006824123 0.0926972
000090 1e a8 a1 3d 5c 21 9f bd 4b d6 3a 3d 1a 71 0a 3d
       0.07893394 -0.07770035 0.045614522 0.03379927
0000a0 ff b6 59 bc 85 0c 63 bd 4b 59 af bd 45 c0 87 bd
       -0.013288259 -0.05543186 -0.08561953 -0.066284694
0000b0 40 87 48 bc 58 59 96 bd 2c 65 a1 bd 88 82 d3 bd
       -0.012239277 -0.0734126 -0.07880625 -0.10327631
0000c0 31 81 c2 bc a0 e9 4b bd a8 0c e4 bc 5e 2c 20 3d
       -0.023743244 -0.04978335 -0.027838066 0.03910481
0000d0 55 1d 84 3d bf 07 be bd 98 f9 25 3d f5 f2 53 bc
       0.06450907 -0.09278821 0.040521234 -0.012936343
0000e0 37 ea 9e be ae c3 36 bc 8d f7 22 3d 66 30 e2 3c
       -0.31038067 -0.011155052 0.039786864 0.027610969
0000f0 19 dc 6f bc 88 2f 3d bd a6 2a 8a bd 66 2d 40 3d
       -0.014639878 -0.046187907 -0.06746416 0.046918295
000100 bd 2f 95 bd 5a 68 7c bc a5 e0 08 bd a9 06 3b 3d
       -0.07284496 -0.015405739 -0.033417363 0.04566065
000110 65 cc d2 bc ac 30 1d bc ff c0 2f 3d 28 cf 3d be
       -0.025732229 -0.009594124 0.042908665 -0.18536055
000120 21 32 0e 3d 2c ad f1 3d 9b 74 94 bd 2e ae 0a be
       0.034715775 0.11800608 -0.07248803 -0.13543007
000130 16 d2 d1 3b a6 79 e6 bd 63 a0 73 3d a5 86 f5 bb
       0.006403218 -0.11253671 0.05947913 -0.0074928575
000140 0d 5f 8d 3c fe 55 d4 bb f9 fb 1d be 86 51 a3 bd
       0.017257238 -0.0064799776 -0.15428151 -0.07974534
000150 c0 6f 28 3a 2c 3b 40 bc 65 78 15 3e eb a1 86 3d
       0.00064253435 -0.011732858 0.14596708 0.06573852
000160 2c 9f 93 3d 92 04 b6 3d d7 9a 14 3d 7f 7d 6a 3d
       0.07208094 0.088875905 0.03628048 0.05724859
000170 1d 7a 62 3d 15 6a 2b 3b 4e a0 e0 ba 90 d4 56 3d
       0.055292238 0.002615576 -0.0017137618 0.05244881
000180 2e 5a fe 3d 7f 82 00 3e ca c9 03 3e d2 3a b1 3d
       0.12419544 0.1254978 0.12869945 0.08653797
000190 4f ac ef 3d 28 9e 19 3d d7 90 1d 3d 4a 57 0e 3e
       0.11702787 0.037504345 0.03846821 0.13900486
0001a0 0e 94 93 3d 0e 29 b4 bd 79 ee 7d 3d 42 55 a7 3d
       0.072059736 -0.08796893 0.061995003 0.081705585
0001b0 e4 e5 d5 3c a0 7e be 3d cf 7f a0 3d 99 f9 b5 bd
       0.026110597 0.093014956 0.078368776 -0.088854976
0001c0 35 a0 67 3c 69 4a 74 bd 09 74 21 3e 64 f3 79 3e
       0.014137317 -0.059641276 0.1576692 0.24409252
0001d0 e2 34 1b 3e 17 b2 2b 3e 93 f2 72 3e fc be 11 3e
       0.15156892 0.16767155 0.23725347 0.14233011
0001e0 3a 24 65 3e 7e 37 6c 3e 11 be fb bd d1 c8 ba 3d
       0.223771 0.23068044 -0.12292112 0.09120334
0001f0 af 7c 10 bd f5 16 80 3d 45 47 f0 3d 6a 92 26 bd
       -0.035275158 0.06254379 0.117323436 -0.040666975
000200 bf 20 e2 bd f3 da 2a bd 62 69 1a ba e1 9e f2 3d
       -0.11041402 -0.041712712 -0.0005890337 0.1184671
000210 e6 ff 80 bd 89 5b e2 bb 20 be f1 bd 3a 90 d0 3d
       -0.06298809 -0.0069078845 -0.118038416 0.10183759
000220 97 ee b2 bd 09 1e 3f bc df 49 21 3d 84 a8 b8 3d
       -0.08736914 -0.011664876 0.03937709 0.09016517
000230 87 ff ac bd 04 86 01 3e a2 e3 ee 3d 2d f5 d9 3d
       -0.084471755 0.12648779 0.11664511 0.10642467
000240 61 6c f8 3c 7d 8f 5d bd 52 f7 c3 bc 57 a7 e4 3d
       0.030325117 -0.05409192 -0.023921642 0.1116473
000250 7d f7 71 bd 6b e3 8c 3b c9 10 27 3e 26 5c 3a 3d
       -0.059073914 0.0042995713 0.16314997 0.045498036
000260 65 46 4f bd a8 a9 67 3d 84 8a 90 bd eb 08 db 3c
       -0.050604243 0.05655828 -0.0705767 0.02673765
000270 02 87 cf 3c 84 b2 68 bd 80 f1 6d 3a f8 d1 07 3d
       0.025332931 -0.05681087 0.0009076819 0.033159226
000280 e0 27 bb 3e 8b 78 4f bb 25 e7 8a 3d bb bc 89 bd
       0.3655386 -0.0031657543 0.067823686 -0.067254506
000290 3b 6a 57 bd 12 ca 43 3d aa f2 ee bd c8 47 25 3c
       -0.052591544 0.04780013 -0.11667378 0.010087915
0002a0 a5 60 8b 3c e3 15 cd 3c 83 fd 8e bd 5b 3f ae 3c
       0.017013857 0.02503485 -0.06981947 0.021270445
0002b0 ea 7d 6e bd a7 8b ea 3c 3c 55 ae bd e0 b3 5b 3e
       -0.05822555 0.028631045 -0.08512351 0.21455336
0002c0 fd 2c 64 3b d9 ed d2 bd 5d 39 eb bc c2 87 8a 3c
       0.0034816854 -0.10299272 -0.028713876 0.016910437
0002d0 2c be 5e bd cc f6 1c bd 15 ab 02 be f9 b7 87 3d
       -0.05438058 -0.0383213 -0.12760575 0.06626887
0002e0 78 91 14 3c b6 e8 3f 3d cc d9 9a 3d 65 39 8e bc
       0.009067886 0.04685279 0.07561073 -0.017361352
0002f0 94 da 42 3c 29 c5 dc 3d e8 9e 93 bc 51 32 44 bb
       0.011892933 0.10779793 -0.018020108 -0.0029937217
000300 f2 c3 db 3d 7f f2 8f bd 7f 51 11 3d 51 c2 e9 3d
       0.10730733 -0.07028674 0.03547811 0.11414016
000310 a7 92 d2 bd 94 c2 e0 3c a8 d5 75 bc b4 12 08 3d
       -0.10281878 0.027436532 -0.015004553 0.03322096
000320 d0 45 44 bd a0 e4 9e bd 7d 1e b7 bd 97 d7 a2 3d
       -0.04791814 -0.077584505 -0.08941362 0.07951277
000330 30 17 2b bd df 76 01 bc 19 17 a7 3d 75 1f d0 bc
       -0.04177016 -0.007901876 0.081587024 -0.025405625
000340 bc a0 e3 bc 5a 2a f2 ba ed dd 91 3d d0 32 70 bc
       -0.027786605 -0.0018475757 0.07122407 -0.014660552
000350 45 e5 a7 3d 13 ca fc 3c af 30 b4 3b 37 7b d5 bc
       0.081980266 0.030858075 0.0054989676 -0.02605973
000360 c0 56 4a 3d 29 da a9 3c 77 b6 60 bc 94 83 f7 bd
       0.049399137 0.02073391 -0.013715378 -0.120856434
000370 9d be e3 bd ce be 8a bd 7b c3 29 be da 16 a3 bd
       -0.11120341 -0.06774674 -0.16578476 -0.07963343
000380 7f 33 26 3c bd 27 b5 bc 46 0d 23 3d 2c 31 62 bd
       0.010144114 -0.022113675 0.03980758 -0.055222675
000390 fb aa c8 3b 4b c9 bb 3d 8a 5c 71 bd 43 24 52 3c
       0.006123898 0.09169253 -0.058926143 0.012826028
0003a0 e7 18 00 bd b9 7e fc 3d 70 28 09 3e 4b bc da bc
       -0.03127375 0.12328858 0.13394332 -0.026701113
0003b0 fe 7f b0 3d 01 dd b5 bd dc db 82 3d d5 ee 9f 3c
       0.086181626 -0.08880044 0.06389591 0.019523064
0003c0 9d d2 f8 3d 5c 0c ae bd 61 72 cf 3d 40 e4 79 bd
       0.12149546 -0.08498451 0.10129238 -0.06100869
0003d0 b8 b4 e4 bc af 8a dc 3d 69 dd cf 3c a8 b5 0f bd
       -0.027918205 0.10768639 0.025374131 -0.03508535
0003e0 59 2d 34 3b 7b af 2a 3d 3e 15 84 bd c2 c8 c4 bd
       0.002749285 0.041671257 -0.06449364 -0.09608604
0003f0 83 1a 47 3d 87 53 97 3d ee da 18 bd 58 a3 38 3b
       0.048609268 0.073889785 -0.037318163 0.0028173532

bias f4 [32]
000000 fc dc a1 bc 3e 90 7d bd 48 e2 ae 39 0f 07 8d 3d
       -0.019758694 -0.06190514 0.0003335646 0.06886112
000010 65 a7 2c 3c 81 17 96 3c 62 07 3a 3d 15 d9 85 bb
       0.010537957 0.018321754 0.045417197 -0.004084716
000020 93 eb d5 bb fd 40 1f bd 67 b5 46 3d 0e 8e 73 3c
       -0.006528327 -0.038880337 0.048512843 0.014865411
000030 80 16 ed 3d 64 f3 ac 3d 1e 7b 31 3d ae 74 a0 3d
       0.11576557 0.084448606 0.043330304 0.07834755
000040 78 45 ce 3d 7b e1 d8 bc 80 55 fd 3c 01 f2 64 bb
       0.10071844 -0.026474705 0.030924559 -0.0034934285
000050 2e d1 88 3c 6c f3 ff bc 5e 7a 6a bd 7a eb b8 3d
       0.016701307 -0.031244002 -0.057245605 0.090292886
000060 3e 82 0f 3d 53 c8 01 3c f7 a3 67 3d de ca d3 3c
       0.035036318 0.007921296 0.056552853 0.02585357
000070 e7 3e 40 bd 17 21 81 3c 56 21 36 bd 68 97 69 3d
       -0.04693499 0.015762849 -0.044465385 0.057029158

weight f4 [32, 32]
000000 4a 14 69 bd 34 ce 83 be 60 ba 54 3e a0 1e ae bd
       -0.056904115 -0.25743258 0.20774221 -0.08501935
000010 63 d8 04 3d 93 66 90 bc 8c 51 27 be e0 21 21 3e
       0.032432925 -0.017627036 -0.16339701 0.15735579
000020 12 bc 26 be e7 41 2c be 65 d2 33 3d 9e 66 dc bd
       -0.1628268 -0.16822015 0.04390182 -0.1076176
000030 cc d8 ab bd 0b 56 2d 3e e4 19 1e 3e 82 8a 7c bd
       -0.0839096 0.16927354 0.15439564 -0.06165553
000040 c9 0f 0d 3e e7 70 22 bd ed 23 9f 3d 84 85 4f 3e
       0.13775553 -0.039658453 0.07770524 0.20265776
000050 56 3a 27 3e 3b a4 86 bd d9 07 71 bd c8 72 4a 3e
       0.16330847 -0.06574293 -0.058845375 0.19770348
000060 10 60 4b 3e 35 d7 4b bd c5 8b 73 bc 57 2d 03 bd
       0.19860864 -0.049765784 -0.014864867 -0.03202566
000070 49 c0 ba 3d 61 ec 32 3c 29 f2 10 be 37 04 d8 3b
       0.09118707 0.010920615 -0.14154877 0.0065922993
000080 73 71 b0 bc c6 f2 1c 3e b1 d5 ee bd 5d 78 fc bd
       -0.021538472 0.15326986 -0.11661852 -0.12327645
000090 6d 64 9a 3d f1 30 13 bc 44 a4 e4 3d bb f8 14 be
       0.07538686 -0.0089838365 0.11164144 -0.14548008
0000a0 ed 20 3c 3d c2 ad fd 3d ac ca 1f 3e 0a 43 49 3d
       0.045929838 0.12386657 0.15604657 0.0491362
0000b0 99 26 5b 3d 0e 88 e6 3d 3d 9e 05 3e 63 8a 80 3c
       0.053503606 0.11256419 0.13048644 0.015690988
0000c0 69 b5 a1 3d fd a5 84 bd 47 b8 2d be 1a 32 4b bd
       0.07895929 -0.06476972 -0.16964827 -0.049608327
0000d0 df 37 8d bd fd c5 9a 3d 21 08 14 3e 41 70 e0 3c
       -0.06895422 0.075572945 0.14456226 0.027397277
0000e0 fb 08 02 3d 71 18 2c bd 86 24 a6 3d a3 b1 1c 3d
       0.031746846 -0.042015497 0.08112435 0.038255345
0000f0 69 7a 23 be 28 ff 00 3d e2 f5 50 3e 84 ea 1d be
       -0.15964665 0.031493336 0.20406297 -0.15421492
000100 29 2b 38 3e 66 1f 53 bd 5b 2e 41 3e 5d 8f 68 3c
       0.17985214 -0.051543616 0.1886534 0.014194337
000110 70 70 77 3d 2a ba eb 3d 4a f6 46 be 4c 04 0f 3e
       0.060409963 0.11510117 -0.1942989 0.13966483
000120 87 c0 ab bd df b4 2d be 2e 3a 9e 3d 71 73 be 3d
       -0.08386331 -0.16963528 0.07725941 0.092993625
000130 2f a5 44 be 63 10 4d 3e e2 c6 5b 3e 92 99 e7 3d
       -0.19203638 0.20025782 0.21462587 0.11308588
000140 44 8d 3f 3e eb f7 0c 3e 4e e4 ba 3a a1 65 33 3e
       0.18706232 0.13766448 0.0014258714 0.17519237
000150 c4 64 06 be c0 5c 4e bd 61 bb 93 3c 33 be 53 bd
       -0.13124377 -0.050381422 0.018033685 -0.05169506
000160 0e 37 2c 3e 01 0a 3b 3e c1 84 31 3b 34 5c 93 3d
       0.16817877 0.18265535 0.0027087184 0.07195321
000170 94 4d ae bd ef 7a f7 3d 18 3c f7 bd a2 27 0b 3e
       -0.085108906 0.120839946 -0.12072009 0.13589337
000180 c2 60 c3 3d 8c 82 f3 bc e0 5d b0 3d 4d 1b 48 bc
       0.095399395 -0.029725336 0.08611655 -0.01221354
000190 30 f6 aa 3d 80 8c 81 3c fc c2 8b be 7c e7 16 3e
       0.08347738 0.015814066 -0.272972 0.14736742
0001a0 1d 34 df bd d2 ca ac bd ac e1 57 3d 89 98 2a 3e
       -0.10898612 -0.084371224 0.05270545 0.1665975
0001b0 f5 b2 bc bd 00 24 e2 bd 42 48 97 bc 3b d1 1d 3e
       -0.09213821 -0.11042023 -0.018467072 0.15411846
0001c0 c2 82 ce bb ec 75 21 bd 08 72 35 3d c2 99 47 3e
       -0.0063022086 -0.0394191 0.0442982 0.19492248
0001d0 ee ea 95 bb 21 45 56 3e 7f 45 43 bd 05 fb 23 3e
       -0.004575125 0.20924808 -0.0476737 0.16013725
0001e0 40 2b 1d 3e 40 5d 69 3e 68 84 3a 3e 4d 8c 68 3e
       0.1534853 0.22789478 0.18214571 0.2270977
0001f0 f6 76 fc 3c 83 96 4f 3e 6b a8 9c bd 10 cc 53 3e
       0.030818444 0.2027226 -0.07649311 0.20683312
000200 00 44 c3 bd 9f 8d 02 be a7 02 77 3e 11 dc 8a bd
       -0.09534454 -0.12749337 0.24122106 -0.067802556
000210 9c d0 13 3e 86 64 26 bd 04 ee a2 be 94 a5 37 3e
       0.14435047 -0.04062321 -0.31822217 0.17934257
000220 a9 96 d6 bd 26 09 13 be 1b c7 97 bc 0f 8b 3c 3d
       -0.10477955 -0.14358959 -0.018527558 0.046031054
000230 5f 3a 04 be 42 38 1c 3e 8e 65 b8 3d 9d 3d 45 bd
       -0.12912892 0.15255836 0.09003745 -0.048154462
000240 e2 b0 4f 3e 40 44 57 3e 5b c0 31 bd 93 25 bc 3b
       0.20282319 0.21022129 -0.043396335 0.005741784
000250 a0 77 0e 3c 4e 62 e6 3d b1 9a d0 3c b1 d1 6f 3e
       0.008695513 0.11249219 0.025464388 0.23419835
000260 ad d6 23 3e 2a 57 de 3c 5e c9 4e 3e 6a 5e 50 3e
       0.15999861 0.027141172 0.20194003 0.20348516
000270 4e 31 47 3e d3 1a 6b bd 9a 48 4e be 2d 09 df 3d
       0.19452402 -0.05739863 -0.20144883 0.10890422
000280 55 b9 06 3e 88 65 92 bd e1 99 90 3c 69 15 a2 bd
       0.13156636 -0.07148272 0.0176515 -0.0791424
000290 e0 3d 01 be ef 55 87 3d 6c 29 72 bd 93 7f 10 3e
       -0.1262126 0.066081874 -0.059121534 0.14111166
0002a0 81 39 27 bd 31 f6 40 3d bc 40 bb 3d 05 3a 95 bd
       -0.040826324 0.047109786 0.091432065 -0.07286457
0002b0 01 78 a1 bc 27 16 a0 3d f3 7e 93 bd 6a 04 2a be
       -0.019710543 0.07816725 -0.07201948 -0.16603246
0002c0 fb d8 05 3b 5f 19 eb 3d 9c 9d cc bd 94 95 14 be
       0.002042352 0.114794485 -0.09990999 -0.14510185
0002d0 70 9b 2b 3e 51 01 e1 bc bf ec d7 3d 1d 7e da 3d
       0.16758513 -0.027466448 0.105432026 0.106685854
0002e0 4c 9f 10 be 86 73 1b be 06 51 32 3e f6 73 a5 3c
       -0.14123267 -0.15180787 0.1741372 0.020196896
0002f0 12 62 34 bd cd 34 09 3e d3 76 d1 bd 63 f6 d6 bd
       -0.04403884 0.13399048 -0.10227742 -0.10496213
000300 ae 43 5b 3e e0 52 82 bd e9 ea 7d 3e 25 54 2c bc
       0.21412537 -0.063634634 0.24796642 -0.0105181085
000310 14 57 1a 3e 66 3e 19 3e 92 b8 8f be bc a0 78 3d
       0.1507228 0.1496521 -0.28070503 0.060700163
000320 c0 e6 3d 3d dd 52 0a be 34 3e 12 3d d1 09 34 3e
       0.04636264 -0.13508172 0.035703853 0.1758187
000330 ef d0 75 be 46 0c b3 3c 58 bf ca bd a6 da cd bd
       -0.24005483 0.021856438 -0.09899777 -0.100514695
000340 1a 00 0b 3d fb 05 87 3d a2 39 6f 3e 67 00 c6 3d
       0.033935644 0.065929376 0.23361829 0.096680455
000350 19 bf bc bd cc 90 b2 3d 38 49 3d be 7d 4b f3 3d
       -0.092161365 0.08719024 -0.18484962 0.118796326
000360 15 62 36 bd f1 c9 fb 3c 07 3c df 3d 23 ef ba bd
       -0.044527132 0.030735942 0.10900121 -0.09127643
000370 57 57 26 3e ea e9 aa 3b 68 d4 d3 3c c4 48 9a 3d
       0.16244255 0.005215873 0.02585812 0.0753341
000380 76 97 96 3a 96 2a 1b bd 8d fa 05 3e 7e b1 18 be
       0.0011489231 -0.03788241 0.13083859 -0.14911458
000390 ea 15 2e be ee a8 dd bd 85 e6 18 be 5b dd 89 3d
       -0.17000547 -0.108232364 -0.14931686 0.06731673
0003a0 76 04 01 be 42 4f a3 3d 96 6f 92 bd 5d 0c 08 be
       -0.12599358 0.079741016 -0.071501896 -0.13285966
0003b0 25 a5 2d be 09 a2 db bd ec 3f 15 3e 6d 80 a7 3d
       -0.16957529 -0.10724265 0.14575166 0.08178792
0003c0 e5 73 f7 bd 3e be 7f 3d a5 08 fe 3d 9b 7f 25 bd
       -0.12082652 0.06243729 0.124039926 -0.040404897
0003d0 53 f1 e9 3d fa 1f 17 bd 75 c9 e6 bd 2f 17 d6 3c
       0.11422982 -0.03689573 -0.11268894 0.026134102
0003e0 7c 7e 5f 3d e8 c7 0f be 74 22 0d be 79 2d 9c 3d
       0.054563984 -0.14041102 -0.13782674 0.07625861
0003f0 7b df e1 bc 69 e2 0d 3e b0 97 24 be c0 d8 ca bd
       -0.027572384 0.138559 -0.16073489 -0.09904623

bias f4 [32]
000000 86 f3 55 3e 15 d6 f2 bb 3d be 95 3d bd 02 c6 3c
       0.20893678 -0.0074107745 0.07311676 0.024171228
000010 16 b4 ea bc 1a 6c 32 3e 49 1f f8 bd 7d 8c f1 3d
       -0.028650325 0.1742405 -0.12115342 0.11794374
000020 24 ba 1e 3b bf e4 c7 3d c8 f1 20 3e fb 1e 18 bb
       0.0024219835 0.09760427 0.15717232 -0.0023211825
000030 d8 68 53 bd 3c 34 15 3e 6d bd c4 bd 7c 4f 3a 3e
       -0.05161366 0.14570707 -0.096064426 0.18194383
000040 ba 42 e4 3d 09 ac 3f bc 3b 30 0e be 7d 19 32 3d
       0.111455396 -0.011698731 -0.13885586 0.04348134
000050 33 22 1d bc e0 95 ac 3d bd b8 41 bd fa b4 1f 3e
       -0.009590673 0.08427024 -0.04729532 0.15596381
000060 ca 8c 98 3c 1e 04 2f bc 38 93 ad 3c 03 4f 27 bd
       0.018621821 -0.010682134 0.021188363 -0.040846836
000070 0c fe 9b ba 1c 95 71 bd 7e 5b b9 3d 35 ab cd bc
       -0.0011901273 -0.058980092 0.09050654 -0.025106052

weight f4 [8, 1, 3]
000000 ca 77 1a 3f fa 69 ca be d3 63 48 be 01 f8 07 3d
       0.60339034 -0.3953398 -0.1956933 0.0331955
000010 af 3a 2f 3e 4a 3a 44 bd e8 76 9d 3d d2 ab 77 3e
       0.1711223 -0.04790715 0.07688695 0.24186638
000020 db 15 b3 bd c6 d2 ee bd e5 85 d2 3e e5 9c a5 be
       -0.08744403 -0.116612956 0.41117778 -0.32346264
000030 b4 f9 ec 3e 32 48 c0 3d a9 8e 09 bf d0 e1 67 be
       0.46284258 0.0938877 -0.5373331 -0.22644734
000040 b9 08 6d be c9 2f 8a be e4 11 6d 3d 13 1c eb be
       -0.23147859 -0.26989582 0.05787839 -0.45919856
000050 ea 57 8f 3e be 50 90 be 03 70 e8 3e 18 ec f3 bd
       0.2799676 -0.281866 0.45397958 -0.11910266

bias f4 [8]
000000 d9 29 af 3e c1 7b 33 bf 35 9d 0f 3f 2c b2 96 3d
       0.34211615 -0.7011071 0.56099254 0.07358202
000010 22 e2 d7 3c b6 cc b6 3e 08 b0 38 3e 4a e4 f7 3e
       0.026352946 0.35703057 0.180359 0.48416358

weight f4 [8, 8, 3]
000000 3c 3d 0a be fe 99 fd bc 74 f8 f0 3a d4 49 32 bd
       -0.13499922 -0.030957218 0.0018384592 -0.04352744
000010 71 f9 fb bd 21 58 39 3e fa e3 9b 3d b5 d6 99 bd
       -0.123034365 0.18100025 0.076118425 -0.07511655
000020 ef 27 4b 3d 67 4a 87 3e f2 8d dc bd 96 73 a5 bc
       0.04959863 0.26423952 -0.107692614 -0.020196717
000030 0f 6f 83 bc 1f 79 69 3e 22 b8 b7 bc 77 c5 15 be
       -0.016044168 0.2280011 -0.022426669 -0.14626108
000040 6d 77 0c 3e 6c be ff 3d 3a 84 fb bd 27 84 0a 3e
       0.13717432 0.12487492 -0.122810796 0.13526975
000050 4a af 0c 3e 30 ca 06 3e 8b 2c 5f 3e cf 56 53 3e
       0.13738742 0.13163066 0.21794336 0.20638584
000060 95 9d 61 3d af 23 02 bc f4 81 13 3e 2c fe 29 3e
       0.055081923 -0.007943078 0.14405042 0.16600865
000070 a7 11 ac bc e6 ed fd 3d e1 34 23 39 59 42 97 3d
       -0.021004511 0.12398891 0.0001556459 0.07385702
000080 67 22 8d 3c 4f 01 2e be 79 d0 23 bd 45 5b f0 bc
       0.017228318 -0.16992687 -0.039993737 -0.029340396
000090 0a 58 4c 3e 0b 88 3b bd 60 5f 02 3e 3c a4 8b bd
       0.19955459 -0.045784038 0.12731695 -0.068184346
0000a0 59 aa 84 3e fb 1c 7f 3d 3f b9 03 bd c1 58 e5 3c
       0.25911215 0.062283497 -0.032159086 0.027996423
0000b0 61 6a 7f bd d3 bd bd bd 16 6a 57 bd 31 45 60 3e
       -0.06235731 -0.09264722 -0.052591406 0.21901394
0000c0 14 ce 24 bd 8f ea a8 bd df bf 22 3d 5a 77 0b 3e
       -0.040235594 -0.082478635 0.039733764 0.13619748
0000d0 d5 cb 1d bd 89 b4 7b 3e 5e 9f d4 3d 08 09 87 3e
       -0.038524467 0.24580587 0.103819594 0.26374078
0000e0 33 95 65 3e 52 20 0e 3e 1e d9 97 3d 5e 44 24 be
       0.22420196 0.13879517 0.07414459 -0.16041705
0000f0 8b 5c cf 3d 46 26 35 3e 23 ec c9 bd e5 96 90 3d
       0.10125073 0.17690381 -0.09859493 0.07060031
000100 c8 d1 e2 3d bc 9f 2a bd da 94 54 bd d4 10 87 bd
       0.11075169 -0.04165624 -0.05189977 -0.065950066
000110 ca fe ab 3d c1 c0 fe bd 21 59 5a 3e 19 4d 3b 3e
       0.083982065 -0.12439109 0.21323062 0.18291129
000120 f2 23 21 3e c2 08 f9 3d f9 a2 6c 3e bb 23 ce bd
       0.15736368 0.121598735 0.23109044 -0.10065409
000130 48 17 a9 bd 70 22 21 3d a5 9b 39 3e 5b b5 6f 3e
       -0.08256394 0.039339483 0.1812578 0.23409025
000140 9d d4 ac 3c e0 66 68 3e 6b 53 14 be c1 16 e1 3d
       0.021097476 0.22695494 -0.14484946 0.10990668
000150 28 63 98 3c 9b fd d3 3d cf fa c2 bd c1 7e ad bd
       0.018601969 0.10351106 -0.09520494 -0.08471442
000160 9a 08 06 be 44 80 7b 3e bc 5a bb bd 9c 9f 6c bd
       -0.13089219 0.24560648 -0.091481656 -0.057769403
000170 c1 e3 21 3d fa e9 8a 3e fc 93 1c 3e 4b 35 42 3d
       0.039523844 0.27131635 0.15290827 0.047414105
000180 01 1f fb 3d da 74 fb 3d bc ee 56 3d ca 21 f4 bd
       0.12261773 0.12278147 0.05247377 -0.11920507
000190 33 83 d7 bd 92 c5 1a bd e2 be a4 bd eb 57 08 bb
       -0.10523071 -0.037786074 -0.080442205 -0.0020804356
0001a0 3b 4f 24 bc 53 9d 09 be bb 1e 82 be 6b 6b 8d bd
       -0.010028656 -0.1343892 -0.2541407 -0.06905254
0001b0 e3 a1 4a 3e 25 bb 81 3e 1f 19 12 be 96 a0 37 be
       0.19788317 0.25338092 -0.14267395 -0.17932352
0001c0 87 95 08 be c1 c0 48 3e 57 95 89 3e cd b2 af 3c
       -0.1333829 0.1960478 0.2687175 0.021447564
0001d0 25 e0 48 be aa 42 29 3c e3 68 21 bc a1 ef 3a bd
       -0.19616754 0.010330835 -0.009851667 -0.045638684
0001e0 0f 4d 64 bd 36 74 5f 3d c9 e3 a6 bd 88 f0 9c 3c
       -0.05573755 0.054554187 -0.08148915 0.019157663
0001f0 3c 76 b4 bd 25 80 26 be ed 18 3a 3e 27 49 f3 bc
       -0.08811614 -0.16259821 0.18173571 -0.029697968
000200 69 1b 28 3e 57 36 11 be 0c 40 58 bc d1 89 83 bd
       0.16416706 -0.14180885 -0.013198864 -0.06422771
000210 da 02 a5 3d 7b b0 6a 3e af 06 de 3d 07 72 12 3d
       0.080571845 0.22918884 0.108411185 0.035753276
000220 e0 cb 2b be 53 3d 03 be fe 26 e0 bb 71 8b e5 bd
       -0.16776991 -0.12816362 -0.0068405857 -0.11208237
000230 19 5f b3 bd 6c 34 7e 3e c0 f7 d8 bd 17 62 4b 3d
       -0.08758373 0.24824685 -0.105941296 0.049654093
000240 05 51 b0 bc 61 8b 67 3e b6 2e 16 be 87 02 23 3c
       -0.021523008 0.22611763 -0.14666256 0.009949333
000250 60 d8 f9 bc 81 cb d9 bd 7b b5 68 3e 5b a5 2e 3e
       -0.030498683 -0.106345184 0.2272548 0.17055266
000260 8e 1e 3b 3e e4 c9 06 3c df a5 bf 3d d9 24 eb 3d
       0.18273374 0.008226845 0.09357809 0.114816375
000270 75 68 1f 3e b7 d5 23 3c 1f f5 2b 3e 00 12 1f 3e
       0.15567191 0.009999684 0.16792725 0.1553421
000280 b9 9a 3e 3e 74 30 ca bd 8c a4 55 3e c7 4b 42 bc
       0.1861371 -0.09872523 0.20863551 -0.011858887
000290 b3 51 75 3e 0a 63 20 3e ba e9 52 3e fb 37 15 be
       0.23956947 0.1566278 0.20596972 -0.14572136
0002a0 71 b8 e5 3d e5 8f d4 3c 2f 96 5d 3e f3 7a 17 3e
       0.1121682 0.02594752 0.21639322 0.14792995
0002b0 1f 52 8b 3c 7e 6e 08 be a1 94 fa 3c bd f4 b4 bd
       0.017006932 -0.133234 0.03058845 -0.088357426
0002c0 32 db ad bd b0 f2 2c 3e 1d 39 3d 3d aa d2 21 be
       -0.08489074 0.16889453 0.046197046 -0.15803018
0002d0 d7 d4 38 3e 33 84 08 be a3 cc 54 3e d4 d8 1b 3b
       0.18049942 -0.1333168 0.20781188 0.0023780363
0002e0 68 15 44 3d 29 4c 59 3e fe 84 8b 3d 1b 84 10 3e
       0.047871977 0.21220459 0.068124756 0.14112894
0002f0 65 c6 c5 3c 79 35 7f bd d7 7d 77 bd 9d 1f 19 be
       0.024142453 -0.062306855 -0.060422745 -0.14953466

bias f4 [8]
000000 6a 1c 43 3d 52 fd 71 bc 13 2e 41 3e e2 3a 6a 3e
       0.04763452 -0.014769869 0.18865232 0.22874025
000010 dd 70 84 3d 7e 9e d0 bd 1b c6 c9 3d 7e 3e 38 3e
       0.064668395 -0.1018648 0.09852239 0.17992589

weight f4 [16, 200]
000000 af c3 8d 3d 9e 86 cf 3d 2e 35 7f 3d c0 47 a3 3d
       0.06922089 0.10133098 0.062306575 0.079726696
000010 fb 04 1d 3d 4a a7 29 ba 12 c1 c9 bc 4f 71 13 bd
       0.038334828 -0.00064717664 -0.024628196 -0.03599673
000020 4a 80 20 bd a8 4f 97 3d 11 34 a2 3d 21 a8 1c 3d
       -0.039184846 0.0738824 0.07920087 0.038246278
000030 ff 92 41 3d 2a 08 82 3d c9 3e c3 bc e3 3c 7c 3d
       0.047259327 0.063492134 -0.02383365 0.061581504
000040 5c c4 a1 3d 9f 2e bb 3d c7 fc cf bc be 1a d0 bc
       0.07898781 0.09139752 -0.025389088 -0.025403377
000050 87 ad cb 3c 94 77 18 3d 0b 50 60 3d 17 7a 15 3d
       0.024863018 0.037223414 0.054763835 0.036493387
000060 13 be 99 3d 99 45 8f 3d fa 81 8c 3d 67 bf d3 3c
       0.07506957 0.069956966 0.068607286 0.025848104
000070 63 69 c2 3d 1a 66 f2 3b 20 bd 90 3d 95 f7 2e 3d
       0.09492757 0.0073974254 0.07067323 0.04271658
000080 55 ee a2 3c bd 96 52 3d c0 a7 ce bc 4b 4c 52 3d
       0.019889036 0.051413286 -0.025226474 0.05134229
000090 9d 91 28 3d 05 e3 0f bd 73 f0 6f 3d d1 62 d7 3b
       0.041154493 -0.035128612 0.05857892 0.006573059
0000a0 fb 4f a5 3d bb 6d 86 bc 08 02 95 3b 29 4d 76 3d
       0.08071896 -0.016409745 0.0045473613 0.06013218
0000b0 9b 3c 86 3d d7 b0 a3 bc dd 8f 51 3c e8 2f 38 bd
       0.06554528 -0.019981785 0.012790647 -0.044967562
0000c0 08 f4 32 3d 83 9a b8 3c 85 11 1f 3d 84 5e bf 3d
       0.043689758 0.022534614 0.038835067 0.09344199
0000d0 39 ac c5 3c 66 05 1b 3d 3c 75 b8 ba f2 93 f0 bc
       0.024129974 0.037846945 -0.0014073025 -0.02936742
0000e0 a2 22 14 3d 87 f3 6e bd 91 a4 a0 bc e2 52 aa 3b
       0.03616584 -0.058337715 -0.019609721 0.0051978687
0000f0 1b 7c 39 3c 59 11 02 bd 9b 30 ea 3a e0 37 e2 3c
       0.011321093 -0.031754825 0.0017867269 0.027614534
000100 cb af 85 bc ac 9c f6 bb 3e d7 fd 3b 1f b5 7c 3d
       -0.016319176 -0.007526001 0.007746606 0.061696168
000110 79 46 51 3c b4 e8 59 3d 8a 8d 17 3c 55 68 b8 bb
       0.01277315 0.05320044 0.009250054 -0.0056276717
000120 12 95 a2 3a ed c0 a3 bc 36 90 93 3c 97 9d 02 3d
       0.0012404046 -0.019989455 0.018013101 0.03188857
000130 c2 8c cf 3d 46 0d 74 3d 89 82 74 3d f3 cc 39 3a
       0.10134269 0.05958297 0.0596948 0.000708773
000140 3b 78 57 3d 72 a4 28 3d 52 bc a4 3a a1 36 26 3c
       0.052604895 0.041172452 0.0012568331 0.0101448605
000150 03 9e 27 bd 2f eb d2 bb ab 71 6d 3d e3 fb 62 3d
       -0.040922176 -0.0064367275 0.05796973 0.055416
000160 75 e3 87 3d ad 74 51 3c b0 00 79 3d 48 a9 07 3d
       0.06635181 0.012784165 0.06079167 0.033120424
000170 d0 a7 5e bc ec ab c4 bb ee 96 38 3b f3 2c a3 3d
       -0.013589814 -0.00600194 0.0028166133 0.07967558
000180 96 73 80 bb 23 75 15 bb 1e 20 c8 bc 7a 32 4c bb
       -0.003920029 -0.0022805415 -0.024429377 -0.0031158016
000190 24 95 60 3d c1 29 80 3c bf 37 81 3d 9d c3 de 3d
       0.05482973 0.01564491 0.06309461 0.10877154
0001a0 d1 f0 d7 bc bf d2 b6 3d a4 51 ab 3c 31 7c 63 bc
       -0.026359947 0.089269154 0.020912953 -0.01388459
0001b0 d6 80 af 3c 4b d3 40 bd ee bf 50 bd a4 df 08 3d
       0.021423738 -0.047076505 -0.05096429 0.033416405
0001c0 b5 1b 40 bd c4 9f 97 bd 4a 75 7b bd 5d 58 cb 3b
       -0.046901423 -0.0740352 -0.061391152 0.006205602
0001d0 c5 e2 38 bc 7f 51 bc bc 10 c9 c6 bc de 49 e5 bb
       -0.011284535 -0.02298808 -0.024265796 -0.006997331
0001e0 03 c1 eb bb 5c 69 ff bd ac 20 04 bd bd 53 80 bd
       -0.0071946396 -0.124712676 -0.03225772 -0.06265972
0001f0 7c f2 b3 bd e7 de ac 3c 13 eb 61 3d d1 4d 2a 3d
       -0.087864846 0.021102382 0.055155825 0.041578118
000200 bb 6f 98 3c 6b 6f d4 3a 89 20 ae bd 39 13 e9 bc
       0.018607965 0.0016207522 -0.08502299 -0.028451549
000210 b6 84 df bc 13 f6 f3 bd 4d 79 29 be 6f 7b 0c be
       -0.027284961 -0.11912169 -0.16550179 -0.13718961
000220 29 29 60 bd 72 9d e4 bd 45 4c ef bd 21 e3 01 be
       -0.054726753 -0.11162843 -0.11684469 -0.12684299
000230 26 2a b4 bd 7e 09 f5 bd b2 25 a6 bd 30 c7 d3 bd
       -0.08797102 -0.11964701 -0.081126586 -0.103407264
000240 f5 fe 19 be 9d 07 77 bd 0f da 17 be b4 3e a8 bd
       -0.15038665 -0.060309995 -0.14829277 -0.08215085
000250 d4 0e d3 bd 0b bf c8 bd 99 0d bf 3d 22 c0 29 3d
       -0.103055626 -0.098020636 0.093287654 0.041442998
000260 90 79 e2 bb a5 e9 99 3d 33 d4 64 3d 06 df 8f 3d
       -0.006911464 0.07515267 0.05586643 0.0702496
000270 32 f4 2e 3b 6a 2e 90 bc 19 bf c1 3b 63 d8 d5 3b
       0.0026695845 -0.017600257 0.005912673 0.0065260394
000280 f0 bc 97 3d f3 c1 1b 3d eb 15 f0 bc 86 f3 4a bd
       0.07409084 0.03802676 -0.029307326 -0.04954865
000290 cd 7d 1a bc 2c 30 eb bc ae 7c a6 3d 4b 55 c7 3b
       -0.009429407 -0.028709494 0.081292495 0.0060831658
0002a0 d9 94 be 3d 76 b3 5e 3d 05 e7 b7 3d ad 47 77 3c
       0.09305734 0.054370366 0.0897961 0.015092772
0002b0 a9 c1 cf 3d 47 ff 9f 3d 95 60 0e bd b0 20 2d 3d
       0.101443596 0.07812362 -0.034760077 0.0422675
0002c0 7a 1b 64 3c 0f fe 7e bb 50 24 56 3c cf ec 01 3d
       0.013922567 -0.0038908755 0.013070181 0.03171998
0002d0 35 dd 51 3d e3 69 de 3d 42 eb a5 3d a5 48 43 bc
       0.05123635 0.1086004 0.081015125 -0.011919175
0002e0 ce a0 1c 3d 46 4d b7 3d 9b ed d0 3c 00 69 a8 3d
       0.038239293 0.089502856 0.025503924 0.08223152
0002f0 af 81 68 bc 69 a7 8d bd 5f 80 10 3d d9 5d 32 bd
       -0.014191075 -0.069166966 0.035278674 -0.04354653
000300 55 80 0d 3d 3c 82 06 3d 65 cc 8f bc 05 42 a1 39
       0.034546215 0.032839045 -0.017553518 0.000307575
000310 3e 7e 5a b9 fa aa c2 bc 63 d8 9f bd 1b f6 9c bc
       -0.00020837129 -0.023763169 -0.07804944 -0.019160321
000320 f1 94 02 3d 0a 45 10 3d c4 eb 6d bd 18 0f 98 bd
       0.031880323 0.03522209 -0.05808617 -0.07424754
000330 39 06 b9 bd 0b f4 99 bd 21 94 79 bd 70 be b2 bd
       -0.0903439 -0.075172506 -0.060932282 -0.08727729
000340 01 72 bf bd 1d c8 ac bb cf fc af bd 05 67 52 3c
       -0.093479164 -0.005272879 -0.08593141 0.012841945
000350 b1 95 37 3c d0 3f 4e bc 80 86 93 bd 60 f1 87 3c
       0.011205123 -0.012588456 -0.07203388 0.016594589
000360 d3 1a 8a bd f7 0b 03 3d 37 6b 8f bd 8f 14 9f 3c
       -0.067433976 0.031993832 -0.070028715 0.019418983
000370 10 22 07 3c 36 24 1b 3c e1 52 b5 3b 47 2b 55 bd
       0.008247867 0.009469083 0.0055335616 -0.052043226
000380 43 30 7f bd 60 45 03 3d e1 80 e7 3d 2f 3e eb 3c
       -0.062301885 0.032048583 0.113038786 0.028716175
000390 b7 04 4b 3d 1b 22 97 bc 84 e3 8d bc d4 c6 35 bd
       0.049565043 -0.01844888 -0.017320402 -0.04437907
0003a0 d7 7a b0 bd 5b ad 9d bd 79 65 89 bd 83 b7 99 3c
       -0.0861718 -0.076990806 -0.067088075 0.018764263
0003b0 a8 8a 90 3c 4e d9 81 3c 45 1e 90 bd 23 fd 87 bc
       0.017644241 0.01585069 -0.070370235 -0.016600197
0003c0 4b 9c c3 bb 26 49 12 3d 51 eb 6c bd 71 6f aa 3c
       -0.0059695593 0.03571429 -0.057841603 0.020805093
0003d0 da 09 e0 3b 1b 31 7d 3d 08 55 52 bd 4e 0f 98 bd
       0.006837112 0.06181441 -0.051350623 -0.07424794
0003e0 d3 1a 0a bd 3c 03 47 bc 3a 72 d0 3d a5 04 48 3d
       -0.033716988 -0.012146767 0.10178037 0.048832554
0003f0 95 68 2d 3c d8 8e a0 bd e2 f3 81 bd f9 0f 84 3c
       0.010584016 -0.07839745 -0.06345345 0.016120898

bias f4 [16]
000000 58 50 a7 bb 2a ba 7d bd 12 e8 b4 3d 67 a1 60 b8
       -0.0051060133 -0.061945118 0.088333264 -5.355608e-05
000010 db e0 3a bd 06 91 92 bd eb 0f 4f bc 15 c5 23 bc
       -0.045624595 -0.07156567 -0.0126380725 -0.0099957185
000020 b0 75 7a bd 6a d6 26 3d c6 d9 bf 3d ca 7e 95 3d
       -0.06114739 0.040731825 0.09367709 0.07299574
000030 af 2e 25 3c e0 00 91 3d 17 72 ff 3c 85 8d 47 bd
       0.010081931 0.07080245 0.031182332 -0.048718948

weight f4 [16, 4]
000000 d9 36 2a 3e 7f 45 dd 3d cd 16 87 3e ac af 43 3e
       0.16622485 0.10804271 0.26384583 0.19109982
000010 c1 ab 82 3e 2a da f0 be 78 af f7 3d 96 a2 66 3e
       0.25521663 -0.47041446 0.12094015 0.22522959
000020 8d 7f e2 be d8 c6 e8 3e 8c 0f 7f be 83 41 88 be
       -0.4423794 0.45464206 -0.24908274 -0.2661248
000030 cd 3f f5 be 7a 27 b4 be 7f 5a c3 3e 39 d1 5d bd
       -0.4790024 -0.35186368 0.3815498 -0.05415461
000040 17 c1 df be e8 42 ef 3d c4 76 e1 3e c2 ce 4d bd
       -0.43702003 0.11682683 0.44035923 -0.050246008
000050 20 51 29 be 00 ec c9 bd da 3a 90 3e 16 24 2d bd
       -0.16534853 -0.098594666 0.281699 -0.042270742
000060 fb 4d e1 3e 61 71 66 be ad 83 b4 be 5a a4 46 be
       0.44004807 -0.22504188 -0.3525671 -0.19398633
000070 b5 eb 54 be c6 e0 ce be c8 d0 14 be 62 99 03 bb
       -0.2079304 -0.40405864 -0.14532769 -0.0020080437
000080 c1 af c2 3e 0f d0 05 3f bd 9f b3 3e b9 f8 dc 3e
       0.38024715 0.522706 0.35082808 0.4315851
000090 58 ef 2a be 0e 86 cc bd ce 1b b5 be 7c 65 d7 be
       -0.16692865 -0.099865064 -0.35372776 -0.42069614
0000a0 a3 6d 82 be d3 be cc be f3 c6 be 3e cb 73 42 3e
       -0.2547427 -0.39989337 0.3726116 0.18989484
0000b0 86 29 04 bf 29 f0 00 be 05 85 57 be 3c 5b 11 be
       -0.5162586 -0.12591614 -0.21046837 -0.1419496
0000c0 91 c5 da be a1 15 40 3e 21 07 c7 3e 51 2c d6 bd
       -0.42728856 0.18758251 0.38872626 -0.104576714
0000d0 01 48 d7 be 4b 02 ca 3e 57 56 00 3e 2b b6 09 3e
       -0.42047122 0.39454874 0.12532936 0.13448398
0000e0 12 7a bd 3d 4e ec 90 3e f5 d0 04 be c8 ae 01 3f
       0.09251799 0.28305286 -0.12970336 0.5065732
0000f0 0e fc d5 3d b2 bf b6 be 90 5c 42 3e f4 ff 8a 3e
       0.10448466 -0.35693127 0.18980622 0.27148402

bias f4 [16]
000000 f2 f3 a5 be c1 c2 92 bd 6f dc b8 be 40 4c 92 be
       -0.32412678 -0.071660526 -0.36105677 -0.285738
000010 cf 24 e3 be 2f 48 91 be 78 56 30 be 69 27 b6 3e
       -0.4436402 -0.28375384 -0.17220485 0.35576943
000020 f2 23 f4 3e a4 0f fb 3c 37 95 ce 3e c4 e1 fa be
       0.47683674 0.030647106 0.40348217 -0.4900037
000030 98 88 84 bd 8b 2c 7e be 8b 79 af 3e 1e 93 07 3f
       -0.06471366 -0.2482168 0.34272417 0.5295886

weight f4 [1, 32]
000000 d9 a4 9c 3d b1 e9 05 be 28 14 5a 3e 79 89 60 3e
       0.0764863 -0.13077427 0.21296751 0.21927442
000010 3f 25 62 3e 89 74 03 3d cb 37 39 3e 17 c0 e5 3d
       0.22084521 0.03209356 0.1808769 0.11218279
000020 f7 94 2d be 80 e4 4e 3e 8d 8b 03 be 55 33 9c bd
       -0.16951357 0.20204353 -0.12846203 -0.07626978
000030 14 fc af 3d ae 0d 06 be d4 d4 2a 3e 0e 72 81 be
       0.08593002 -0.13091156 0.1668275 -0.2528233
000040 75 14 8b 3d c2 94 35 be 2f 6c 68 bd 64 71 8b 3c
       0.06791011 -0.17732528 -0.056743797 0.017021842
000050 a6 49 f5 3d b0 a0 98 3d ec 86 68 3e 8d c2 05 3d
       0.11976938 0.07452524 0.22707719 0.03265624
000060 51 6b 09 3e 20 c1 d8 3d 22 2c 1f 3d 06 3a 0e bd
       0.13419844 0.10583711 0.038860448 -0.034723304
000070 ed 8e 79 be 2e 65 ca 3d ba 24 23 3e 9f 9c 58 be
       -0.24370928 0.0988258 0.15931979 -0.21153496
