examples/extended/dyhpo.pth (torch, 109150 bytes, 37 tensors)

feature_extractor.encoder.0.mlp.0.weight f4 [32, 45]
0	0xbdcaf879	-0.09910674
1	0xbd6dac86	-0.05802586
2	0xbe008dc8	-0.12554085
3	0x3d46c6ad	0.048529316
4	0x3d23587c	0.039879307
5	0x3d096b44	0.033549562
6	0xbdf29acf	-0.11845934
7	0x3d62da09	0.055383716
8	0x3e17cb51	0.14823653
9	0x3d858663	0.06519773
10	0xbc89ddd1	-0.016829403
11	0xbe574cf1	-0.21025445
12	0x3d02068e	0.031744532
13	0xbde1b376	-0.110205576
14	0x3c5603b3	0.013062405
15	0xbe172c3f	-0.14762972
16	0x3d86062c	0.06544146
17	0x3e0e32f3	0.13886623
18	0x3c913dfd	0.017729754
19	0x3d8396b7	0.06425231
20	0x3c84c391	0.016206535
21	0xbe0ba299	-0.13636245
22	0xbdb0ec71	-0.086388476
23	0xbde27e90	-0.11059296
24	0xbce72649	-0.028216498
25	0x3d305e3a	0.04305861
26	0x3e51fd54	0.20506793
27	0xbdb66b05	-0.08907131
28	0xbc246376	-0.010033479
29	0xbd9fe4ca	-0.0780731
30	0xbd80eb88	-0.06294924
31	0xbd8d309a	-0.06894036
32	0x3dd200f3	0.10254087
33	0x3d0e6b1d	0.03477012
34	0xbdee91d3	-0.116489075
35	0x3c8f5587	0.017496837
36	0xbd965911	-0.07341207
37	0x3d443938	0.04790613
38	0xbcdd33f3	-0.02700231
39	0x3dba6a21	0.09102274
40	0xbdc46d10	-0.095911145
41	0xbdddecf2	-0.10836209
42	0x3e0f23d8	0.13978517
43	0xbe1d02e1	-0.1533313
44	0x3daec41e	0.085335
45	0xbd35da4c	-0.044397637
46	0xbda75f10	-0.081724286
47	0xbdd91ab8	-0.10600799
48	0xbdc2a6a1	-0.09504438
49	0xbe1799f4	-0.14804822
50	0x3e3c441a	0.18385354
51	0xbd6b340f	-0.057422694
52	0x3e26e9cd	0.16300125
53	0xbdcf814d	-0.10132084
54	0xbe04daad	-0.12974043
55	0xbc3afd97	-0.011413
56	0xbdbe0032	-0.09277381
57	0xbdc93a02	-0.09825517
58	0x3ddfdcd1	0.10930789
59	0xbe03a902	-0.1285744
60	0x3d85a3dc	0.06525394
61	0xbd96aeba	-0.07357545
62	0xbe105c49	-0.14097704
63	0xbd0268cb	-0.03183822
64	0xbc5f5394	-0.013630766
65	0x3e35e026	0.17761287
66	0x3c90869d	0.017642314
67	0xbd798820	-0.060920835
68	0xbe2e9e9a	-0.17052689
69	0xbe32e405	-0.17469795
70	0x3da2d4c6	0.079507396
71	0xbe1ee7b4	-0.15518075
72	0xbb733747	-0.0037111805
73	0x3dcb7dd5	0.0993611
74	0x3d96cbab	0.07363065
75	0x3d5f2dc6	0.054487012
76	0xbd530aac	-0.05152385
77	0xbd518b22	-0.051158078
78	0xbe1e75a5	-0.15474565
79	0xbd3ff7b5	-0.04686709
80	0xbdc19135	-0.09451524
81	0xbd0f7544	-0.035023943
82	0xbc8913c1	-0.016733052
83	0xbd061f4d	-0.032744695
84	0xbd82a822	-0.06379725
85	0xbc805db9	-0.01566969
86	0xbcceb4dd	-0.025232727
87	0x3e09ab68	0.13444293
88	0xbd78e9df	-0.06076991
89	0x3d99a5b6	0.0750231
90	0xbdc1bfcb	-0.0946041
91	0xbdfc232b	-0.12311395
92	0x3d53cf21	0.051711205
93	0x3db1ebfc	0.086875886
94	0xbc2468fd	-0.010034797
95	0xbd986ceb	-0.074426495
96	0xbe4675b9	-0.19380845
97	0xbde14a91	-0.110005505
98	0xbe1d3f2b	-0.15356128
99	0x3d0a9f87	0.033843543
100	0x3d713a16	0.058893286
101	0x3de1345b	0.10996314
102	0x3e1e41b9	0.15454759
103	0xbdf012a5	-0.11722306
104	0x3de84bde	0.113425955
105	0xbc7213b9	-0.01477521
106	0xbc34b47d	-0.01102936
107	0x3d705405	0.058673877
108	0xbb915f40	-0.0044364035
109	0x3e02a294	0.12757331
110	0xbe352459	-0.17689647
111	0x3e405ea1	0.18786098
112	0xbcf0cf2d	-0.029395664
113	0x3d74624c	0.059664056
114	0x3c030f18	0.007999204
115	0x3db47d86	0.08813004
116	0x3d26e482	0.040745266
117	0x3dc49b47	0.09599929
118	0x3cd8ab2c	0.026448809
119	0x3dcc437f	0.09973811
120	0x3e2b0df0	0.16704535
121	0x3cbd7adf	0.023129879
122	0xbdf02911	-0.11726583
123	0x3bbcfd08	0.0057674684
124	0x3d197205	0.037462253
125	0xbe0b64b9	-0.13612641
126	0x3dbf294a	0.09334047
127	0xbdce1711	-0.10062993
128	0xbdcd4332	-0.10022582
129	0x3d89c43a	0.0672688
130	0xbd9fca95	-0.07802311
131	0x3d3172f7	0.04332253
132	0xbc87f541	-0.016596438
133	0x3d2a85d5	0.04163154
134	0xbe2ca927	-0.16861401
135	0xbe19edb9	-0.1503209
136	0x3e000400	0.12501526
137	0xbe0836a8	-0.133021
138	0xbd01e1f2	-0.03170962
139	0xbcb2533b	-0.021768203
140	0xbdc17a87	-0.09447198
141	0x3dd6eb7f	0.10494136
142	0x3da1467a	0.078747705
143	0xbd166a2c	-0.036722347
144	0x3dc1546e	0.09439932
145	0xbdbe8dd8	-0.09304398
146	0x3deac072	0.11462487
147	0xbd064520	-0.032780766
148	0xbdfe64c0	-0.1242156
149	0x3de2751b	0.11057492
150	0x3d64aa9c	0.05582677
151	0x3de55adf	0.11198973
152	0x3d8c32c7	0.068456225
153	0x3cc17ee7	0.023620082
154	0x3e22f7e6	0.15914878
155	0xbdf69d3d	-0.120417096
156	0x3e05a05f	0.13049458
157	0x3dfb0ac8	0.12257916
158	0xbd9b8236	-0.07593195
159	0x3bb50d94	0.0055253003
160	0xbcaeec0a	-0.021352787
161	0x3b9b949c	0.00474794
162	0x3d0fe210	0.0351277
163	0xbdd6fb46	-0.10497145
164	0x3dd0df01	0.101987846
165	0x3e16af04	0.147152
166	0xbdd2547c	-0.1027002
167	0x3ca6d7f9	0.020366656
168	0xbe09d839	-0.13461389
169	0xbddd0ac1	-0.10793067
170	0x3cfd1424	0.030893393
171	0x3d538075	0.051636178
172	0xbe1ae381	-0.15125848
173	0x3d85c6bb	0.065320455
174	0x3da8f942	0.08250667
175	0xbbc618eb	-0.006045451
176	0xbd6ffa61	-0.05858839
177	0x3c5af407	0.013363845
178	0x3d726300	0.059176445
179	0xbd2e65da	-0.042577602
180	0x3adf9ddb	0.0017060594
181	0x3c333272	0.01093732
182	0x3de8a505	0.113596
183	0x3c34b414	0.011029262
184	0xbd5e0d90	-0.054212153
185	0x3e02a32e	0.1275756
186	0x3d9101ff	0.07080459
187	0xbd9e803d	-0.07739303
188	0x3e24f851	0.1611035
189	0xbd91de61	-0.071224935
190	0xbdaf4395	-0.08557812
191	0x3d30e8ed	0.043190885
192	0xbd4393bd	-0.047748316
193	0xbddbb4de	-0.10727857
194	0xbd20783c	-0.039177164
195	0xbdafbc4d	-0.085808374
196	0xbd91e0a0	-0.07122922
197	0xbd17f8fa	-0.037102677
198	0x3c961d9a	0.018324662
199	0x3ba45ec4	0.0050161798
200	0xbcbe358d	-0.023218894
201	0xbde8e3ea	-0.11371596
202	0x3dac27ef	0.08406054
203	0x3d3a7ce0	0.045529246
204	0x3d94ff4f	0.07275259
205	0x3cbbf3b6	0.022943359
206	0x3c93874f	0.018008856
207	0xbcf88d61	-0.030340852
208	0x3d2ecdf7	0.042676892
209	0xbc923aec	-0.017850362
210	0xbd0111f7	-0.031511273
211	0xbd808772	-0.06275834
212	0x3d59590e	0.053063445
213	0x3bd35c4f	0.006450213
214	0x3db0e071	0.08636559
215	0x3d58033f	0.05273747
216	0x3d4a8ded	0.049451757
217	0x3dd7cabe	0.10536717
218	0x3d9b263b	0.07575651
219	0xbd956d2a	-0.07296212
220	0x3de0d474	0.10978022
221	0xbe1d4eb9	-0.15362062
222	0xbd81cf9b	-0.06338426
223	0x3de67b64	0.11254004
224	0x3cde75da	0.027155805
225	0xbd081aa0	-0.033228517
226	0x3dba334c	0.09091815
227	0xbdee62a3	-0.11639907
228	0xbcd36e1c	-0.02580934
229	0x3d952920	0.072832346
230	0xbdc516ff	-0.09623527
231	0x3d6629dc	0.056192264
232	0xbc96a606	-0.018389713
233	0xbe0eef1c	-0.139584
234	0xbd5dfeb7	-0.054197993
235	0x3d8b6dc1	0.06808043
236	0xbe01e164	-0.12683636
237	0xbc0611dc	-0.008182969
238	0x3e3ffd0d	0.18748875
239	0x3dba116e	0.09085356
240	0xbdab0b10	-0.083517194
241	0xbd0a4f24	-0.03376688
242	0xbdb34f48	-0.08755356
243	0x3e105731	0.14095761
244	0xbd3783b8	-0.04480335
245	0x3dcbfb4b	0.0996004
246	0xbdc37b1d	-0.09544966
247	0xbc05f151	-0.00817521
248	0x3d89a2d2	0.06720509
249	0xbda89211	-0.08230985
250	0xbd3f14b7	-0.046650615
251	0x3e10c8a7	0.14139043
252	0xbd8db155	-0.06918589
253	0xbcf0d690	-0.029399186
254	0x3d9c7fbe	0.076415524
255	0xbdb288f5	-0.08717529

feature_extractor.encoder.0.mlp.0.bias f4 [32]
0	0xbd4b9b2b	-0.049708527
1	0xbca702d0	-0.020387083
2	0xbd2855cf	-0.04109746
3	0xbde2835e	-0.110602126
4	0x3df71689	0.12064845
5	0xbe069516	-0.1314281
6	0xbc9ea00a	-0.019363422
7	0x3b2bc885	0.0026212048
8	0x3dd795ed	0.10526643
9	0xbe242572	-0.16029909
10	0x3d947173	0.07248201
11	0xbc644efa	-0.013934845
12	0x3c78a79c	0.01517668
13	0xbc962e50	-0.01833263
14	0x3da48b80	0.0803442
15	0x3de88744	0.11353925
16	0xbdce6e7b	-0.10079666
17	0x3def2133	0.11676254
18	0xbda572ca	-0.08078535
19	0xbca8f040	-0.020622373
20	0xbdab4384	-0.08362487
21	0xbd47e37c	-0.04880093
22	0x3c0ce67d	0.008599875
23	0xbe1909c0	-0.14945126
24	0xbde1e922	-0.11030795
25	0x3c82533f	0.015908835
26	0x3e15cb1c	0.14628261
27	0xbe0bb22d	-0.13642187
28	0xbd29a565	-0.0414175
29	0x3dd89dbc	0.105769604
30	0x3ca7b628	0.020472601
31	0x3d9c84f7	0.076425485

feature_extractor.encoder.0.mlp.2.weight f4 [32, 32]
0	0x3d51f0c4	0.051255003
1	0xbe6731d2	-0.22577599
2	0x3df7e8ce	0.12104951
3	0xbc23b284	-0.009991292
4	0x3d2abd30	0.04168433
5	0xbda72ea9	-0.081631966
6	0x3dfd896f	0.12379729
7	0xbdc3201b	-0.09527608
8	0xbe3337ff	-0.1750183
9	0xbd37df12	-0.04489047
10	0xbe0f0f66	-0.13970718
11	0xbd609ac5	-0.0548351
12	0xbcc4014e	-0.023926403
13	0x3d6c3def	0.057676252
14	0xbd328d05	-0.043591518
15	0xbd002d60	-0.031293273
16	0xbddc826f	-0.10767066
17	0x3e486375	0.1956919
18	0x3e12c758	0.14333856
19	0x3ca15ae9	0.01969667
20	0xbdc777cf	-0.097396486
21	0xbd0888b8	-0.03333351
22	0xbdc15e0c	-0.09441766
23	0x3d5c540a	0.053791083
24	0x3df920d5	0.12164465
25	0xbc83cc82	-0.016088728
26	0x3e0b4594	0.1360076
27	0x3caf364c	0.021388195
28	0x3b00c979	0.0019651337
29	0x3dbe7825	0.093002595
30	0xbd14e31e	-0.03634941
31	0x3e211ff9	0.15734853
32	0xbdeb3743	-0.1148515
33	0x3e01bfa2	0.12670758
34	0x3dcd48aa	0.10023625
35	0x3e15ca34	0.14627916
36	0xbcdfbf48	-0.02731289
37	0xbe005d78	-0.12535655
38	0x3de8c8fd	0.113664605
39	0xb92463ad	-0.00015677391
40	0x3d881393	0.066443585
41	0x3da81a21	0.08208109
42	0xbe06ab04	-0.13151175
43	0xbdd1d65a	-0.102459624
44	0x3de2db6c	0.11077008
45	0x3b74550b	0.0037282135
46	0xbe3326cc	-0.17495269
47	0xbe392659	-0.18081035
48	0xbcc4310f	-0.023949174
49	0x3e1e05eb	0.15431945
50	0x3dd4165e	0.10355829
51	0xbe4bd361	-0.19904853
52	0x3e1951a1	0.14972545
53	0x39c845db	0.0003819902
54	0x3d6efa3a	0.058344103
55	0xbd4f103b	-0.050552588
56	0xbd9e2312	-0.07721533
57	0xbc6120c6	-0.013740724
58	0xbdd2e557	-0.10297649
59	0x3e16dfb0	0.14733768
60	0x3e077002	0.13226321
61	0x3e058ee6	0.13042793
62	0x3da84a63	0.08217313
63	0x3bdadfb5	0.0066795
64	0xbca674be	-0.020319339
65	0x3ddc0830	0.10743749
66	0xbe34e9cf	-0.17667316
67	0xbdbf30b6	-0.09335463
68	0x3ab8a01c	0.0014085802
69	0xbe094958	-0.13406885
70	0xbd83860d	-0.064220525
71	0xbdf23f40	-0.1182847
72	0x3e091f59	0.13390864
73	0xbe034e85	-0.12822922
74	0x3d9b49e6	0.075824544
75	0x3e2eb18d	0.17059918
76	0xbe2219df	-0.15830182
77	0x3af0389b	0.0018327417
78	0x3e0ccfa8	0.1375109
79	0x3d5f5d60	0.05453241
80	0x3e11416d	0.14185114
81	0xbdb2e6dc	-0.08735439
82	0xbd5197b8	-0.05117008
83	0xbd822886	-0.063553855
84	0x3e4abb58	0.19798028
85	0x3e0c4641	0.13698675
86	0x3d925623	0.071453355
87	0x3cc467e5	0.023975322
88	0x3d659190	0.056047022
89	0xbc2b7871	-0.010465727
90	0x3e0aedb2	0.13567236
91	0xbe020db4	-0.1270054
92	0xbd9af33f	-0.07565927
93	0xbd4795a0	-0.048726678
94	0xbdb9b06d	-0.09066854
95	0xbdf72f91	-0.120696194
96	0x3e65067f	0.2236576
97	0xbe69f13a	-0.22845927
98	0xbdb28166	-0.08716087
99	0x3dd37a72	0.10326089
100	0x3dc0f740	0.09422159
101	0xbd3d7d57	-0.04626211
102	0xbda495ec	-0.08036408
103	0xbda9991f	-0.08281159
104	0x3e316bcf	0.17326282
105	0xbddb138c	-0.10697088
106	0xbda9a34d	-0.082831
107	0x3c74ad88	0.014933951
108	0x3de8850e	0.11353503
109	0xbdf186e8	-0.117933095
110	0xbbef5bec	-0.007304659
111	0x3dda520d	0.10660181
112	0x3c7f79e9	0.0155930305
113	0x3e3ba183	0.1832333
114	0x3d27bf11	0.0409537
115	0x3d5f19df	0.054468032
116	0x3dff7bb6	0.12474768
117	0x3db1aa42	0.08675052
118	0x3cf63393	0.03005389
119	0x3d15cbaf	0.0365712
120	0x3d5cd5e0	0.053914905
121	0xbe287ce0	-0.16453886
122	0x3df5a362	0.119940534
123	0x3cb5b09c	0.02217894
124	0xbd71590c	-0.058922812
125	0x3c2419b3	0.010015893
126	0xbdb930d8	-0.09042519
127	0xbca00a6e	-0.019536223
128	0x3dfdd62e	0.12394367
129	0xbd32da93	-0.04366548
130	0x3df26322	0.11835314
131	0xbe71bc65	-0.23607023
132	0xbdbcd873	-0.09220972
133	0x3e243ebc	0.16039556
134	0xbdfe61bd	-0.12420986
135	0xbbd300b2	-0.006439292
136	0xbd7d3bbd	-0.06182455
137	0xbdd85241	-0.10562564
138	0x3e00e5fe	0.12587735
139	0x3c80d03f	0.0157243
140	0x3d1d10f2	0.03834624
141	0x3d140f29	0.03614727
142	0x3df85377	0.12125295
143	0x3db2c22b	0.08728441
144	0x3e00a779	0.12563886
145	0x3db1a640	0.08674288
146	0xbd99ab98	-0.07503432
147	0x3dffc565	0.12488822
148	0x3d82766c	0.063702434
149	0xbd84e84f	-0.06489622
150	0xbabf6c85	-0.0014604485
151	0x3db3dc39	0.087822385
152	0x3d20caf0	0.039256036
153	0x3cc61a93	0.024182593
154	0xbe30f256	-0.17279944
155	0x3d15fc38	0.036617488
156	0x3d16a882	0.036781795
157	0x3e3e465b	0.18581526
158	0x3d118c10	0.035533965
159	0x3dcc9149	0.099886484
160	0x3e31839f	0.17335366
161	0xbc95d41f	-0.018289624
162	0x3da97d2a	0.08275826
163	0x3da086e7	0.078382306
164	0x3d0650ca	0.03279189
165	0xbe0c5d99	-0.1370758
166	0xbe0b6c35	-0.13615496
167	0xbe246b23	-0.16056494
168	0xbd93f3d8	-0.07224244
169	0xbe18fab0	-0.1493938
170	0x3dcbe2ab	0.09955343
171	0xbddd801b	-0.1081545
172	0x3dcc53df	0.09976935
173	0xbdad6a3b	-0.084675275
174	0xbe117379	-0.14204206
175	0x392a25c7	0.00016226537
176	0xbd8e33a0	-0.069434404
177	0xbe1426fd	-0.14467998
178	0x3d97df4e	0.07415639
179	0xbe1eb165	-0.15497358
180	0x3cf767d2	0.030200873
181	0x3e278921	0.16360904
182	0x3d259c06	0.040432
183	0xbdec4261	-0.11536098
184	0xbca87090	-0.020561486
185	0xbdd1f19e	-0.10251163
186	0x3cbbedc7	0.02294053
187	0xbe174829	-0.1477362
188	0xbe114d35	-0.14189608
189	0x3d377f9f	0.044799443
190	0xbe1eac95	-0.15495522
191	0x3cb1857d	0.021670097
192	0x3e14fb7f	0.14549063
193	0xbda0d4f0	-0.078531146
194	0x3e13af17	0.1442226
195	0x3defd8ec	0.117112964
196	0x3dadbfc6	0.084838435
197	0x3cc55735	0.024089435
198	0xbde6353d	-0.11240623
199	0xbdfd1d8a	-0.1235915
200	0xbcc5534a	-0.024087567
201	0x3dae20a8	0.085023224
202	0x3dae4ba7	0.08510523
203	0x3e2cb668	0.16866457
204	0x3e300dde	0.1719279
205	0xbce2ad6f	-0.02767059
206	0xbe33483e	-0.17508027
207	0xbd15a90e	-0.036538176
208	0xbd925802	-0.071456924
209	0x3d94eba4	0.072715074
210	0xbb29ee19	-0.002592927
211	0xbdcad4b1	-0.09903849
212	0xbd0214be	-0.031758063
213	0xbb5281ae	-0.0032120752
214	0x3cf1bd79	0.029509293
215	0x3daa6bad	0.08321319
216	0xbde0f5b9	-0.10984368
217	0x3c601cd7	0.013678751
218	0x3d1cc8b0	0.038277328
219	0x3e2bed79	0.16789807
220	0xbe28219f	-0.16419075
221	0xbe378c0e	-0.1792452
222	0x3ce57fb6	0.028014999
223	0xbd58d648	-0.05293873
224	0x3e46a4fc	0.19398874
225	0xbdd4d645	-0.10392431
226	0x3c39310b	0.011303197
227	0xbdf15a37	-0.11784785
228	0xbe2539b7	-0.16135298
229	0x3d2e84bb	0.04260705
230	0x3d3a95ed	0.045553137
231	0x3d4d008f	0.05004936
232	0x3c36eb24	0.01116446
233	0x3cd3000f	0.025756864
234	0x3d48c167	0.049012568
235	0xbe46ed9a	-0.19426575
236	0x3dc73d96	0.097285435
237	0x3d8a36c9	0.06748731
238	0x3d9290d3	0.07156529
239	0x3d40c067	0.04705849
240	0xbd3bc289	-0.04583982
241	0xbd9c3b48	-0.076284945
242	0xbcf6816a	-0.030091006
243	0x3d97362d	0.0738338
244	0x3da184b6	0.07886641
245	0x3df333bc	0.11875102
246	0x3e0c29b0	0.13687778
247	0xbdf917b5	-0.12162725
248	0xbe297db7	-0.16551863
249	0x3d55c5b7	0.05219051
250	0xbd4abafd	-0.049494732
251	0x3e0aed9a	0.135672
252	0x3e01b925	0.12668283
253	0x3d01072b	0.031500977
254	0x3dc4c363	0.096075796
255	0x3d144e34	0.036207393

feature_extractor.encoder.0.mlp.2.bias f4 [32]
0	0x3e39b51a	0.18135491
1	0x3c1988f3	0.00937103
2	0x3ded5ed4	0.11590353
3	0x3e05fdf4	0.13085157
4	0xbd84844b	-0.064705454
5	0xbdb52446	-0.08844809
6	0xbdbd14e6	-0.09232502
7	0x3d27dd31	0.04098243
8	0x3dc1760a	0.09446342
9	0xbe0432d0	-0.12910008
10	0x3e0c4e92	0.13701847
11	0x3dd87073	0.10568323
12	0x3e232041	0.15930273
13	0xbde9cc87	-0.114159636
14	0xbe120b53	-0.14262132
15	0xbdff2bb3	-0.12459507
16	0xbdcb9376	-0.09940235
17	0xbe1ef991	-0.1552489
18	0x3e2e6a0c	0.17032641
19	0x3d2a58a2	0.041588433
20	0xbe0b2aa6	-0.13590488
21	0x3d8fd086	0.070221946
22	0xbd6655a6	-0.056234024
23	0xbcd0113c	-0.025398843
24	0x3e1611a2	0.14655164
25	0x3ded079d	0.11573718
26	0x3d8b51af	0.06802689
27	0x3d8069e5	0.06270198
28	0x3e02bb54	0.12766773
29	0x3dd65ac0	0.10466528
30	0xbddb8d50	-0.107203126
31	0xbd8f2946	-0.06990294

feature_extractor.encoder.0.mlp.4.weight f4 [32, 32]
0	0x3d4695d6	0.04848274
1	0xbd8b0d07	-0.06789594
2	0xbe056c92	-0.13029698
3	0x3d03d24e	0.032182984
4	0x3e055e8d	0.1302435
5	0x3de4f012	0.11178602
6	0x3db1a84e	0.0867468
7	0xbcb732b1	-0.022363039
8	0x3dc2dab9	0.09514374
9	0x3c6d0e60	0.014468759
10	0x3d53f152	0.051743813
11	0x3d196c7e	0.03745698
12	0xbd908211	-0.07056058
13	0xbd447894	-0.047966555
14	0xbddea520	-0.10871339
15	0xbe5cd9c8	-0.21567452
16	0xbe527d2b	-0.2055556
17	0xbd12b865	-0.035820384
18	0xbb4d2c47	-0.003130691
19	0x3dad1275	0.08450786
20	0x3df3a50e	0.11896716
21	0x3deee49f	0.116647
22	0x3dadc8bf	0.08485555
23	0xbe4130f4	-0.1886633
24	0xbd1374f6	-0.036000215
25	0xbcb3ffeb	-0.021972617
26	0x3e12eccc	0.14348143
27	0x3df15091	0.11782945
28	0xbca3748f	-0.01995304
29	0xbce9c289	-0.028535144
30	0x3db863e0	0.09003425
31	0xbda67519	-0.08127803
32	0xbde2fabc	-0.1108298
33	0xbdc456cf	-0.0958687
34	0xbdc09e15	-0.09405152
35	0x3e21766c	0.1576783
36	0xbde704f3	-0.11280241
37	0xbd98e35d	-0.07465241
38	0xbd63cf7d	-0.055617798
39	0xbcb84a7d	-0.022496456
40	0xbdeb88ac	-0.115006775
41	0xbd847b89	-0.06468875
42	0x3d5b81c6	0.05359056
43	0x3db86fd9	0.09005708
44	0x3dc9f8c7	0.09861904
45	0x3c841b80	0.016126394
46	0xbdaa6359	-0.0831973
47	0xbe5605a2	-0.20900586
48	0xbe5eede0	-0.2177043
49	0xbe07e41a	-0.13270608
50	0x3d35b97e	0.044366352
51	0x3a8c6608	0.001071156
52	0xbc682ab9	-0.014170342
53	0x3de7ced8	0.11318749
54	0xbdc940c9	-0.0982681
55	0x3bd8f6eb	0.006621232
56	0xbcdb20ce	-0.026749041
57	0xbd981000	-0.07424927
58	0xbd295af9	-0.041346524
59	0xbdb0576c	-0.086104244
60	0xbca66cd9	-0.020315574
61	0xbd528fce	-0.051406674
62	0x3c82a291	0.015946658
63	0x3e06dc1f	0.13169907
64	0xb9a506be	-0.00031476276
65	0x3ce0f82c	0.027462088
66	0xbe0df5fb	-0.13863365
67	0xbe285787	-0.16439639
68	0x3de2f718	0.11082286
69	0x3d38101d	0.04493724
70	0xbc67e638	-0.0141540095
71	0xbdc6ffbc	-0.09716746
72	0xbd8cba26	-0.068714425
73	0xbe4276ff	-0.18990706
74	0x3e21d867	0.15805207
75	0xbe434b14	-0.19071609
76	0x3ded3ccf	0.11583864
77	0xbe2e6f2b	-0.17034595
78	0xbe37c4cf	-0.1794617
79	0x3d4736e5	0.048636336
80	0x3e3ccc02	0.18437198
81	0x3e02c2cb	0.1276962
82	0xbe46630a	-0.19373718
83	0x3ce1fbdf	0.027585922
84	0xbe01ef73	-0.12688999
85	0x3e0342a1	0.12818386
86	0x3d1bf787	0.038077857
87	0x3e339637	0.17537771
88	0x3d15cab2	0.03657026
89	0x3cc32b3f	0.023824332
90	0xbe33d6f0	-0.17562461
91	0xbd15bb04	-0.036555305
92	0xbdff4f76	-0.12466328
93	0xbd030665	-0.03198852
94	0xbde3b238	-0.11117977
95	0x3c2d9ba0	0.010596186
96	0x3d89a610	0.06721127
97	0xbdcf9b3c	-0.101370305
98	0xbdf566d8	-0.119825065
99	0xbd42aee8	-0.047530085
100	0xbd6adad6	-0.057337604
101	0x3d91f0b7	0.07125991
102	0xbd980762	-0.07423283
103	0xbceeb3f3	-0.02913854
104	0x3dc15a88	0.094410956
105	0x3d1e4fea	0.03865043
106	0x3d84b52e	0.0647987
107	0xbd917f1a	-0.07104321
108	0x3e1f1663	0.15535884
109	0x3e006885	0.12539871
110	0xbd2f64cc	-0.042820737
111	0x3d8bd5da	0.06827898
112	0xbdff8e33	-0.12478294
113	0x3de22ac6	0.11043315
114	0x3e0c76ca	0.1371719
115	0xbe0fe8e7	-0.14053689
116	0x3e50be7f	0.20385168
117	0x3e08177e	0.13290212
118	0xbe1ac7d3	-0.1511529
119	0xbe495bd2	-0.19663933
120	0xbd39c9e0	-0.04535854
121	0x3d6e4400	0.05817032
122	0x3cba9cda	0.02277987
123	0xbe5aad42	-0.21355155
124	0x3e1935b1	0.14961888
125	0x39b915b2	0.00035302114
126	0x3e247d97	0.16063534
127	0x3d34eeec	0.044173166
128	0xbcf53c57	-0.029935999
129	0x3da11ce3	0.07866838
130	0x3c415aa2	0.011801394
131	0xbced2834	-0.028949834
132	0x3c28c327	0.010300434
133	0xbe0dde29	-0.13854279
134	0xbd56e4de	-0.05246436
135	0x3e18ffb1	0.14941289
136	0x3e272833	0.16323929
137	0xbd71fb9b	-0.05907784
138	0x3de5631c	0.11200544
139	0x3da132bd	0.07871006
140	0xbe14748a	-0.14497581
141	0x3d42394a	0.047417916
142	0x3dac4556	0.08411662
143	0x3ddc1d95	0.1074783
144	0xbd750678	-0.059820622
145	0x3c8fe6cc	0.017566107
146	0xbd833d6f	-0.06408202
147	0xbc8d2e29	-0.017233925
148	0xbdef13c7	-0.11673694
149	0x3d19c106	0.037537597
150	0x3def14e2	0.11673905
151	0x3d4790ed	0.048722196
152	0xbd1c117d	-0.038102616
153	0x3c9190bd	0.017769212
154	0xbc177b94	-0.009245772
155	0xbdf6eb8a	-0.12056644
156	0xbdb6ec86	-0.08931832
157	0xba5dfb4f	-0.0008467929
158	0xbdd7ab4e	-0.10530721
159	0xbd8fc65a	-0.070202544
160	0xbe0f839f	-0.14015053
161	0x3baf3487	0.005346838
162	0x3dc3dc39	0.095634885
163	0x3e2e4259	0.17017497
164	0x3a9acf3a	0.0011811026
165	0xbd7b80ca	-0.06140212
166	0xbdeb3ff7	-0.1148681
167	0x3e18fd9a	0.14940491
168	0xbdd8c1fe	-0.10583876
169	0x3e0378a9	0.12838997
170	0x3e310cb7	0.17290007
171	0xbdd3d622	-0.10343577
172	0xbe2ada7a	-0.16684905
173	0xbe35d9c6	-0.17758855
174	0xba250d79	-0.0006296258
175	0x3dec7805	0.115463294
176	0xbc61c4f3	-0.0137798665
177	0xbcf9a513	-0.030474221
178	0xbd277665	-0.040884394
179	0x3e2d36be	0.16915414
180	0xbe0bd532	-0.13655546
181	0xbdede1d9	-0.11615343
182	0x3e52d3b8	0.20588577
183	0x3d92fa20	0.07176614
184	0xbe1931fc	-0.14960474
185	0x3d826946	0.063677356
186	0x3d925d0b	0.07146653
187	0x3d8c73b2	0.06858005
188	0x3de3d5be	0.111247525
189	0x3cce519d	0.0251854
190	0xbdca88a4	-0.098893434
191	0x3e2c85a5	0.16847856
192	0x3e2d716e	0.16937801
193	0xbcce13fd	-0.025156016
194	0xbe54e7d7	-0.20791565
195	0xbe147060	-0.14495993
196	0x3de8dcfa	0.11370273
197	0x3e14d8c5	0.14535816
198	0xbe020660	-0.12697744
199	0x3dcd3ca1	0.1002133
200	0x3de6c3a1	0.11267782
201	0x3da79a07	0.08183675
202	0xbdf0126f	-0.11722266
203	0x3dd5504e	0.104157075
204	0x3dd738d0	0.10508883
205	0xbd92e85f	-0.071732275
206	0x3e375233	0.1790245
207	0xbde1c2d8	-0.110234916
208	0xbdbfc4ed	-0.093637325
209	0xbe37f2ed	-0.17963763
210	0xbe1a86a7	-0.15090428
211	0xbdcf173e	-0.10111855
212	0x3dee3d43	0.116327785
213	0xbc2f7450	-0.010708883
214	0xbe28fed7	-0.16503464
215	0xbd39c35a	-0.045352317
216	0xbab7b4e8	-0.0014015706
217	0xbe37b9e6	-0.17942008
218	0x3d38e6c6	0.045141958
219	0xbded8729	-0.115980454
220	0x3de22646	0.11042456
221	0x3e27d9fb	0.16391747
222	0xbdc304ee	-0.09522425
223	0xbd7c0236	-0.061525546
224	0x3d1d059f	0.03833544
225	0x3d882e29	0.06649429
226	0xbe09f2f0	-0.1347158
227	0xbe0ca5b4	-0.13735086
228	0xbe36fbaa	-0.1786944
229	0x3c10fc4d	0.008849216
230	0x3da3f095	0.08004872
231	0x3d5ee791	0.054420058
232	0xbdbcb6ac	-0.092145294
233	0x3d1d0549	0.03833512
234	0xbd9651c4	-0.07339814
235	0xbe2b8c3f	-0.16752718
236	0xbb6ff907	-0.0036616938
237	0xbdeff126	-0.11715917
238	0xbdc5b21c	-0.09653112
239	0x3df95ae4	0.12175539
240	0x3e42d928	0.19028151
241	0x3de5e018	0.11224383
242	0xbe340309	-0.17579283
243	0xbe1cf440	-0.15327549
244	0xbde5fb42	-0.11229564
245	0xbe2f781e	-0.17135665
246	0x3d03f797	0.032218542
247	0x3e58e204	0.21179968
248	0xbca23514	-0.0198007
249	0x3db9d2ef	0.090734355
250	0xbe0aff24	-0.13573891
251	0x3d4d7998	0.05016479
252	0x3db906e7	0.0903452
253	0x3d7499e8	0.05971709
254	0xbe35e8b9	-0.17764558
255	0x3da411e0	0.08011222

feature_extractor.encoder.0.mlp.4.bias f4 [32]
0	0x3e1f3762	0.1554847
1	0x3d9495f9	0.072551675
2	0xbe2c4674	-0.1682375
3	0x3dd80a53	0.10548844
4	0x3e1e3e43	0.15453438
5	0xbe22d93f	-0.15903185
6	0xbc6cc7db	-0.014451946
7	0x3e157851	0.14596678
8	0x3d214b3e	0.039378397
9	0xbd46eebe	-0.048567526
10	0xbe0cd02f	-0.1375129
11	0xbdb52930	-0.088457465
12	0x3e4287ec	0.18997163
13	0x3e314f04	0.17315298
14	0xbe396019	-0.18103065
15	0xbdf35948	-0.118822634
16	0x3d5ee3b0	0.05441636
17	0xbccfa2ab	-0.02534612
18	0xbd2333fe	-0.039844505
19	0xbe198d61	-0.14995338
20	0xbe22699d	-0.15860601
21	0xbda11dba	-0.07866998
22	0x3dd27270	0.102757335
23	0x3cd65833	0.026165104
24	0x3dabb036	0.08383219
25	0x3d92e60d	0.07172785
26	0xbd988d82	-0.074488655
27	0xbe08aa47	-0.13346206
28	0xbd904a0c	-0.07045373
29	0x3dac25e9	0.08405668
30	0xbc4873bc	-0.0122346245
31	0x3d36f746	0.044669412

feature_extractor.encoder.1.mlp.0.weight f4 [32, 26]
0	0x3e183c53	0.14866762
1	0xbaf05623	-0.0018336218
2	0x3e2815e5	0.16414602
3	0x3de995cd	0.11405525
4	0xbd90b41c	-0.07065603
5	0x3e33bb33	0.1755188
6	0x3d72bc65	0.0592617
7	0xbdff89d4	-0.124774605
8	0xbe3ccdce	-0.18437883
9	0xbda74e57	-0.08169239
10	0xbe1e0ff0	-0.15435767
11	0x3e333750	0.17501569
12	0x3d806f7f	0.06271266
13	0x3d87cf11	0.06631292
14	0xbe0e8eb5	-0.13921626
15	0xbdc5c4d7	-0.09656685
16	0xbe1ed917	-0.155125
17	0x3d21f6ca	0.039541997
18	0x3dd33e34	0.10314599
19	0xbe25c838	-0.16189659
20	0xbdbb4a85	-0.09145073
21	0x3dfb147e	0.12259768
22	0xbdb50e98	-0.08840674
23	0x3e1ef20a	0.15522018
24	0xbde295e5	-0.11063746
25	0xbc568c29	-0.01309494
26	0xbe447d67	-0.19188462
27	0x3dc00f5a	0.09377928
28	0xbddde1ff	-0.10834121
29	0xbdbf6645	-0.09345678
30	0xbe046e70	-0.12932754
31	0xbdb1237c	-0.08649346
32	0xbd2e31a7	-0.04252782
33	0xbd1e74e9	-0.038685713
34	0xbbff0799	-0.007782888
35	0xbda2d4eb	-0.07950767
36	0x3dd9469a	0.10609169
37	0x3ecd2a55	0.4007136
38	0x3e365eeb	0.17809646
39	0x3e0c3d9d	0.13695379
40	0x3d0d3f98	0.034484476
41	0xbdb9d487	-0.090737395
42	0x3d4d080f	0.050056513
43	0xbd12e757	-0.035865154
44	0xbe4b6823	-0.19863944
45	0xbe25a30f	-0.16175483
46	0xbe060b3e	-0.13090226
47	0xbd71dfbd	-0.059051264
48	0x3deefb39	0.11669011
49	0xbd83d9e9	-0.064380474
50	0x3db6d363	0.089270376
51	0x3d852d89	0.06502826
52	0x3e34d0bf	0.17657755
53	0x3d4947c3	0.049140703
54	0xbe007bad	-0.12547179
55	0xbc8ff0b1	-0.017570825
56	0x3e15553c	0.14583296
57	0xbd1a0cd4	-0.03760989
58	0x3e29eac5	0.16593464
59	0x3de6942c	0.1125873
60	0xbd80727d	-0.06271837
61	0xbb81f30e	-0.003965742
62	0xbe021112	-0.12701824
63	0xbe8e8a84	-0.27840054
64	0x3dd1d99a	0.10246582
65	0xbdfab09d	-0.122407176
66	0xbc6762fd	-0.014122722
67	0xbdbe9cfd	-0.09307287
68	0x3d7a04c1	0.06103969
69	0x3d5a561c	0.053304777
70	0xbc674fc6	-0.014118141
71	0xbe24a927	-0.16080151
72	0x3dffba36	0.12486689
73	0x3e32a53b	0.17445843
74	0xbe03b554	-0.1286214
75	0x3dfa0f29	0.12209923
76	0x3c3fe541	0.011712373
77	0x3d6dfc91	0.058102194
78	0x3cd99071	0.026558133
79	0xbd762d29	-0.06010166
80	0x3df35c69	0.1188286
81	0xbd07f1a4	-0.03318943
82	0xbe0f70ae	-0.14007828
83	0xbd1d0707	-0.03833678
84	0xbe06da19	-0.13169135
85	0xbe117bc4	-0.14207369
86	0xbd9044d0	-0.07044375
87	0xbd7baab3	-0.06144209
88	0x3d596a40	0.053079844
89	0xbd867318	-0.06564921
90	0xbdac682e	-0.08418308
91	0xbe1a7ade	-0.15085933
92	0xbc68cf66	-0.014209604
93	0xbd596e8a	-0.053083934
94	0xbe1afdcd	-0.1513588
95	0x3e157380	0.14594841
96	0xbd9ccc73	-0.07656183
97	0xbd29c6d7	-0.041449394
98	0x3dd56b71	0.104208834
99	0x3e433bdb	0.19065802
100	0x3dc6fe5b	0.09716483
101	0xbe144393	-0.14478903
102	0x3e457481	0.19282724
103	0xbb4a81bb	-0.003090008
104	0xbe5436dd	-0.20724054
105	0x3dc3ead8	0.09566277
106	0xbe3af7cd	-0.18258591
107	0x3d07566b	0.0330414
108	0xbd8b00a6	-0.06787233
109	0x3e012fc3	0.12615876
110	0xbe3f4b06	-0.18680963
111	0x3c9f1852	0.019420777
112	0xbe4981ba	-0.19678393
113	0x3e2b72e3	0.16743045
114	0xbd5f87e0	-0.05457294
115	0xbd42147e	-0.047382824
116	0xbde6651c	-0.11249754
117	0x3e3a1720	0.18172884
118	0x3e0fe51f	0.14052247
119	0x3e06bcd1	0.13157965
120	0xbe30674b	-0.17226903
121	0xba363098	-0.000694999
122	0xbdd5d95a	-0.10441847
123	0x3d79cdd2	0.0609873
124	0x3e1b9400	0.15193176
125	0xbb7f1f73	-0.0038928657
126	0xbd8a4042	-0.067505375
127	0xbe129280	-0.14313698
128	0x3e351755	0.17684682
129	0x3d549bc1	0.05190635
130	0xbe3bb10b	-0.18329255
131	0xbdf6e36a	-0.120550945
132	0x3e0a2d21	0.13493778
133	0xbd92d334	-0.0716919
134	0x3d26db39	0.04073641
135	0x3c4f336f	0.01264654
136	0xbcd64190	-0.02615431
137	0xbe46f366	-0.19428787
138	0x3d9739ea	0.07384093
139	0x3d2613f1	0.04054636
140	0xba922e19	-0.0011152654
141	0xbe09d0dd	-0.13458581
142	0xbd9b0d57	-0.07570904
143	0xbe27baf3	-0.16379909
144	0xbe31dcfd	-0.17369457
145	0x3e3c4f6c	0.18389672
146	0xbd606a81	-0.05478907
147	0x3c902955	0.017597834
148	0x3d0d6383	0.03451873
149	0xbd9d426d	-0.07678685
150	0xbdc26a41	-0.094929226
151	0xbdb771c3	-0.08957245
152	0x3e454cce	0.1926758
153	0xbe33a3c3	-0.17542939
154	0xbe3ad74c	-0.18246192
155	0x3dbc9e19	0.09209842
156	0xbdb0aa84	-0.08626273
157	0xbdc06070	-0.09393394
158	0xbd8563b4	-0.065131575
159	0x3cd2c273	0.025727486
160	0x3d6e9d04	0.05825521
161	0xbe23bfa1	-0.1599107
162	0x3e04fa5b	0.12986128
163	0x3d2aa573	0.04166169
164	0x3da2a7c4	0.07942155
165	0x3cbf83cf	0.02337828
166	0xbe1bdd5a	-0.15221158
167	0x3e21a12f	0.15784143
168	0xbe23c743	-0.15993981
169	0x3c430395	0.0119027095
170	0x3da7bb34	0.08190003
171	0x3c1ce4a7	0.009575999
172	0xbcbc1e2e	-0.02296361
173	0x3dca147e	0.0986719
174	0x3ccda8d9	0.025104927
175	0xbd0336ae	-0.03203457
176	0x3e1f2d07	0.1554452
177	0xbcf13928	-0.0294462
178	0x3c71807d	0.014740107
179	0x3db708ad	0.08937202
180	0xbd0ce890	-0.034401476
181	0xbd0cd1f0	-0.0343799
182	0xbd3163cf	-0.043308076
183	0xbe47043e	-0.19435212
184	0xbdedb121	-0.1160605
185	0xbdbe2212	-0.09283842
186	0xbc7aefab	-0.01531593
187	0x3db7293b	0.08943411
188	0xbd978f97	-0.074004345
189	0x3c1298c1	0.008947552
190	0xbe3c290c	-0.18375033
191	0x3db8da7f	0.0902605
192	0xbd660458	-0.056156486
193	0x3e9aa5f8	0.3020475
194	0x3d9deb85	0.077109374
195	0xbe41ef8c	-0.18939036
196	0x3baccba0	0.0052732974
197	0xbdc5bfa1	-0.09655691
198	0x3ddd532b	0.10806879
199	0xbc720506	-0.0147717055
200	0xbc2857bb	-0.010274823
201	0x3e4b34bf	0.1984434
202	0x3d1af5b7	0.03783199
203	0xbe22ddad	-0.15904875
204	0xbe11a497	-0.14222942
205	0x3e01fa84	0.1269322
206	0xbd526048	-0.051361352
207	0xbe47ef9e	-0.19525
208	0xbcb5ebf8	-0.022207245
209	0xbde4d3c9	-0.11173207
210	0x3dbadafb	0.091237985
211	0x3e28a717	0.1646999
212	0xbe50932f	-0.20368646
213	0x3e22ece9	0.15910687
214	0x3cae9ca1	0.02131492
215	0xbdbedcfc	-0.09319493
216	0x3e4fd695	0.202967
217	0x3cee9886	0.029125463
218	0xbd6c72d6	-0.057726704
219	0xbca5a69c	-0.020221047
220	0xbddd5e38	-0.108089864
221	0xbd1e7a3f	-0.0386908
222	0x3df2300f	0.11825573
223	0xbdf9ce98	-0.12197608
224	0x3e2417cd	0.16024704
225	0xbde15ecc	-0.11004409
226	0x3d2ed31d	0.042681802
227	0xbcf98670	-0.030459613
228	0xbbd5ec50	-0.006528415
229	0xbde2d14c	-0.110750765
230	0x3a6e6043	0.00090933236
231	0x3dbfe3eb	0.09369644
232	0x3e3aa4df	0.18226956
233	0xbd21bbb1	-0.039485637
234	0x3c8e15dc	0.017344408
235	0x3dc5ef90	0.096648335
236	0xbde39f2f	-0.11114346
237	0xbd53cdcb	-0.05170993
238	0xbdeee10b	-0.11664017
239	0xbd7f240b	-0.062290233
240	0x3dbc9baf	0.09209382
241	0xbe3c806b	-0.18408363
242	0x3ddc0e20	0.10744882
243	0x3d0d8fa4	0.034560814
244	0xbde0dd4d	-0.1097971
245	0x3f127f16	0.5722517
246	0x3decc083	0.11560156
247	0x3ce7bf8f	0.028289584
248	0xbe1c263a	-0.15248957
249	0x3e4d6225	0.2005697
250	0xbde9baf2	-0.1141261
251	0xbd8d3f49	-0.06896836
252	0xbd51236e	-0.05105918
253	0x3dced92d	0.10100017
254	0xbcd8bb19	-0.026456403
255	0xbd9289f4	-0.07155219

feature_extractor.encoder.1.mlp.0.bias f4 [32]
0	0x3e22e350	0.15907025
1	0xbdfbeab7	-0.12300628
2	0xbccb8b80	-0.024846792
3	0x3e110643	0.14162545
4	0xbd383642	-0.04497362
5	0xbe2cf3dc	-0.168899
6	0xbe31c7e2	-0.17361405
7	0x3cd2fa95	0.025754252
8	0xbcb35b0f	-0.021894006
9	0xbe20a890	-0.15689301
10	0x3db5fa5f	0.08885645
11	0x3d465352	0.048419304
12	0xbd781a9a	-0.060572244
13	0x3e2b4641	0.16726018
14	0xbe4502fe	-0.19239423
15	0x3e185070	0.14874434
16	0xbe1800cf	-0.14844058
17	0xbcdbcf85	-0.026832351
18	0x3d5026e9	0.050818358
19	0xbdddcd69	-0.108301945
20	0xbda7292e	-0.08162151
21	0xbe1249f4	-0.14286023
22	0xbdb2f27b	-0.08737656
23	0x3e31d783	0.17367367
24	0xbdd271ae	-0.10275589
25	0x3dd3c66e	0.10340582
26	0x3e14bf33	0.14526062
27	0x3dbd43a7	0.09241419
28	0x3e03ff42	0.12890342
29	0x3dbbb436	0.09165232
30	0xbdb49bce	-0.0881878
31	0x3db1f67c	0.08689591

feature_extractor.encoder.1.mlp.2.weight f4 [32, 32]
0	0x3dd9fbd1	0.10643733
1	0x3e0ea921	0.13931705
2	0xbe0bb4f2	-0.13643244
3	0xbd27bd89	-0.04095224
4	0x3bed0f93	0.0072345226
5	0x3e205e17	0.15660892
6	0x3d3edcac	0.046597168
7	0xbc334fc8	-0.010944314
8	0xbd961591	-0.07328332
9	0x3db19daa	0.0867265
10	0x3d5b991c	0.053612813
11	0x3e2bd27e	0.16779515
12	0xbe2db679	-0.16964139
13	0x3e0661b7	0.13123213
14	0xbce8b03f	-0.028404353
15	0xbd9eb23c	-0.07748839
16	0xbdc6ee15	-0.09713379
17	0x3d83cb7a	0.064352944
18	0x3d86d395	0.06583325
19	0x3d91e4f0	0.071237445
20	0x3e10704e	0.14105341
21	0xbd44efb2	-0.048080154
22	0x39b9d29c	0.00035442866
23	0xbdf7a1e8	-0.12091428
24	0x3dc3cc9a	0.09560509
25	0xbdff05be	-0.12452267
26	0xbddbe99d	-0.107379176
27	0x3d6dc255	0.058046658
28	0xbe1b63f3	-0.15174846
29	0xbdbe594b	-0.09294375
30	0x3e39d282	0.18146709
31	0xbd8f477a	-0.06996055
32	0xbe1b4a54	-0.15165073
33	0xbe33a6d4	-0.17544109
34	0x3d320e80	0.04347086
35	0xbe07a7c9	-0.13247599
36	0xbcb4decf	-0.0220789
37	0xbde31907	-0.11088758
38	0x3bfd5b51	0.007731833
39	0xbdeba23c	-0.11505553
40	0x3dc5aca4	0.09652069
41	0xbdfd8e4f	-0.12380659
42	0xbc85df4d	-0.01634183
43	0xbc98e8db	-0.018665722
44	0xbe2679be	-0.16257378
45	0xbd576aa3	-0.05259193
46	0xbcf516a1	-0.029918017
47	0x3e0bc53a	0.13649455
48	0x3dcc43dc	0.09973881
49	0xbdc1e6e0	-0.09467864
50	0x3de4f5ce	0.11179696
51	0x3dd52612	0.10407652
52	0xbdb5f77e	-0.08885096
53	0x3dba7a81	0.09105397
54	0x3d8a2593	0.06745448
55	0xbda36156	-0.0797755
56	0xbde39b67	-0.11113625
57	0x3da88a68	0.08229524
58	0xbdbc0fce	-0.09182702
59	0xbde44fa9	-0.111480065
60	0x3df31730	0.11869657
61	0xbd6b64df	-0.057469245
62	0x3cb4d17c	0.022072546
63	0x3e215db0	0.15758395
64	0xbd2cef34	-0.04222031
65	0xbd48725c	-0.048937187
66	0x3dc5de1a	0.09661503
67	0xbe0a356e	-0.13496944
68	0xbdc03080	-0.09384251
69	0xbe204ea2	-0.15654996
70	0x3c8c4d99	0.017126845
71	0xbdf5b27c	-0.11996934
72	0xbdb21c52	-0.08696808
73	0x3d536be7	0.051616576
74	0x3d77b59b	0.060475927
75	0xbbcc997f	-0.006243884
76	0x3df6a80a	0.1204377
77	0x3dc03617	0.09385317
78	0xbaccf647	-0.0015637361
79	0x3d025c27	0.031826165
80	0xbda111b5	-0.078647055
81	0xbd16779c	-0.036735162
82	0x3dace8b7	0.08442824
83	0x3da7c1ff	0.08191299
84	0x3d8a3e42	0.06750156
85	0xbd803f89	-0.06262118
86	0xbc325b09	-0.010885962
87	0xbd8dab44	-0.06917432
88	0xbc49bd48	-0.012313195
89	0xbc8c96c4	-0.017161734
90	0xbdccc4ea	-0.09998496
91	0x3c6be999	0.014398956
92	0x3e2cc76d	0.1687295
93	0x3e34e457	0.1766523
94	0x3e370519	0.17873038
95	0x3e08dffa	0.1336669
96	0x3d5cb08d	0.05387931
97	0xbd688743	-0.05676962
98	0x3c6592b3	0.014012027
99	0xbe21218f	-0.15735458
100	0x3e2bb829	0.1676947
101	0x3d4099e4	0.04702176
102	0xbc93c425	-0.018037865
103	0x3d29577e	0.041343205
104	0x3d5851bf	0.052812334
105	0xbe3332f4	-0.17499906
106	0x3d9d7704	0.07688716
107	0x3d4603d7	0.048343506
108	0x3cde9afe	0.027173515
109	0xbe53a38e	-0.2066786
110	0x3cbb44af	0.0228599
111	0xbe38d460	-0.18049765
112	0xbe2955e0	-0.16536665
113	0x3dbc4e9d	0.09194682
114	0x3d5508cd	0.052010346
115	0xbe1ef733	-0.15523987
116	0xbd85b730	-0.06529081
117	0xbe1b607c	-0.15173525
118	0x3b115c1f	0.0022180153
119	0x3dd7bfa0	0.105345964
120	0xbdad8b73	-0.084738635
121	0x3dbfd46c	0.09366688
122	0xbdc6589a	-0.09684868
123	0x3e1eda51	0.15512969
124	0x3e170fe7	0.1475216
125	0xbcac5a24	-0.021039076
126	0x3cf0e43e	0.02940571
127	0xbda91cfd	-0.08257482
128	0x3e13fd0c	0.14451998
129	0x3def397f	0.116808884
130	0xbdb73515	-0.089456715
131	0x3dd0cf4b	0.10195788
132	0x3e17b3a8	0.14814627
133	0xbd165bc7	-0.03670862
134	0xbd2d019b	-0.04223786
135	0x3d6fda93	0.058558058
136	0xbe0cadde	-0.137382
137	0x3e14b590	0.14522386
138	0x3e0c32a9	0.136912
139	0x3dec9d5a	0.1155345
140	0x3db7cb07	0.08974271
141	0x3d745550	0.059651673
142	0xbbebc029	-0.007194538
143	0x3db5de72	0.08880319
144	0xbe1a1eeb	-0.15050857
145	0x3df3768b	0.11887845
146	0x3c949c3a	0.0181409
147	0xbe02b227	-0.12763272
148	0x3ccb8f54	0.024848618
149	0x3d0e999e	0.03481447
150	0x3e609791	0.21932818
151	0x3d7eafcb	0.062179368
152	0x3c5ef59f	0.013608365
153	0xbd3ecea4	-0.046583787
154	0xbaa1fc79	-0.0012358568
155	0x3d9676e5	0.07346896
156	0x3de24992	0.11049189
157	0x3dd82986	0.10554795
158	0x3dea517e	0.11441325
159	0x3dc2df4c	0.09515247
160	0xbdf23e28	-0.118282616
161	0xbda4bd1c	-0.08043882
162	0xbd820b1e	-0.06349777
163	0x3d5ceecc	0.053938672
164	0x3d4bd595	0.049764235
165	0x3dd3efbd	0.10348461
166	0xbe33d1e1	-0.17560531
167	0x3db54d27	0.08852606
168	0x3e2b769a	0.16744462
169	0x3defcc9d	0.11708949
170	0xbe1db8ec	-0.15402573
171	0x3d541173	0.051774453
172	0xbde0dd31	-0.10979689
173	0xbd391323	-0.045184266
174	0x3e0c2fc6	0.13690099
175	0x3e012004	0.12609869
176	0x3de3afcd	0.11117516
177	0xbd9d7896	-0.076890156
178	0xbd69b815	-0.05706032
179	0x3daf3467	0.08554917
180	0x3cd41f84	0.025893934
181	0x3e2b68be	0.16739175
182	0xbdbbe487	-0.091744475
183	0xbcd942ba	-0.026521076
184	0x3da3fdb1	0.08007372
185	0x3c190270	0.00933896
186	0xbe20bc25	-0.15696771
187	0xbde77803	-0.11302187
188	0x3e2f58a0	0.17123652
189	0xbd8d668b	-0.06904324
190	0xbe3413ba	-0.1758565
191	0x3c6374a1	0.013882787
192	0x3cf4c96f	0.029881207
193	0xbde7a44f	-0.11310636
194	0x3e243bc8	0.1603843
195	0xbdea58f9	-0.114427514
196	0x3e29ccdc	0.16582054
197	0xbdeedd8e	-0.11663352
198	0x3e185075	0.14874442
199	0xbd8f5872	-0.069992915
200	0x3c51129b	0.012760784
201	0x3d9661ac	0.07342848
202	0x3d9946bc	0.07484195
203	0xbd82823f	-0.06372499
204	0xbe0012c4	-0.12507159
205	0xbdee941e	-0.11649345
206	0x3dc32144	0.09527829
207	0xbe46eaeb	-0.19425552
208	0xbe2203e5	-0.15821798
209	0xbe334fb7	-0.17510878
210	0xbe0095e6	-0.12557182
211	0x3d7f1a77	0.0622811
212	0x3df86563	0.12128713
213	0xbd97490d	-0.0738698
214	0xbcf60910	-0.030033618
215	0xbdf1bf71	-0.11804093
216	0x3dcefd64	0.10106924
217	0x3e169f76	0.14709267
218	0x3db9ec45	0.09078268
219	0x3d810bb1	0.06301058
220	0x3c817401	0.015802385
221	0xbd1a66bf	-0.037695643
222	0x3d49da89	0.049280677
223	0xbd93eeea	-0.072233036
224	0xbe1665c1	-0.14687254
225	0xbe16df32	-0.1473358
226	0xbde62ad3	-0.11238637
227	0xbd8edac7	-0.06975322
228	0xbd70bd04	-0.05877401
229	0x3d8770c8	0.06613308
230	0xbd29f7fc	-0.041496262
231	0x3dfd62ae	0.12372337
232	0x3e1d384e	0.1535351
233	0x3e19e796	0.1502975
234	0x3dbab749	0.0911699
235	0x3dea2749	0.11433274
236	0xbe0812f7	-0.13288485
237	0x3bf5359c	0.0074831974
238	0xbd7a1997	-0.06105956
239	0x3ca26749	0.01982464
240	0x3dae0a40	0.08498049
241	0xbe004bb5	-0.1252888
242	0xbd96aa52	-0.07356705
243	0x3d2b6150	0.04184085
244	0x3d0b2375	0.03396936
245	0xbe19b033	-0.15008621
246	0xbd09f8e4	-0.033684626
247	0x3ca62f84	0.02028633
248	0xbda2ceaf	-0.07949578
249	0x3df6992e	0.120409355
250	0x3cf40e9e	0.029792126
251	0x3de36372	0.11102952
252	0xbd9e5b3a	-0.07732244
253	0x3d81881b	0.06324788
254	0x3d21959f	0.03944933
255	0x3d360c25	0.044445176

feature_extractor.encoder.1.mlp.2.bias f4 [32]
0	0x3d5069be	0.050882094
1	0xba93925f	-0.0011258832
2	0xbd827939	-0.06370778
3	0xbe0bd509	-0.13655485
4	0xbe0ccd05	-0.13750084
5	0x3dff6858	0.12471074
6	0x3df445f8	0.11927408
7	0x3c9c76ea	0.019099671
8	0x3d5178eb	0.051140707
9	0xbd8d4853	-0.068985604
10	0xbd89bd51	-0.06725562
11	0x3d238070	0.03991741
12	0x3e02c027	0.12768613
13	0x3e1eb5a4	0.15498978
14	0x3d5d45af	0.054021534
15	0xbe003d5f	-0.12523411
16	0x3dbd8dfd	0.09255598
17	0x3c7575ca	0.014981696
18	0x3bff4131	0.007789754
19	0x3dc64c11	0.09682477
20	0xbe242231	-0.16028668
21	0xbd4c2cd0	-0.049847424
22	0x3d82ecab	0.06392797
23	0x3dccfd13	0.100092076
24	0x3ce51b7a	0.027967203
25	0xbe05602f	-0.13024972
26	0x3e07f38a	0.13276497
27	0xbc3845b2	-0.011247085
28	0x3d8bfa36	0.06834833
29	0xbaf81698	-0.0018927632
30	0x3e2e260a	0.17006698
31	0xbddefc3f	-0.10887956

feature_extractor.encoder.1.mlp.4.weight f4 [32, 32]
0	0x3d930112	0.071779385
1	0xbe2f4f20	-0.17120028
2	0xbdbc97e7	-0.092086606
3	0x3ccdf251	0.02513996
4	0x3d9f04fe	0.07764624
5	0x3e247a5f	0.16062306
6	0xbd6cd97a	-0.05782459
7	0xbcaec398	-0.0213335
8	0xbcb5f62f	-0.022212116
9	0xbde10523	-0.10987308
10	0x3df9ddeb	0.122005306
11	0x3dce057c	0.1005964
12	0x3d6a0d2c	0.057141468
13	0xbe11f427	-0.14253293
14	0xbd77bd5b	-0.060483318
15	0xbb907637	-0.0044086236
16	0xbcf0476b	-0.02933093
17	0x3e28c469	0.16481175
18	0xbdba0325	-0.09082631
19	0xbd97301c	-0.07382223
20	0xbe1f2789	-0.15542425
21	0xbd8775e9	-0.066142865
22	0x3cf5ef29	0.030021267
23	0x3afd84be	0.0019341928
24	0xbdbebaaa	-0.09312947
25	0x3d30b426	0.043140553
26	0xbd9a776d	-0.0754231
27	0xbd90227f	-0.070378296
28	0xbdae8fdf	-0.08523535
29	0x3e0c2138	0.13684547
30	0xbd9b54c2	-0.07584526
31	0xbdff172d	-0.12455592
32	0x3e10caea	0.14139906
33	0xbdb80044	-0.08984426
34	0xbcea53b5	-0.028604368
35	0xbd9d9109	-0.07693679
36	0xbd384fa8	-0.04499784
37	0x3e1713c2	0.14753631
38	0xbe2b1b1b	-0.16709559
39	0xbc4291c9	-0.011875578
40	0xbd654779	-0.055976365
41	0xbcbd204f	-0.023086695
42	0x3d8c4dba	0.06850763
43	0xbe17275e	-0.14761111
44	0xbdc911ae	-0.09817825
45	0x3dfdbddc	0.123897284
46	0x3d95ebc4	0.07320359
47	0xbe289f40	-0.16466999
48	0x3c2d2d7c	0.010569926
49	0x3e149c79	0.14512815
50	0x3d4b0239	0.049562667
51	0x3dab0331	0.08350218
52	0xbd8c6b5b	-0.06856414
53	0x3ae36ac6	0.0017350547
54	0xbe2ced23	-0.16887335
55	0x3dccdb92	0.10002817
56	0x3e26d425	0.16291864
57	0x3d506c5b	0.050884586
58	0xbd00eee7	-0.031477835
59	0x3ba2726c	0.004957488
60	0xbd87ce7c	-0.06631181
61	0xbbbfe9f9	-0.005856749
62	0xbcab2dfd	-0.020895952
63	0xbcea796f	-0.028622357
64	0x3dd389b9	0.10329003
65	0x3d831b75	0.064017214
66	0xbe07111d	-0.13190122
67	0xbe1e09af	-0.15433381
68	0x3d597c4e	0.05309706
69	0x3dc7ca28	0.09755355
70	0xbd56fc5c	-0.052486762
71	0x3dcd2ba0	0.100180864
72	0xbd828d5c	-0.063746184
73	0x3cf29404	0.029611595
74	0xbd27194f	-0.04079562
75	0x3de5fcb0	0.11229837
76	0xbd8266f3	-0.06367292
77	0xbd1f59b7	-0.038903918
78	0xbdaa26c3	-0.083081745
79	0xbd941582	-0.07230665
80	0x3e391af9	0.18076696
81	0x3e095433	0.13411026
82	0x3df79237	0.12088435
83	0xbd80d0a7	-0.06289797
84	0xbe1da9b4	-0.15396768
85	0xbc35b2b8	-0.011089973
86	0x3d0bb866	0.034111403
87	0xbd5bf46d	-0.0536999
88	0xbdaeb939	-0.08531422
89	0x3d31ed74	0.043439344
90	0x3e09cf44	0.13457972
91	0xbe0b5a84	-0.13608748
92	0x3ba0420c	0.004890686
93	0xbbc0e80e	-0.005887038
94	0xbdd88473	-0.10572138
95	0x3dc229e0	0.09480643
96	0xbbca639e	-0.006176426
97	0x3d4ed467	0.05049553
98	0x3dbcb37a	0.0921392
99	0x3de3e79f	0.111281626
100	0xbd46e6f7	-0.04856011
101	0xbdf8c63f	-0.121471874
102	0x3d8df7b1	0.06932009
103	0x3dbdfaee	0.09276377
104	0xbe09bec0	-0.13451672
105	0x3e2dd5fb	0.16976158
106	0xbdfb3760	-0.12266421
107	0x3cb55bcb	0.022138497
108	0x3e0fdac9	0.14048304
109	0x3e1b35f1	0.15157296
110	0xbdafddb3	-0.08587208
111	0x3dfe1f15	0.12408272
112	0xbe0e4229	-0.13892426
113	0xbdb74c5f	-0.089501135
114	0x3e002963	0.12515788
115	0xbdbf1b89	-0.09331424
116	0xbd289568	-0.04115811
117	0x3cd9105b	0.026497057
118	0xbe15d24d	-0.14631005
119	0xbd727067	-0.059189226
120	0xbccc92d9	-0.024972366
121	0xbe2d933f	-0.16950701
122	0xbde9bd97	-0.114131145
123	0xbe08268a	-0.13295951
124	0x3d8b90ef	0.06814753
125	0x3db0f6c9	0.086408205
126	0x3de59d42	0.11211635
127	0x3dfa4853	0.12220826
128	0x3e1c9060	0.1528945
129	0xbe162a41	-0.14664556
130	0xbe214b86	-0.15751466
131	0xbd05ad6a	-0.032636084
132	0x3cfa5687	0.030558838
133	0x3dd695f3	0.10477819
134	0xbe063432	-0.13105848
135	0x3d969c1e	0.07353996
136	0xbcd6202c	-0.026138388
137	0xbe22a76d	-0.1588418
138	0x3dfede72	0.12444772
139	0x3dbe9abe	0.093068585
140	0xbe18c167	-0.14917527
141	0xbcae79b6	-0.02129827
142	0xbdf6dd34	-0.1205391
143	0x3d0dd5a0	0.034627557
144	0x3d0604aa	0.03271929
145	0xbb352b88	-0.0027644355
146	0x3cd64f5d	0.02616089
147	0xbcc9f0d7	-0.024650974
148	0xbcb6b9b3	-0.022305345
149	0x3e0d1569	0.13777699
150	0x3dec1309	0.11527068
151	0x3dc28d44	0.094996005
152	0xbc52f599	-0.012875938
153	0x3e1a0d24	0.15044075
154	0x3d28006b	0.041016024
155	0x3dc1c121	0.094606645
156	0xbd7f3fde	-0.062316768
157	0xbe01e1d3	-0.12683801
158	0xbdf377ec	-0.11888108
159	0x3d76aed4	0.060225323
160	0x3c49472d	0.012285036
161	0xbdfb6b50	-0.122763276
162	0x3cab0e47	0.020880831
163	0x3d75e5ea	0.060033716
164	0xbe07bbe3	-0.13255267
165	0x3df36182	0.118838325
166	0x3db50b4d	0.08840046
167	0xbd09ce5c	-0.033644065
168	0xbd419f5c	-0.047271118
169	0x3d5c2b15	0.053752024
170	0xbdbc0a50	-0.091816545
171	0x3d87fba4	0.066397935
172	0xbe2dbe67	-0.16967164
173	0x3db1b52e	0.086771354
174	0x3da2dbf1	0.07952107
175	0xbd3dc636	-0.046331607
176	0x3c5e8b71	0.01358305
177	0x3de8fa35	0.11375848
178	0xbe295f72	-0.16540316
179	0xbe0e197c	-0.13876909
180	0xbd935b85	-0.0719519
181	0x3c645703	0.013936761
182	0x3e1976f4	0.14986783
183	0x3e2bb4bc	0.16768163
184	0xbd025d5e	-0.031827323
185	0xbe1fbc2b	-0.15599124
186	0xbe01aac4	-0.12662798
187	0xbd737362	-0.05943621
188	0x3db59da3	0.088679574
189	0xbdf0f371	-0.11765183
190	0x3cae6dfe	0.021292683
191	0x3da0f7ea	0.07859786
192	0x3e01250d	0.1261179
193	0xbddff0bd	-0.10934589
194	0xbe0cef26	-0.13763103
195	0xbda153e5	-0.0787733
196	0x3e2d8787	0.16946231
197	0xbe277efc	-0.16357034
198	0x3cf1b7a2	0.029506508
199	0x3aa4c2ff	0.001257032
200	0xbd8cbaf5	-0.06871597
201	0xbc4d30d7	-0.012523851
202	0xbe2b993a	-0.1675767
203	0xbc7f05ae	-0.015565319
204	0xbdb3ae2f	-0.08773457
205	0xbe0733c6	-0.13203344
206	0x3cb37c05	0.021909723
207	0xbd4d27de	-0.05008685
208	0x3dd37371	0.10324753
209	0xbe25f348	-0.16206086
210	0xbd145486	-0.03621342
211	0x3dc40ac8	0.09572369
212	0x3d923c68	0.07140428
213	0x3e05c750	0.13064313
214	0xbdee13eb	-0.11624893
215	0x3c429769	0.011876919
216	0x3dd4ebf9	0.10396571
217	0xbc69cddd	-0.014270273
218	0x3dd078d0	0.10179293
219	0x3ba5eb1f	0.005063429
220	0x3dbb6443	0.09149983
221	0x3cda977f	0.026683567
222	0x3c099db7	0.008399419
223	0x3ddc51c6	0.107577845
224	0xbc14971f	-0.009069233
225	0xbe17fdc3	-0.14842896
226	0xbd8d8e9f	-0.069119684
227	0x3e0a6681	0.13515665
228	0xbe2402d8	-0.1601671
229	0x3d255576	0.040364705
230	0xbe2b9bec	-0.16758698
231	0xbd944326	-0.0723937
232	0xbe20c6fd	-0.15700908
233	0x3de0e1a6	0.10980539
234	0xbe13a351	-0.14417769
235	0xbdf1caf8	-0.11806291
236	0xbdc77301	-0.09738732
237	0xbdb23a22	-0.08702494
238	0x3e2a4d3f	0.1663103
239	0xbe0fde13	-0.14049558
240	0x3e0a1418	0.13484228
241	0x399f6ddc	0.00030408695
242	0x3db7767a	0.089581445
243	0xbc7bd49b	-0.015370513
244	0x3dae9f0d	0.0852643
245	0x3dcc76b7	0.099835806
246	0xbe0b8c91	-0.1362784
247	0x3de3a870	0.11116111
248	0xbdb22172	-0.086977854
249	0x3d93bec0	0.07214117
250	0x3de4bb7c	0.11168572
251	0x3e34e770	0.17666411
252	0xba5afe79	-0.00083539594
253	0x3d527572	0.051381536
254	0xbdd839b8	-0.10557884
255	0xbdc01008	-0.09378058

feature_extractor.encoder.1.mlp.4.bias f4 [32]
0	0x3e072aed	0.13199969
1	0x3e18c5e7	0.14919244
2	0xbc342a92	-0.010996478
3	0x3dac7131	0.08420027
4	0xbd873243	-0.066013835
5	0xbd122f41	-0.035689596
6	0x3d74155a	0.059590675
7	0x3d4b95cb	0.0497034
8	0xbe15f12e	-0.14642784
9	0xbdecee06	-0.11568837
10	0x3e1266ca	0.14297023
11	0x3e0af834	0.13571244
12	0x3c3cbff3	0.011520374
13	0xbd13556e	-0.035970144
14	0xbe350354	-0.17677051
15	0x3bfe9774	0.0077695195
16	0xbde457e6	-0.11149578
17	0x3de88855	0.11354128
18	0x3df6d365	0.12052039
19	0xbdf5d91d	-0.12004302
20	0xbdd6d90f	-0.104906194
21	0xbce4a95d	-0.02791279
22	0xbe25526c	-0.16144723
23	0x3d2c3010	0.042038023
24	0xbc89a26c	-0.016801082
25	0xbcd6adf8	-0.026206002
26	0x3e1a2b85	0.15055664
27	0x3d238af0	0.039927423
28	0xbc72c45e	-0.014817325
29	0x3de939bb	0.11387964
30	0x3cb021f5	0.021500567
31	0x3e349657	0.17635475
