examples/extended/dyhpo.pt (torch, 109278 bytes, 37 tensors)

feature_extractor.encoder.0.mlp.0.weight f4 [32, 24]
-0.19272229 -0.014892737 -0.034016125 -0.13010648 -0.021528197 0.13250871 0.061805006 -0.029310327
0.19126736 -0.095224924 0.17089929 0.05681239 -0.081923895 0.13950041 0.114949584 -0.17776242
-0.14711948 0.13617244 0.109806664 0.1409015 -0.048949793 -0.049159184 -0.0755081 0.15622585
0.14799322 0.052559584 0.09896182 -0.17826684 -0.10156297 -0.1235622 -0.1641242 -0.06350339
0.17700426 0.086553425 -0.12829685 0.09763783 0.118018374 -0.104292415 -0.0114148185 -0.12801392
-0.12392779 -0.011046141 -0.1468981 0.004351048 -0.17648466 0.009892661 0.16692115 0.06064671
-0.13538252 -0.0049671275 -0.149494 -0.1759805 -0.07625759 -0.17753577 -0.13919672 0.099267714
-0.006490157 -0.16940758 -0.09675212 0.16082115 0.1738649 0.19425403 -0.072776176 -0.1588684
0.04716064 0.05358043 0.20229639 0.034452878 0.11356855 -0.18527769 -0.059911232 0.051940516
0.015722917 0.097818196 0.087990545 -0.10885596 0.10552526 0.12139046 0.16682225 0.12958074
-0.02133376 0.076610655 0.17977802 -0.0052183424 -0.056910593 0.045233864 -0.110114805 0.16004972
0.049221616 0.018064579 0.1264894 -0.107378535 -0.07273019 0.079128265 -0.07213436 0.051833186
-0.11257792 0.18082958 -0.010909924 0.022378987 -0.07481588 0.09017172 -0.1545367 -0.1871975
0.1825611 -0.099303775 -0.09337906 -0.18957187 -0.13592418 0.08773421 -0.18361673 -0.07749715
0.06431672 -0.010037147 0.19427043 0.16076595 0.15203534 -0.005699058 -0.18786179 -0.07188673
0.16094166 0.18410894 0.02395316 -0.12747025 -0.14065453 -0.05186895 0.20021005 -0.12169805
0.19299364 -0.108879365 0.034123678 -0.09915596 0.07818994 0.047356445 -0.045298014 0.17509027
-0.1731425 -0.059191395 -0.09582759 0.14629461 -0.058808044 -0.17378141 0.16733745 0.20424263
0.19851777 0.011707745 0.1692167 -0.027207399 -0.18479075 0.101360634 -0.041681737 0.00010240905
-0.20214725 0.061002698 0.15484308 -0.050689947 0.118716605 0.022644693 0.013826466 -0.14688775
0.19156694 -0.09671468 -0.032184724 -0.1623215 -0.07839238 -0.07527113 0.19758093 -0.11818438
-0.16185707 -0.18668686 0.038886156 0.17489652 -0.15253913 0.11080813 -0.06365684 -0.11978549
0.015636442 -0.039773125 -0.16413423 -0.08302251 0.01818302 0.16303171 0.03591585 -0.1915183
-0.054542307 0.088466726 -0.15557162 0.092769004 0.04425351 0.008710305 0.06867016 0.13046585
0.15405229 -0.14161597 -0.16321139 0.049852874 0.064759485 0.10303992 -0.054727435 -0.12768948
0.10445874 0.008625838 -0.059326548 0.15282929 -0.094130255 0.18849193 -0.09281815 0.052591763
-0.090514734 0.16459244 -0.1796942 -0.16231327 0.18836617 0.004705617 0.0014725312 -0.12633143
0.053877667 -0.038994893 -0.05276648 -0.15643609 -0.19380388 -0.18958588 0.08163821 -0.016375355
-0.035058506 0.06156542 0.023380417 -0.12596634 -0.005468935 -0.063145265 -0.16987045 -0.0901963
-0.14021334 -0.07442417 -0.096354865 -0.0886322 0.043082446 0.08823449 -0.12290602 0.10646085
-0.15956673 0.110452205 -0.047800075 -0.044140577 -0.033356003 0.014734244 -0.19868466 -0.043861765
0.064523205 -0.018644588 0.15715034 -0.09764951 0.0018809361 0.010407722 0.09038657 -0.1020027
00000000: fe58 45be ab00 74bc 7e54 0bbd a23a 05be
00000010: e75b b0bc 5db0 073e 3f27 7d3d 361c f0bc
00000020: 97db 433e 4905 c3bd 3900 2f3e 1cb4 683d
00000030: b7c7 a7bd 32d9 0e3e b06a eb3d 5a07 36be
00000040: 7da6 16be ca70 0b3e 51e2 e03d 7c48 103e
00000050: 947f 48bd 245b 49bd fea3 9abd abf9 1f3e
00000060: 898b 173e b848 573d 7fac ca3d 958b 36be
00000070: 3f00 d0bd 2e0e fdbd 2d10 28be 110e 82bd
00000080: 9b40 353e ec42 b13d 4060 03be 58f6 c73d
00000090: 9eb3 f13d 4397 d5bd 3805 3bbc 1516 03be
000000a0: dacd fdbd e0fa 34bc 756c 16be 3c93 8e3b
000000b0: 65b8 34be d414 223c 61ed 2a3e af68 783d
000000c0: b7a1 0abe 49c3 a2bb f514 19be 3b34 34be
000000d0: f02c 9cbd f0cb 35be 9689 0ebe df4c cb3d
000000e0: 62ab d4bb 2e79 2dbe fa25 c6bd 4dae 243e
000000f0: a409 323e 87ea 463e ad0b 95bd 66ae 22be
00000100: 842b 413d 2777 5b3d c926 4f3e 761e 0d3d
00000110: a196 e83d 6fb9 3dbe 7b65 75bd 94bf 543d
00000120: 59cd 803c e854 c83d 6334 b43d e0ef debd
00000130: a11d d83d 909b f83d 74d3 2a3e d0b0 043e
00000140: 23c4 aebc 0ce6 9c3d bb17 383e a1fe aabb
00000150: 151b 69bd 2547 393d df83 e1bd 13e4 233e
00000160: 9b9c 493d 2bfc 933c 7086 013e 47e9 dbbd
00000170: 91f3 94bd 000e a23d 2ebb 93bd 094f 543d
00000180: 418f e6bd 642b 393e 8abf 32bc 2354 b73c
00000190: 1139 99bd f3ab b83d de3e 1ebe b4b0 3fbe
000001a0: 4cf1 3a3e c75f cbbd 853d bfbd 211f 42be
000001b0: b52f 0bbe fead b33d 0606 3cbe d3b6 9ebd
000001c0: 7cb8 833d d972 24bc d4ee 463e d49f 243e
000001d0: 27af 1b3e 2abf babb d75e 40be 5a39 93bd
000001e0: e4cd 243e 0e87 3c3e 6b39 c43c 9087 02be
000001f0: be07 10be 8974 54bd dd03 4d3e d43c f9bd
00000200: 20a0 453e 25fc debd 45c5 0b3d 4812 cbbd
00000210: 0c22 a03d d5f8 413d 698a 39bd dd4a 333e
00000220: 444c 31be ad72 72bd 4141 c4bd 41ce 153e
00000230: b4e0 70bd c1f3 31be 825a 2b3e fb24 513e
00000240: 3e48 4b3e d7d1 3f3c 2547 2d3e 0de2 debc
00000250: c939 3dbe 2a96 cf3d 78ba 2abd 71c4 d638
00000260: b0ff 4ebe f7dd 793d 2f8f 1e3e 43a0 4fbd
00000270: b121 f33d 5d81 b93c 6788 623c be69 16be
00000280: 202a 443e 5912 c6bd 21d4 03bd 9b37 26be
00000290: 2f8c a0bd c027 9abd a852 4a3e a70a f2bd
000002a0: dcbd 25be d72a 3fbe 1747 1f3d 1318 333e
000002b0: 3833 1cbe 5fef e23d 845e 82bd 1852 f5bd
000002c0: ff17 803c 25e9 22bd ce12 28be b507 aabd
000002d0: 8ff4 943c c9f1 263e 801c 133d 601d 44be
000002e0: c167 5fbd 0b2e b53d 2b4e 1fbe adfd bd3d
000002f0: 2b43 353d abb5 0e3c f1a2 8c3d d798 053e
00000300: e2bf 1d3e c703 11be e320 27be 8732 4c3d
00000310: 9fa0 843d 9806 d33d e029 60bd 08c1 02be
00000320: 77ee d53d 6353 0d3c 6500 73bd 487f 1c3e
00000330: 5dc7 c0bd 0704 413e 7117 bebd 766a 573d
00000340: ca5f b9bd ec8a 283e c201 38be 7335 26be
00000350: 10e3 403e 9431 9a3b f301 c13a 075d 01be
00000360: d4ae 5c3d 1cb9 1fbd aa21 58bd c830 20be
00000370: 8674 46be cd22 42be ef31 a73d 9c25 86bc
00000380: 8299 0fbd 062c 7c3d 4a88 bf3c 52fd 00be
00000390: c034 b3bb 4e52 81bd 85f2 2dbe d6b8 b8bd
000003a0: 1694 0fbe b36b 98bd b355 c5bd cd84 b5bd
000003b0: 3877 303d 49b4 b43d 27b6 fbbd 2508 da3d
000003c0: 7665 23be c434 e23d 03ca 43bd c0cc 34bd
000003d0: 4ea0 08bd e667 713c fe73 4bbe 65a8 33bd
000003e0: be24 843d 89bc 98bc 05ec 203e 77fc c7bd
000003f0: be89 f63a 2685 2a3c 981c b93d cbe6 d0bd

feature_extractor.encoder.0.mlp.0.bias f4 [32]
0.034315452 -0.10282062 0.07836706 -0.18425967 -0.032334123 -0.04729503 -0.16179065 0.18272054
-0.18270302 0.1303787 0.12131096 0.08828852 0.0012816257 -0.1724633 -0.19535486 -0.05413475
0.10749838 0.054279335 -0.18789028 0.074363984 0.15561289 0.054000642 -0.04514061 0.20001031
-0.014083681 0.19263819 0.032765206 -0.05644042 -0.063919365 -0.17488661 0.110418886 -0.14389762
00000000: 5c8e 0c3d 9e93 d2bd e97e a03d 91ae 3cbe
00000010: c970 04bd 6fb8 41bd 73ac 25be 181b 3b3e
00000020: 8016 3bbe fe81 053e e171 f83d 9dd0 b43d
00000030: 39fc a73a 389a 30be 1b0b 48be 66bc 5dbd
00000040: 1c28 dc3d 0254 5e3d 4f66 40be 254c 983d
00000050: fc58 1f3e c72f 5d3d 5ce5 38bd 81cf 4c3e
00000060: 3dbf 66bc f242 453e cf34 063d 122e 67bd
00000070: 28e8 82bd 7a15 33be 4c23 e23d e659 13be

feature_extractor.encoder.0.mlp.2.weight f4 [32, 32]
-0.115350455 -0.068483256 -0.15295292 0.11173599 -0.14213471 0.060015485 -0.055502217 0.15718763
0.16181058 0.039852034 0.12720513 -0.04323232 0.013517687 0.023972958 -0.1040842 0.055243094
-0.16828623 0.14181902 0.15139098 -0.057730608 -0.0068933195 0.10662184 -0.06256822 0.13367113
-0.08938346 -0.016170606 -0.041078884 0.16572173 -0.07550365 0.028639505 -0.10335415 -0.06289967
0.16835703 -0.0069701644 0.093903005 0.11062632 -0.08487386 -0.12711312 -0.1364054 -0.0022287732
0.16504098 -0.120638475 -0.13764879 0.075562656 -0.1374267 0.15870297 -0.091655165 0.111628965
0.04584458 0.046479784 -0.10809141 0.020514354 -0.023730692 -0.16790746 -0.041237403 -0.03779481
-0.07948843 -0.08811438 -0.0110935 -0.0050449213 -0.090578005 -0.11968329 -0.08394882 -0.14211039
0.15732253 -0.036266845 -0.1548553 0.0017529834 -0.080714665 0.13215345 0.17627797 -0.0438784
-0.086073555 0.1290782 0.1531501 0.036886875 0.16046423 0.055921894 0.002370959 -0.026854713
0.10335697 -0.01357207 -0.033491045 1.4257874e-05 0.062370956 -0.07862649 -0.030002164 -0.06582659
-0.06479774 -0.05484604 0.050690368 0.04478407 -0.026396621 0.112794675 0.05397364 0.14018206
-0.036992073 -0.06186476 0.07084485 0.08590263 0.07275517 0.17290094 -0.05158149 -0.14398558
0.06410851 0.1023655 0.08811155 0.03759438 0.1461742 -0.07232372 0.160952 0.049297467
-0.026615411 0.06274748 0.053681213 0.08593771 -0.16259322 -0.17586447 -0.1240374 -0.13356209
0.020946272 0.007414203 0.06615555 0.16849533 -0.034463342 0.17086618 0.03601064 0.091458276
-0.13039637 -0.08665702 -0.09890457 0.111431904 -0.07584987 -0.09055811 0.15129304 0.11842343
-0.13617465 0.013348897 0.024288554 0.043320384 -0.006657811 0.06604664 -0.06874031 0.06689423
0.023658143 -0.026848596 -0.02696528 0.0036015536 -0.13259608 -0.047707934 -0.0129078515 0.043254487
-0.14642942 -0.17216618 0.03046469 0.023891784 -0.08921563 0.059355974 -0.02354401 0.15749101
0.061318975 0.10496968 -0.16872986 0.098807804 -0.13405101 0.030589929 0.1251852 0.16274428
0.12419826 0.037949104 0.11758301 0.06824803 -0.020207645 0.045498446 0.042736873 0.082602665
-0.12358914 0.019053634 0.12433521 0.043969695 -0.02982715 0.08299527 -0.02242576 0.059405938
-0.0040729693 0.09409754 -0.10468263 -0.04233406 0.009298764 -0.13873915 0.053051356 0.08885156
-0.08152958 -0.17248288 0.02681078 0.02556351 0.17207487 -0.1743827 0.005906783 0.105233386
0.12642667 -0.12127452 -0.14854155 -0.05473945 -0.06043982 -0.08413678 -0.13945253 -0.108383186
-0.09479165 0.04337589 0.023173923 -0.019156834 0.14760977 0.07674804 0.15214486 -0.15005152
0.0070706387 0.007154491 0.0323629 0.14815181 -0.004585549 -0.019677337 -0.121959485 0.042699262
-0.08429692 -0.0050583235 -0.0033211145 0.02939853 -0.17356612 0.024728848 -0.10146169 0.108306825
-0.037031375 0.09472221 -0.077674374 -0.08598048 -0.11148786 0.13106266 -0.17627925 -0.124907486
0.104336485 0.018482098 0.081398174 -0.1623307 -0.073596485 0.05031269 0.13679343 -0.08267649
-0.07227276 -0.085465215 -0.03323314 -0.034163233 -0.04136098 -0.09112574 0.052905004 -0.0675034
00000000: dc3c ecbd f340 8cbd b19f 1cbe d7d5 e43d
00000010: c38b 11be ccd2 753d 4b56 63bd cbf5 203e
00000020: acb1 253e e33b 233d 1042 023e 6014 31bd
00000030: 4a79 5d3c f062 c43c 192a d5bd 9546 623d
00000040: 3a53 2cbe 0139 113e 3d06 1b3e ee76 6cbd
00000050: 5be1 e1bb 8d5c da3d c423 80bd 16e1 083e
00000060: ad0e b7bd 3878 84bc 5542 28bd f5b2 293e
00000070: a8a1 9abd 659d ea3c 57ab d3bd 8bd1 80bd
00000080: c965 2c3e fa65 e4bb 3850 c03d 0d90 e23d
00000090: 59d2 adbd f129 02be dbad 0bbe 9c10 12bb
000000a0: 8100 293e 4e11 f7bd cef3 0cbe 98c0 9a3d
000000b0: 96b9 0cbe 0883 223e b4b5 bbbd ba9d e43d
000000c0: 87c7 3b3d 9661 3e3d 075f ddbd b80d a83c
000000d0: de66 c2bc efef 2bbe 8de8 28bd bbce 1abd
000000e0: d4ca a2bd 5075 b4bd 83c1 35bc de4f a5bb
000000f0: f680 b9bd 831c f5bd 5ced abbd 6385 11be
00000100: 2819 213e 8b8c 14bd 6392 1ebe 5dc4 e53a
00000110: bb4d a5bd 3c53 073e 3682 343e d6b9 33bd
00000120: 5547 b0bd 132d 043e 61d3 1c3e b116 173d
00000130: bc50 243e 5b0e 653d 1762 1b3b 6afe dbbc
00000140: d2ac d33d 635d 5ebc e82d 09bd 1a35 6f37
00000150: b078 7f3d ed06 a1bd 19c7 f5bc 17d0 86bd
00000160: adb4 84bd 3ea6 60bd b4a0 4f3d 806f 373d
00000170: ba3d d8bc e500 e73d 7713 5d3d e38b 0f3e
00000180: 0085 17bd e765 7dbd 1b17 913d b8ed af3d
00000190: aa00 953d f20c 313e 1d47 53bd f570 13be
000001a0: 534b 833d 01a5 d13d d473 b43d 91fc 193d
000001b0: b1ae 153e 751e 94bd 9ad0 243e 24ec 493d
000001c0: 9008 dabc c081 803d d5e0 5b3d 1c00 b03d
000001d0: d67e 26be d115 34be 5207 febd 80c4 08be
000001e0: 8497 ab3c d8f2 f23b 907c 873d 0a8a 2c3e
000001f0: 6f29 0dbd 8bf7 2e3e e57f 133d 7a4e bb3d
00000200: a086 05be 3c79 b1bd 7b8e cabd 6936 e43d
00000210: 2d57 9bbd 8876 b9bd 90ec 1a3e fc87 f23d
00000220: 5e71 0bbe 55b5 5a3c caf8 c63c b770 313d
00000230: c429 dabb 7643 873d b8c7 8cbd d8ff 883d
00000240: b9ce c13c 96f1 dbbc 4ae6 dcbc 0b08 6c3b
00000250: 44c7 07be 6569 43bd 747b 53bc 9e2b 313d
00000260: 98f1 15be 554c 30be 1691 f93c b4b8 c33c
00000270: afb6 b6bd 401f 733d 5edf c0bc 5345 213e
00000280: 9b29 7b3d 58fa d63d 85c7 2cbe bf5b ca3d
00000290: ab44 09be bb97 fa3c 8d30 003e 70a6 263e
000002a0: a85b fe3d 8570 1b3d 5ccf f03d a0c5 8b3d
000002b0: 818a a5bc 945c 3a3d dc0c 2f3d 962b a93d
000002c0: 4e1c fdbd 5e16 9c3c 75a3 fe3d 9119 343d
000002d0: 1158 f4bc 6df9 a93d 3ab6 b7bc a453 733d
000002e0: 8b76 85bb 36b6 c03d d963 d6bd 7b66 2dbd
000002f0: d859 183c a311 0ebe 614c 593d cff7 b53d
00000300: fbf8 a6bd 5a9f 30be 48a2 db3c 916a d13c
00000310: 6534 303e 6191 32be b08d c13b 9a84 d73d
00000320: fe75 013e c75e f8bd 471b 18be 7936 60bd
00000330: bf8f 77bd e74f acbd a5cc 0ebe 01f8 ddbd
00000340: 2022 c2bd ebaa 313d 3dd7 bd3c cbee 9cbc
00000350: 0427 173e 142e 9d3d ddcb 1b3e 1ba7 19be
00000360: d1b0 e73b 3870 ea3b f68e 043d 1cb5 173e
00000370: 5f42 96bb 5e32 a1bc e5c5 f9bd 6ce5 2e3d
00000380: dda3 acbd 4bc0 a5bb 0ea7 59bb 30d5 f03c
00000390: 51bb 31be 2794 ca3c 26cb cfbd f8cf dd3d
000003a0: 36ae 17bd b8fd c13d be13 9fbd 8916 b0bd
000003b0: bf53 e4bd 4a35 063e 8c82 34be 7fcf ffbd
000003c0: 5eae d53d c567 973c 16b4 a63d 053a 26be
000003d0: c1b9 96bd ae14 4e3d 9413 0c3e 4b52 a9bd
000003e0: be03 94bd 6308 afbd 791f 08bd bfee 0bbd
000003f0: 226a 29bd 22a0 babd ebb2 583d 393f 8abd

feature_extractor.encoder.0.mlp.2.bias f4 [32]
0.13777955 0.023422109 -0.12648386 -0.07799795 -0.17360413 0.1665169 0.076585025 0.13825588
0.16682017 -0.059704922 -0.058361623 -0.10210032 0.11737991 0.11173471 -0.10403401 0.09748128
-0.1238657 0.05707543 -0.07000845 0.028500928 -0.088714376 0.120267294 0.11884223 -0.077701695
-0.07691034 0.09205741 0.10303541 0.03904993 0.056465223 -0.090554744 -0.13555954 0.019066071
00000000: 1516 0d3e b9df bf3c fc84 01be 64bd 9fbd
00000010: 48c5 31be 6883 2a3e 9cd8 9c3d f392 0d3e
00000020: e8d2 2a3e 268d 74bd 990c 6fbd f919 d1bd
00000030: e164 f03d 2bd5 e43d c80f d5bd 44a4 c73d
00000040: 4dad fdbd edc7 693d 9760 8fbd c77a e93c
00000050: e2af b5bd b34e f63d 8e63 f33d 1122 9fbd
00000060: 2b83 9dbd 9888 bc3d 3b04 d33d d2f2 1f3d
00000070: 1448 673d c474 b9bd 1fd0 0abe 7330 9c3c

feature_extractor.encoder.0.mlp.4.weight f4 [32, 32]
0.06216122 -0.16194963 -0.17449379 -0.08420449 0.08634599 0.13672955 -0.13549444 -0.0394843
-0.014284113 0.06154524 0.10795043 -0.014486672 0.05665372 0.112884186 0.13519745 0.11563871
0.09487993 -0.034890153 -0.1594362 0.15334772 0.1666486 -0.10574734 -0.008414161 0.006402338
-0.14051554 0.16320519 0.14660099 0.12320929 0.075939186 0.07103494 -0.047329593 0.14502913
-0.15009195 -0.078139655 0.08982683 -0.11999061 0.05384418 0.08442445 0.14446804 0.0743176
0.08568896 -0.088485226 -0.012159829 0.11030481 -0.07214524 0.021034207 0.0018028261 -0.0368616
0.0573735 -0.044313937 -0.15069349 0.16724874 -0.07236327 0.15368302 0.08723811 0.053234946
-0.0984003 0.15076198 -0.026343059 -0.12687744 -0.15676732 -0.10962735 -0.1304923 0.11535426
0.0031784321 -0.05132571 -0.15094933 0.05482859 -0.039544996 -0.011770021 -0.03652854 -0.05258827
-0.16313566 -0.17664926 -0.010898543 0.122384496 -0.06553514 -0.10856276 0.062529854 -0.15011857
-0.006432365 -0.11366879 0.04667786 0.060460705 -0.019904207 0.13475898 -0.017586963 -0.13639222
-0.10498224 0.0023336136 0.1220411 -0.06076171 -0.05623879 -0.12066577 0.018289784 0.025364501
-0.1768959 -0.057472643 0.15303694 0.06038161 -0.0070108753 -0.09514363 -0.14190434 -0.16196994
-0.034507446 0.0792401 0.10036096 -0.0062638856 0.09461402 -0.041754644 0.17046438 0.13101101
0.0740394 -0.17607 -0.07989643 -0.13071707 0.046807762 -0.07929262 -0.0741112 -0.1483311
-0.13831823 0.08100416 0.14904742 0.11609585 -0.166865 0.07999498 0.11773613 -0.1118724
-0.11655174 -0.11060493 0.015059943 -0.12485958 0.0028229747 0.12720913 -0.0037222146 -0.09430057
-0.14233282 -0.082682684 0.1066907 0.11889329 -0.14461672 0.051015783 -0.009937437 0.15504137
-0.13589612 -0.17656828 0.059059493 -0.04254759 -0.17644607 -0.1472489 0.050182924 -0.066712156
-0.054288503 0.056779582 -0.0011058602 0.15853119 -0.084731266 0.098679796 0.016462341 0.11494329
-0.055463698 0.116312146 0.062567085 0.16903086 0.13446164 -0.13557751 0.07627944 -0.13459404
-0.012355878 0.168567 -0.023120917 0.13852239 0.141705 0.071161285 0.005152319 -0.11092484
0.0117428005 0.06506055 0.10755728 -0.06833459 -0.099987514 0.00044482626 -0.16771637 -0.12907961
0.14823543 -0.17227094 -0.03300052 -0.07149651 -0.17603779 0.11387923 -0.08864619 0.046799235
-0.057836264 0.07488094 -0.045719136 0.10395498 -0.10308841 -0.08498257 0.16786784 -0.08126787
-0.11816779 -0.04576762 0.061266493 0.07562331 -0.14391574 0.0891251 0.16632284 -0.014324679
-0.15568796 -0.08815662 -0.17670164 -0.108850256 0.1471057 0.10342124 0.1192117 -0.12588425
0.15642972 0.088308245 0.09443365 -0.16657026 -0.03078374 0.0004996449 -0.0854075 -0.05119594
-0.15585575 -0.08849235 0.16642858 0.07377225 -0.11361758 0.1085222 0.044299643 0.14133404
-0.13316102 0.1381347 -0.108864255 -0.13197058 -0.15264384 -0.07534657 -0.012478664 -0.08844175
0.065482564 0.1457561 -0.06352919 -0.050428834 0.019171042 -0.10583049 -0.06552403 -0.003992613
-0.055717867 0.124918036 0.15234639 -0.01903301 -0.04278026 0.05118402 -0.14869066 0.041468065
00000000: c39c 7e3d 20d6 25be 80ae 32be 6773 acbd
00000010: 2bd6 b03d d502 0c3e 0ebf 0abe 4aba 21bd
00000020: ea07 6abc dd16 7c3d 1d15 dd3d 8259 6dbc
00000030: bb0d 683d d32f e73d 3371 0a3e fdd3 ec3d
00000040: 6950 c23d fae8 0ebd 3e43 23be 2f07 1d3e
00000050: eea5 2a3e 1092 d8bd 8ddb 09bc b4ca d13b
00000060: 4ee3 0fbe 431f 273e 921e 163e 2755 fc3d
00000070: 0186 9b3d c47a 913d addc 41bd 8482 143e
00000080: b4b1 19be af07 a0bd 21f7 b73d a3bd f5bd
00000090: b78b 5c3d bae6 ac3d 6eef 133e d333 983d
000000a0: b27d af3d be37 b5bd 053a 47bc 7de7 e13d
000000b0: e2c0 93bd ee4f ac3c ce4c ec3a 30fc 16bd
000000c0: 7a00 6b3d 8882 35bd 654f 1abe 4143 2b3e
000000d0: 3233 94bd 155f 1d3e e5a9 b23d e30c 5a3d
000000e0: 1986 c9bd 5961 1a3e 66cd d7bc 29ec 01be
000000f0: 9d87 20be 4e84 e0bd c69f 05be db3e ec3d
00000100: 3e4d 503b e83a 52bd 7692 1abe f293 603d
00000110: eff9 21bd 0cd7 40bc f39e 15bd cc66 57bd
00000120: 090d 27be 8be3 34be cd8f 32bc b9a4 fa3d
00000130: 4a37 86bd 2756 debd a70f 803d afb8 19be
00000140: 97c6 d2bb 2fcb e8bd 4931 3f3d a5a5 773d
00000150: 260e a3bc 42fe 093e 8912 90bc 67aa 0bbe
00000160: ee00 d7bd 8aef 183b aff0 f93d 45e1 78bd
00000170: a55a 66bd 9d1f f7bd 75d4 953c 37c9 cf3c
00000180: 3324 35be 6f68 6bbd b7b5 1c3e b552 773d
00000190: 7cbb e5bb aada c2bd 5f4f 11be 73db 25be
000001a0: ae57 0dbd a248 a23d 0c8a cd3d 4841 cdbb
000001b0: ffc4 c13d eb06 2bbd 378e 2e3e c027 063e
000001c0: f8a1 973d b24b 34be bda0 a3bd b2da 05be
000001d0: 7fb9 3f3d 2b64 a2bd 9dc7 97bd 1ce4 17be
000001e0: 4ba3 0dbe 82e5 a53d e39f 183e a9c3 ed3d
000001f0: a9de 2abe 68d4 a33d a41f f13d 5b1d e5bd
00000200: aeb2 eebd d684 e2bd fbbd 763c 61b6 ffbd
00000210: a801 393b 1c43 023e 66f0 73bb a820 c1bd
00000220: b2bf 11be 8a55 a9bd a780 da3d 537e f33d
00000230: 6816 14be edf5 503d a2d0 22bc 2ac3 1e3e
00000240: 5a28 0bbe 51ce 34be 5ee8 713d 6246 2ebd
00000250: 47ae 34be 6ac8 16be 9c8c 4d3d 62a0 88bd
00000260: 9f5d 5ebd b591 683d 83f2 90ba 0056 223e
00000270: 9687 adbd a218 ca3d 08dc 863c 6367 eb3d
00000280: e72d 63bd 1035 ee3d 2c23 803d 6d16 2d3e
00000290: 50b0 093e d5d4 0abe 6538 9c3d 05d3 09be
000002a0: 4f70 4abc d49c 2c3e 1468 bdbc d0d8 0d3e
000002b0: 1e1b 113e 02bd 913d c9d4 a83b 902c e3bd
000002c0: e064 403c 773e 853d fe46 dc3d 01f3 8bbd
000002d0: 41c6 ccbd 9237 e939 d7bd 2bbe 722d 04be
000002e0: 07cb 173e cb67 30be 8e2b 07bd c36c 92bd
000002f0: 4043 34be 8439 e93d 228c b5bd 8eb0 3f3d
00000300: b8e5 6cbd 2e5b 993d fd43 3bbd 59e6 d43d
00000310: 0420 d3bd 570b aebd 8ce5 2b3e c56f a6bd
00000320: f401 f2bd d476 3bbd 93f2 7a3d 65e0 9a3d
00000330: a65e 13be 3887 b63d 8950 2a3e 0fb2 6abc
00000340: aa6c 1fbe 758b b4bd 46f1 34be e2ec debd
00000350: e0a2 163e 84ce d33d 4425 f43d cde7 00be
00000360: 1d2f 203e f4da b43d 6e66 c13d 6591 2abe
00000370: 2f2e fcbc 9afa 023a 21ea aebd d5b2 51bd
00000380: a698 1fbe 7a3b b5bd 416c 2a3e e815 973d
00000390: 55b0 e8bd e340 de3d 8b73 353d dfb9 103e
000003a0: 5d5b 08be 2f73 0d3e 39f4 debd 4c23 07be
000003b0: ab4e 1cbe 4d4f 9abd 4f73 4cbc f320 b5bd
000003c0: b91b 863d 1641 153e 981b 82bd 778e 4ebd
000003d0: 970c 9d3c a8bd d8bd 7631 86bd 77d4 82bb
000003e0: 6b38 64bd 07d5 ff3d b100 1c3e 1deb 9bbc
000003f0: 5b3a 2fbd 56a6 513d 5d42 18be 6bda 293d

feature_extractor.encoder.0.mlp.4.bias f4 [32]
-0.0054216906 0.023911431 0.16925348 -0.14930794 -0.016965587 -0.100742936 0.16989115 -0.02078801
-0.07962663 -0.08248197 0.045392007 0.17757475 -0.049478225 -0.16386496 -0.03501974 0.013443426
0.0052558775 0.16579577 -0.10192936 -0.15242116 0.11402059 -0.02288706 0.06296384 0.10645773
0.1467486 -0.14299102 -0.06541432 -0.10644735 -0.12438169 -0.0900862 0.085928984 -0.17104678
00000000: 70a8 b1bb e8e1 c33c c950 2d3e 2ee4 18be
00000010: 6afb 8abc 5052 cebd f2f7 2d3e 9e4b aabc
00000020: 4913 a3bd 4fec a8bd f8ec 393d 28d6 353e
00000030: aea9 4abd 37cc 27be dc70 0fbd d141 5c3c
00000040: 7f39 ac3b 5ec6 293e 57c0 d0bd 4b14 1cbe
00000050: a183 e93d a57d bbbc 30f3 803d 8306 da3d
00000060: 4445 163e 3d6c 12be f1f7 85bd 1101 dabd
00000070: d4bb febd 1d7f b8bd 89fb af3d e326 2fbe

feature_extractor.encoder.1.mlp.0.weight f4 [32, 47]
0.06964531 -0.06755934 -0.09604519 0.14487188 -0.06302127 0.13335587 0.036981516 -0.05416493
-0.053927764 -0.02479795 0.07879625 0.0689708 -0.1236963 -0.0765599 0.02142082 0.042912167
0.08745036 0.11532947 0.08463985 0.09443992 0.13758631 -0.0980397 0.06648985 0.12480129
-0.07891842 0.06407752 -0.123895794 0.027600003 0.07863363 0.12552795 0.0018241124 0.005703509
0.11644266 -0.050334588 -0.116810665 -0.09116455 -0.101730675 -0.116934136 0.09630051 0.018970495
-0.060964685 0.12882279 0.12191467 -0.07824713 -0.106158406 -0.07652844 0.047947932 -0.0902216
0.10759446 -0.09064344 -0.06125849 -0.053928453 0.14473486 0.035508886 -0.110568285 -0.040237594
-0.11577109 -0.122249775 -0.1254753 -0.031512354 -0.10938224 -0.07930042 0.012420661 -0.004005001
-0.06738742 -0.048519056 0.08908076 0.035975344 -0.027062949 -0.06764528 0.114752844 0.022292195
-0.07606003 -0.07111585 -0.019289058 -0.085149616 -0.038401987 0.0514642 0.13537812 0.020940157
-0.14321795 -0.10858264 -0.12545177 0.114027336 0.060321808 0.11999497 0.057060417 -0.014734022
0.09888739 -0.062286895 0.0897595 -0.11046861 -0.033320487 -0.11322727 0.007718738 -0.10459916
-0.09398231 0.0964965 -0.011726215 0.010255152 -0.1396107 0.030774921 -0.05300342 -0.10189493
-0.10541196 -0.12215378 -0.12344027 -0.05852959 0.06510089 -0.10124492 0.04502407 0.079325974
-0.03448097 -0.14367151 -0.07425517 -0.13167167 -0.07624455 -0.017448379 -0.083336875 0.015934601
0.089037955 -0.106139995 -0.01298972 -0.051347148 -0.013058123 0.122503005 -0.0035593465 -0.11219193
0.076432034 0.07236459 0.1088661 -0.033672582 0.047512416 0.12570973 -0.1052265 -0.039845746
0.07904338 -0.036997803 0.113242924 -0.1453288 0.0151674645 0.02095097 0.12113935 -0.009775607
0.11334651 -0.05605483 0.10959887 -0.07030993 -0.108608045 0.07044533 -0.0021943962 0.03256766
0.031437863 0.0056577763 -0.017114105 -0.018279415 0.10948255 -0.11031698 -0.019951835 -0.14030674
0.12470606 -0.05069622 0.033545177 -0.1145183 -0.07824597 -0.04124648 -0.12591846 -0.12106852
0.12308921 -0.061324835 -0.016394308 -0.034665238 -0.004566175 0.048466936 0.01680151 -0.014967913
0.12540168 0.071728356 -0.009649405 -0.08186246 0.0011044522 -0.106259085 0.010488324 -0.013963624
-0.11597097 -0.07212182 -0.036681257 0.001141175 0.010064425 0.028661193 -0.026157202 0.018141475
0.081054 -0.14100657 -0.06701641 -0.063451946 0.045765936 -0.036757994 -0.12844132 0.096972354
0.12751873 -0.083762534 -0.006439724 -0.011701143 0.123769596 0.11959319 -0.017911498 -0.090991385
0.13177325 0.081978925 0.06532473 0.100172766 -0.14020255 -0.045567177 0.058369156 -0.08097822
-0.062435966 0.07148989 -0.13975583 0.011989358 0.08061919 0.1358328 -0.061649412 0.1265259
0.092259265 0.015479763 -0.13497059 -0.14569318 0.04452482 -0.065232016 -0.07751093 0.10099162
-0.12627636 -0.026030831 -0.050956603 -0.03836461 0.00030561237 0.050524574 -0.14269917 0.10217068
0.08446839 -0.006353598 -0.12913148 -0.033213988 0.023041211 0.0834771 -0.13213204 0.009774915
-0.12390346 -0.042117774 0.13896763 -0.1492877 0.081625335 0.14123523 -0.02039994 0.08839394
00000000: 33a2 8e3d 8d5c 8abd 57b3 c4bd 4b59 143e
00000010: 4c11 81bd 718e 083e ee79 173d 0cdc 5dbd
00000020: 5ce3 5cbd 1225 cbbc ee5f a13d 9040 8d3d
00000030: 7c54 fdbd 70cb 9cbd b77a af3c abc4 2f3d
00000040: 2d19 b33d db31 ec3d a857 ad3d b769 c13d
00000050: 6de3 0c3e 0ac9 c8bd d52b 883d d297 ff3d
00000060: fb9f a1bd 133b 833d 14bd fdbd 6719 e23c
00000070: ab0a a13d 668a 003e 0e17 ef3a 80e4 ba3b
00000080: 7d79 ee3d a42b 4ebd 6e3a efbd 7bb4 babd
00000090: 2c58 d0bd 2a7b efbd 3439 c53d 0368 9b3c
000000a0: 1bb6 79bd 1fea 033e 66ae f93d 0840 a0bd
000000b0: 9469 d9bd f1ba 9cbd 0d65 443d 1ac6 b8bd
000000c0: 7c5a dc3d 45a3 b9bd 2fea 7abd 15e4 5cbd
000000d0: 6035 143e c471 113d a071 e2bd 2dd0 24bd
000000e0: 6519 edbd 175e fabd 997c 00be 1913 01bd
000000f0: cc03 e0bd 4268 a2bd 0780 4b3c 623c 83bb
00000100: 6a02 8abd ebbb 46bd f96f b63d e25a 133d
00000110: 1eb3 ddbc 9c89 8abd 8a03 eb3d 1f9e b63c
00000120: 5cc5 9bbd 30a5 91bd 1604 9ebc ec62 aebd
00000130: 674b 1dbd 20cc 523d 90a0 0a3e b18a ab3c
00000140: baa7 12be 9360 debd 6e76 00be 2a87 e93d
00000150: 0014 773d ecbf f53d 2fb8 693d f866 71bc
00000160: 7985 ca3d 8b20 7fbd d4d3 b73d 5e3d e2bd
00000170: 107b 08bd b3e3 e7bd 78ed fc3b 1638 d6bd
00000180: cc79 c0bd f59f c53d 4f1f 40bc 3a05 283c
00000190: 1bf6 0ebe b01b fc3c 1d1a 59bd 4aae d0bd
000001a0: 3ae2 d7bd c32b fabd 41ce fcbd b9bc 6fbd
000001b0: 9e53 853d 7f59 cfbd 296b 383d a875 a23d
000001c0: eb3b 0dbd a01e 13be 1813 98bd f0d4 06be
000001d0: 1a26 9cbd e7ef 8ebc 86ac aabd 4889 823c
000001e0: 8859 b63d ed5f d9bd d6d2 54bc 6351 52bd
000001f0: bdf1 55bc dbe2 fa3d ed43 69bb e2c4 e5bd
00000200: 6688 9c3d e333 943d 31f5 de3d 43ec 09bd
00000210: 619c 423d 0dba 003e fe80 d7bd 4b35 23bd
00000220: 7fe1 a13d 028b 17bd e8eb e73d 13d1 14be
00000230: f580 783c 5ea1 ab3c e817 f83d de29 20bc
00000240: 3722 e83d c099 65bd 5f75 e03d a7fe 8fbd
00000250: e56d debd a445 903d dccf 0fbb ab65 053d
00000260: fdc4 003d de64 b93b e132 8cbc b6be 95bc
00000270: 6338 e03d deed e1bd 0872 a3bc 92ac 0fbe
00000280: e465 ff3d d7a6 4fbd ab66 093d 9288 eabd
00000290: 6c3f a0bd 12f2 28bd c5f0 00be c6f2 f7bd
000002a0: 3216 fc3d c02f 7bbd 5b4d 86bc 23fd 0dbd
000002b0: da9f 95bb 4485 463d 52a3 893c fa3b 75bc
000002c0: 4c69 003e 51e6 923d 8a18 1ebc 81a7 a7bd
000002d0: 44c3 903a 5d9e d9bd 38d7 2b3c afc7 64bc
000002e0: 3082 edbd 9bb4 93bd 163f 16bd 7b93 953a
000002f0: 42e5 243c e1ca ea3c a147 d6bc 6e9d 943c
00000300: a4ff a53d 0764 10be e63f 89bd 18f3 81bd
00000310: 1075 3b3d 8d8f 16bd 1f86 03be 7199 c63d
00000320: 4594 023e b18b abbd 5204 d3bb 27b6 3fbc
00000330: ea7a fd3d 46ed f43d 22bb 92bc b159 babd
00000340: 91ef 063e 91e4 a73d f9c8 853d 6127 cd3d
00000350: 4291 0fbe a6a4 3abd 7f14 6f3d e9d7 a5bd
00000360: dbbc 7fbd 4b69 923d 271c 0fbe 036f 443c
00000370: ad1b a53d c117 0b3e 1884 7cbd 0190 013e
00000380: 6df2 bc3d d59e 7d3c bb35 0abe 9830 15be
00000390: a85f 363d 5d98 85bd 0dbe 9ebd b2d4 ce3d
000003a0: 974e 01be 9c3e d5bc dfb7 50bd 3624 1dbd
000003b0: 993a a039 dbf2 4e3d bb1f 12be dd3e d13d
000003c0: c3fd ac3d d831 d0bb 0b3b 04be 640b 08bd
000003d0: ecc0 bc3c 0bf6 aa3d 9f4d 07be f726 203c
000003e0: 19c1 fdbd b083 2cbd 884d 0e3e e0de 18be
000003f0: 2f2b a73d f89f 103e c61d a7bc e207 b53d

feature_extractor.encoder.1.mlp.0.bias f4 [32]
-0.09111792 -0.13699636 0.07521953 -0.12890205 0.12391742 0.062193513 0.066164985 -0.13730523
-0.08957577 0.07180708 0.12538882 -0.0082906885 -0.096204266 -0.09144848 -0.092412606 -0.04943743
-0.007813207 -0.13035916 -0.04281587 0.101463854 -0.054517984 0.09938169 -0.14103526 0.104829304
0.10114419 -0.10784426 -0.08402026 -0.060471125 -0.0053166505 -0.054341525 0.055238258 0.039298948
00000000: 089c babd c648 0cbe b20c 9a3d e6fe 03be
00000010: 6bc8 fd3d a0be 7e3d 8281 873d be99 0cbe
00000020: 8073 b7bd 970f 933d ed65 003e abd5 07bc
00000030: be06 c5bd 5749 bbbd d242 bdbd e77e 4abd
00000040: f702 00bc df7c 05be b25f 2fbd 48cc cf3d
00000050: 404e 5fbd a188 cb3d 8c6b 10be bfb0 d63d
00000060: af24 cf3d 74dd dcbd d012 acbd 92b0 77bd
00000070: 4c37 aebb 3895 5ebd 8341 623d eff7 203d

feature_extractor.encoder.1.mlp.2.weight f4 [32, 32]
0.1106559 -0.11534096 0.11808011 0.13690645 0.12238243 0.08114528 -0.0003860624 0.0646384
0.01384025 -0.102795005 0.17341504 -0.036872588 -0.1062353 0.16007447 0.113508545 -0.03752205
-0.09734609 -0.071286604 0.061324675 0.14050733 -0.015559059 0.112592034 -0.037419 -0.1753763
-0.12450757 0.055275127 -0.16881931 -0.07398038 0.04563866 -0.008927812 0.108426414 -0.14395282
0.050781377 -0.008022441 0.1717325 -0.16497304 -0.099807754 -0.15625757 0.039925274 0.15524802
0.06830478 0.17817523 0.09536716 -0.061300162 0.15869279 0.028083077 0.08182257 -0.13252772
-0.080159366 0.077138215 -0.119354755 0.0695192 0.031002913 0.006491267 0.04714075 0.039440278
0.13660632 -0.0409505 0.053260647 -0.06405079 0.090472296 -0.09377415 0.048420407 -0.16445951
0.043450575 -0.1601076 0.082978144 -0.01390068 -0.03160491 0.047374032 -0.17649207 -0.16624708
0.037974942 0.167385 0.07361338 0.065200426 -0.16545689 0.1413976 -0.025547754 -0.13055113
-0.10688804 -0.12364217 0.13571502 -0.109250866 -0.07462449 -0.08282688 -0.0010480445 -0.049333688
-0.1187978 -0.044089746 -0.17669286 0.12435364 -0.1068729 0.054466534 -0.026618263 -0.03507579
-0.16710494 -0.070559695 -0.06664722 -0.0633544 0.081225865 -0.17589413 0.14767784 0.036595598
0.16344397 -0.09823768 0.06851733 0.10028736 0.09828388 -0.10312802 0.104478605 0.09631505
-0.14449438 0.040105876 -0.10857983 -0.15174651 -0.11891305 0.03923197 -0.055554233 -0.1477784
0.027846 0.0675472 0.05384609 -0.12482669 -0.12009202 0.038975522 0.06659817 0.0853068
-0.10658729 -0.1617826 -0.04063306 -0.029820412 0.02720788 -0.018937042 0.048416786 0.17261192
-0.03549407 0.14935017 0.021815171 0.014253847 0.025605885 -0.124857806 -0.07453292 0.005883745
-0.11858587 -0.024988825 -0.1065215 -0.1686525 -0.059877843 0.094653666 0.082672305 -0.046448633
-0.03702198 0.06407608 -0.11698004 -0.027120255 -0.037393052 -0.08125334 0.11560619 -0.089445606
0.03013001 -0.031368215 -0.034628477 0.15289277 0.06906849 0.09105877 -0.17246959 0.15450227
-0.0015119012 -0.055582773 -0.15456617 -0.067109436 0.044125326 0.1436267 0.0017153452 0.09659992
0.08190147 0.09417187 -0.051360022 -0.111080825 -0.021862943 -0.09453181 0.010641427 0.16945884
0.15729117 -0.10095515 0.0665617 0.10990046 0.026151285 0.13077205 0.1347935 -0.07719734
0.075864166 -0.11084434 0.059413217 -0.041670956 0.025720336 0.08600585 -0.12805955 -0.01298719
-0.08197332 0.06861477 -0.08683555 -0.003058004 0.11202503 -0.16836455 0.06085769 -0.15786256
-0.026028853 -0.04381628 0.12477282 0.007841279 0.024499055 -0.15486473 -0.101141274 0.10437038
-0.0030796577 0.0883529 0.0982508 -0.05873993 -0.119781084 0.012417112 -0.072167054 0.13798074
0.111027464 0.083863296 -0.07586464 -0.10560673 -0.17239097 0.16117895 0.0815043 0.14416109
0.12458265 -0.048063453 -0.099570744 0.019463403 -0.069184326 -0.01746654 0.074203566 -0.109072536
-0.14430454 -0.06749356 0.037278675 -0.015370294 0.09179567 0.12600847 -0.10769567 -0.0024937575
0.1122969 -0.05320099 0.09999897 -0.024867432 -0.03422438 -0.043938022 -0.15473908 -0.13396302
00000000: 8f9f e23d e237 ecbd fcd3 f13d 3431 0c3e
00000010: a4a3 fa3d 7f2f a63d 6b68 cab9 2361 843d
00000020: 37c2 623c 3086 d2bd b693 313e b607 17bd
00000030: e591 d9bd 90ea 233e 2b77 e83d b9b0 19bd
00000040: 635d c7bd b6fe 91bd 952f 7b3d 27e1 0f3e
00000050: 6ceb 7ebc a796 e63d aa44 19bd d895 33be
00000060: d3fd febd 2c68 623d f8de 2cbe 0783 97bd
00000070: 9bef 3a3d f545 12bc ab0e de3d 5e68 13be
00000080: 2200 503d 8e70 03bc a5da 2f3e b1ee 28be
00000090: 0268 ccbd fc01 20be af88 233d 56f9 1e3e
000000a0: 60e3 8b3d 9173 363e dc4f c33d e115 7bbd
000000b0: 5d80 223e 7b0e e63c 9792 a73d 59b5 07be
000000c0: 982a a4bd a4fa 9d3d 4470 f4bd 1560 8e3d
000000d0: d2f9 fd3c b2b4 d43b a916 413d 218c 213d
000000e0: 87e2 0b3e b6bb 27bd d627 5a3d 102d 83bd
000000f0: 8a49 b93d a90c c0bd 7a54 463d 1368 28be
00000100: 3bf9 313d 3ff3 23be 72f0 a93d adbf 63bc
00000110: 2674 01bd 460b 423d 56ba 34be ad3c 2abe
00000120: 9d8b 1b3d f966 2b3e 9dc2 963d cd87 853d
00000130: 886d 29be 88ca 103e 8649 d1bc 32af 05be
00000140: 1ee8 dabd 1b38 fdbd e1f8 0a3e ebbe dfbd
00000150: bad4 98bd 24a1 a9bd 8a5e 89ba 1f12 4abd
00000160: 434c f3bd 7397 34bd f9ee 34be 1fad fe3d
00000170: 2ee0 dabd 4d18 5f3d 8b0e dabc a2ab 0fbd
00000180: 8f1d 2bbe 9a81 90bd 567e 88bd f4bf 81bd
00000190: bf59 a63d 971d 34be dc38 173e 44e5 153d
000001a0: db5d 273e d630 c9bd d052 8c3d 7663 cd3d
000001b0: 0f49 c93d c934 d3bd e1f8 d53d d340 c53d
000001c0: 56f6 13be 0f46 243d 1a5f debd 7063 1bbe
000001d0: af88 f3bd b4b1 203d d68c 63bd 3953 17be
000001e0: 4b1d e43c 3056 8a3d b88d 5c3d 23a5 ffbd
000001f0: cef2 f5bd cca4 1f3d 9f64 883d 55b5 ae3d
00000200: 704a dabd 57aa 25be da6e 26bd f049 f4bc
00000210: 0fe3 de3c db21 9bbc ae50 463d 2ec1 303e
00000220: 3b62 11bd 40ef 183e bbb5 b23c f888 693c
00000230: 6fc3 d13c 73b5 ffbd b7a4 98bd 6ecc c03b
00000240: 26dd f2bd 5db5 ccbc f227 dabd 3eb3 2cbe
00000250: 7842 75bd c8d9 c13d 1950 a93d ec40 3ebd
00000260: 5ca4 17bd 523a 833d 3b93 efbd 4c2b debc
00000270: 7529 19bd 2768 a6bd f0c2 ec3d 422f b7bd
00000280: 36d3 f63c f57b 00bd 97d6 0dbd ec8f 1c3e
00000290: c873 8d3d 057d ba3d de9b 30be d835 1e3e
000002a0: fc2a c6ba c3aa 63bd 9846 1ebe ac70 89bd
000002b0: c2bc 343d e112 133e 6fd5 e03a 2ed6 c53d
000002c0: f5bb a73d 2edd c03d e35e 52bd 587e e3bd
000002d0: ea19 b3bc e599 c1bd 6159 2e3c 9e86 2d3e
000002e0: f010 213e 93c1 cebd 8051 883d 7e13 e13d
000002f0: 383b d63c 1ce9 053e 4f07 0a3e a419 9ebd
00000300: ac5e 9b3d 5b02 e3bd 465b 733d 2aaf 2abd
00000310: 74b3 d23c d623 b03d 0b22 03be 39c8 54bc
00000320: a1e1 a7bd e785 8c3d d6d6 b1bd cb68 48bb
00000330: 616d e53d c267 2cbe ea45 793d b9a6 21be
00000340: 763a d5bc b378 33bd e488 ff3d b578 003c
00000350: 3eb2 c83c dc94 1ebe 2823 cfbd 23c0 d53d
00000360: 15d4 49bb 5ef2 b43d b737 c93d 4899 70bd
00000370: c94f f5bd 2471 4b3c 52cc 93bd d34a 0d3e
00000380: 5e62 e33d 85c0 ab3d ec5e 9bbd 5748 d8bd
00000390: 4287 30be 180c 253e baeb a63d f79e 133e
000003a0: 3025 ff3d 2fde 44bd bfeb cbbd b771 9f3c
000003b0: 83b0 8dbd fd15 8fbc 0af8 973d 6c61 dfbd
000003c0: 92c4 13be 103a 8abd 86b1 183d b0d3 7bbc
000003d0: 5eff bb3d 5d08 013e 8c8f dcbd 4f6e 23bb
000003e0: ebfb e53d 48e9 59bd 43cc cc3d c9b6 cbbc
000003f0: dd2e 0cbd 5bf8 33bd ec73 1ebe 9a2d 09be

feature_extractor.encoder.1.mlp.2.bias f4 [32]
0.12276668 0.15090542 0.0569282 0.13821216 0.04904075 -0.015204301 -0.09474153 0.16246505
0.08322904 0.017986633 0.14214438 0.044096418 0.11098969 -0.16859755 0.069535084 -0.14290264
0.027261611 0.13458739 -0.17123021 0.005187465 0.10121191 -0.010613399 0.14507954 -0.036132514
-0.08565065 0.030097948 -0.02197186 -0.10120246 -0.04486262 -0.0073195063 -0.04655045 -0.051837936
00000000: 196d fb3d f386 1a3e 8b2d 693d 7d87 0d3e
00000010: f4de 483d 761b 79bc d907 c2bd 3d5d 263e
00000020: fd73 aa3d b458 933c 4c8e 113e 729e 343d
00000030: 904e e33d d6a4 2cbe 6968 8e3d 1255 12be
00000040: be53 df3c 47d1 093e f956 2fbe 9cfb a93b
00000050: 3148 cf3d d2e3 2dbc bb8f 143e b0ff 13bd
00000060: 9c69 afbd f98f f63c 55fe b3bc 3c43 cfbd
00000070: dec1 37bd 78d8 efbb afab 3ebd 0454 54bd

feature_extractor.encoder.1.mlp.4.weight f4 [32, 32]
0.07594312 -0.08290301 -0.053394917 0.09396088 -0.17251813 -0.16805607 -0.15502852 -0.16288052
-0.08287553 -0.15209801 0.1621027 0.09310313 0.08998923 -0.15745544 0.007928188 0.021837546
-0.150499 -0.04559768 0.151257 -0.1295507 0.109868355 0.0648518 0.126518 -0.045289632
0.019238414 -0.031303562 0.090008035 -0.17353679 0.13241626 0.018142821 -0.053274866 0.15825568
-0.03678941 0.09219935 0.16850112 -0.08926444 0.08645957 -0.05025937 0.064273156 -0.045746297
-0.03352271 0.021655668 -0.059803568 -0.058871813 0.14051513 0.024252107 -0.124195196 0.1399193
-0.07254774 0.00032681302 -0.09283738 -0.085508354 0.17384785 -0.09313384 -0.10946165 -0.02606161
0.113341264 -0.12676603 0.066688284 0.04210873 -0.12435658 0.14845726 0.0126093505 -0.019749662
0.059191678 -0.13061145 -0.06840611 -0.14826056 0.063117735 -0.024731603 0.052193794 -0.15939765
0.019736292 -0.05241813 -0.045980193 -0.054655105 -0.107287735 -0.06365295 -0.016285377 -0.013954126
0.100182086 -0.05365193 -0.017486306 0.077585496 0.044505488 0.16081135 0.052693576 -0.022636209
-0.07999135 -0.15716386 -0.16681683 0.035886053 0.03760454 0.07422959 0.016916187 0.114195116
0.15537813 0.043637093 -0.1439356 0.03911307 -0.1492727 0.16485707 -0.0290994 -0.119954206
-0.07671843 0.04241205 0.00903496 -0.09133619 0.096083224 0.13663635 -0.17304984 -0.08298573
-0.14652364 0.16054359 -0.07910788 0.16310598 0.14968313 -0.17501459 0.036131326 0.037542872
0.17163892 0.16010103 0.12484399 -0.091390096 0.16839606 0.050023552 0.10122558 -0.03164539
0.13395524 0.1461905 -0.13615617 0.07548859 0.09768494 0.04344927 -0.12221977 -0.10523811
0.07667144 -0.010903667 0.12692393 0.108269654 0.09849692 -0.13348858 -0.014031695 0.06853452
0.10569572 -0.16570017 0.06682333 0.002774349 0.14276093 0.16996865 -0.17549653 -0.027409127
-0.16937408 -0.16812906 -0.15328899 0.07126325 0.015440357 -0.064821154 -0.082531035 0.0026611995
-0.030956779 0.004259947 0.11860527 0.052272975 0.1344511 0.1625119 0.014261847 -0.06503932
-0.02862072 -0.12127441 0.050123412 0.15032601 0.07132938 -0.08551081 -0.035267 -0.13926463
0.15277676 -0.14758876 0.054014 0.08189709 -0.0391406 -0.08763841 -0.16467263 0.028012143
0.04281951 -0.120880134 0.17183489 -0.08408285 0.061628707 0.11618365 0.009928813 -0.043950003
-0.11505128 0.03471519 0.15339275 -0.07824447 0.1631381 -0.08941315 -0.037656203 0.08968363
-0.06654496 0.086252786 -0.051786426 0.02788575 0.041401364 0.15242927 0.004484689 0.13789555
-0.13630114 -0.06983694 0.032055877 -0.15908074 0.083973534 0.04065997 0.024745379 -0.08229547
0.034786385 0.06791332 0.1545341 -0.10339062 0.013175376 -0.0026406257 -0.06799292 -0.03797542
0.09925473 0.030458877 -0.12681301 -3.3498886e-06 -0.16355164 -0.13532133 -0.12298795 0.002236707
-0.06306396 -0.16613829 0.09852479 -0.06551698 0.10568672 0.030084375 -0.06947869 -0.16149993
-0.12657216 0.13135797 0.02885922 0.02123814 -0.044932347 0.12475286 -0.118473224 -0.02044805
-0.17035343 -0.11477411 -0.07207251 -0.10379377 -0.1284602 -0.13746308 -0.13226129 0.010602753
00000000: 1188 9b3d 0ec9 a9bd a1b4 5abd 906e c03d
00000010: 98a8 30be e416 2cbe ccbf 1ebe 27ca 26be
00000020: a5ba a9bd 95bf 1bbe 40fe 253e dbac be3d
00000030: 464c b83d 003c 21be 3be5 013c a7e4 b23c
00000040: 691c 1abe a2c4 3abd 1de3 1a3e f0a8 04be
00000050: a902 e13d 05d1 843d ef8d 013e 9f81 39bd
00000060: e199 9d3c 2a38 00bd 2256 b83d a1b3 31be
00000070: 2198 073e 41a0 943c bf36 5abd c70d 223e
00000080: 7eb0 16bd 03d3 bc3d 8f8b 2c3e 46d0 b6bd
00000090: b711 b13d c5dc 4dbd a5a1 833d 7860 3bbd
000000a0: 1c4f 09bd 3a67 b13c 96f4 74bd 9223 71bd
000000b0: 33e3 0f3e 5bac c63c 0d5a febd 0147 0f3e
000000c0: e993 94bd 1a58 ab39 8621 bebd 011f afbd
000000d0: 2c05 323e f4bc bebd 6e2d e0bd 287f d5bc
000000e0: 771f e83d f4ce 01be de93 883d 347a 2c3d
000000f0: aaae febd 2e05 183e 7397 4e3c 0bca a1bc
00000100: f972 723d 02bf 05be 8118 8cbd 9ed1 17be
00000110: df43 813d ee99 cabc 29c9 553d 2339 23be
00000120: 01ae a13c 65b4 56bd ba55 3cbd 08de 5fbd
00000130: acb9 dbbd 7a5c 82bd e968 85bc d99f 64bc
00000140: 442c cd3d 20c2 5bbd 713f 8fbc 25e5 9e3d
00000150: 634b 363d bbab 243e 38d5 573d 926f b9bc
00000160: 81d2 a3bd 90ef 20be 08d2 2abe 41fd 123d
00000170: 3807 1a3d af05 983d d193 8a3c 21df e93d
00000180: 721b 1f3e cfbc 323d db63 13be 0735 203d
00000190: f1da 18be 4bd0 283e dd61 eebc 8daa f5bd
000001a0: 8d1e 9dbd 42b8 2d3d 5e07 143c 780e bbbd
000001b0: 48c7 c43d 66ea 0b3e fa33 31be 6cf4 a9bd
000001c0: 4b0a 16be 8a65 243e 5003 a2bd 4105 273e
000001d0: 8946 193e 0637 33be 71fe 133d 8ec6 193d
000001e0: 1dc2 2f3e 86f1 233e 35ae ff3d bb2a bbbd
000001f0: 0470 2c3e 7fe5 4c3d 5b4f cf3d 999e 01bd
00000200: 902b 093e f6b2 153e 866c 0bbe c399 9a3d
00000210: 0b0f c83d ddf7 313d 5c4e fabd 1487 d7bd
00000220: ea05 9d3d 4ba5 32bc 59f8 013e 7bbc dd3d
00000230: c1b8 c93d 3bb1 08be 32e5 65bc d45b 8c3d
00000240: ff76 d83d 4ead 29be acda 883d dad1 353b
00000250: ec2f 123e 430c 2e3e 5db5 33be 1b89 e0bc
00000260: 6670 2dbe 062a 2cbe caf7 1cbe 78f2 913d
00000270: 8df9 7c3c f4c0 84bd 0806 a9bd 8567 2e3b
00000280: 1299 fdbc 0797 8b3b 52e7 f23d 301c 563d
00000290: 8dad 093e 8569 263e 86aa 693c 5633 85bd
000002a0: 0076 eabc b85e f8bd 354e 4d3d 10ef 193e
000002b0: 2315 923d 4b20 afbd 2174 10bd 639b 0ebe
000002c0: 8371 1c3e 8221 17be c93d 5d3d a9b9 a73d
000002d0: e551 20bd c47b b3bd f19f 28be b979 e53c
000002e0: 8363 2f3d 0190 f7bd 7cf5 2f3e a133 acbd
000002f0: 626e 7c3d b2f1 ed3d 76ac 223c eb04 34bd
00000300: 01a0 ebbd 8431 0e3d fd12 1d3e a33e a0bd
00000310: ad0d 273e 3e1e b7bd 643d 1abd 0dac b73d
00000320: b948 88bd 4da5 b03d 011e 54bd a870 e43c
00000330: 7a94 293d 6b16 1c3e 4cf4 923b 7e34 0d3e
00000340: 8792 0bbe ab06 8fbd 064d 033d 10e6 22be
00000350: 51fa ab3d 128b 263d d2b6 ca3c 878a a8bd
00000360: 2b7c 0e3d 2416 8b3d 303e 1e3e 76be d3bd
00000370: 88dd 573c 590e 2dbb df3f 8bbd 1d8c 1bbd
00000380: 1046 cb3d e584 f93c 45db 01be a6ce 60b6
00000390: 157a 27be ad91 0abe 1be1 fbbd b795 123b
000003a0: ad27 81bd 2820 2abe 5dc7 c93d c42d 86bd
000003b0: 4772 d83d 8273 f63c d84a 8ebd 3d60 25be
000003c0: 229c 01be b482 063e 2c6a ec3c 9cfb ad3c
000003d0: fb0a 38bd 6d7e ff3d 17a2 f2bd ab82 a7bc
000003e0: 2171 2ebe b00e ebbd c19a 93bd d491 d4bd
000003f0: 128b 03be 1fc3 0cbe 816f 07be 2bb7 2d3c

feature_extractor.encoder.1.mlp.4.bias f4 [32]
-0.09881571 -0.17175399 -0.051454343 -0.03332234 -0.06132433 -0.10348371 0.12177522 0.1492176
0.14975263 -0.050584253 -0.11685289 -0.17892697 0.09995029 0.17794111 0.06138398 -0.03599958
0.15677595 0.15134296 0.13759358 -0.08098605 0.024179887 -0.0013411348 -0.063007556 0.15992346
0.031147176 -0.0702943 -0.0028788743 -0.16519982 -0.11150177 -0.15893957 -0.123803414 -0.03417641
00000000: e45f cabd 47e0 2fbe cac1 52bd 027d 08bd
00000010: 382f 7bbd 44ef d3bd 4965 f93d 80cc 183e
00000020: c158 193e 6f31 4fbd 9150 efbd a238 37be
00000030: bdb2 cc3d 3236 363e c56d 7b3d 4c74 13bd
00000040: e089 203e a6f9 1a3e 55e5 0c3e 04dc a5bd
00000050: e614 c63c 04c9 afba 1b0a 81bd fac2 233e
00000060: 5d28 ff3c 75f6 8fbd 7fab 3cbb 242a 29be
00000070: 0a5b e4bd 0ec1 22be a58c fdbd 90fc 0bbd

feature_extractor.fc1.weight f4 [32, 97]
0.08298105 0.04269617 -0.10011077 0.07272981 0.071741395 -0.06874188 0.09422566 -0.0145865865
-0.02847463 -0.02218878 -0.013406018 0.045625772 -0.06469472 0.101788804 -0.03294542 0.04023481
-0.010582044 -0.038490053 -0.027309569 0.07858103 -0.037684474 -0.06252117 -0.036153086 0.041446257
0.068779126 -0.0031895074 0.060152132 -0.07817155 -0.09083103 -0.024719525 -0.03794033 -0.07194217
0.0031839886 -0.03683334 0.020287296 0.06250321 -0.07348092 -0.008205014 -0.055358566 -0.09434677
0.02343325 0.07574491 -0.010169695 0.0118187275 0.02544874 -0.00280481 -0.011494942 -0.019654086
0.03458666 -0.0053226473 0.034837518 0.043098077 -0.06701393 -0.06642661 -0.032615237 0.023088261
-0.08694756 0.02840822 0.059705075 0.10202422 -0.08920585 -0.025998551 0.064979926 -0.05608784
-0.07270068 0.06506728 -0.06909317 -0.077450015 -0.06442715 0.099089146 -0.008483663 -0.035904896
-0.09239656 -0.043691613 0.028471086 0.06037467 -0.023746556 -0.0594617 -2.481016e-05 0.07429911
-0.053860992 0.08359129 0.005293594 0.07512695 -0.035712667 0.0816257 0.029171143 -0.08949052
0.042686965 -0.059881862 0.033276416 0.08155894 0.049246013 -0.0624095 -0.059506558 -0.08634593
-0.09826067 0.07289368 0.05809723 -0.102463074 -0.060517266 -0.08793379 -0.037206035 0.075954266
-0.025549814 -0.09158109 0.04814449 0.09682145 -0.029025147 0.09546252 -0.01829354 -0.043499947
0.049795754 -0.054499328 -0.05687387 -0.07238516 -0.087222375 -0.024696423 0.0037413512 0.08844937
0.0015544092 -0.08349583 0.02659899 -0.02939406 -0.07309673 0.0186493 0.010671503 0.08730911
-0.0606555 0.0052178274 -0.014767222 -0.0077206823 -0.021803837 -0.010878425 -0.04817864 0.038931787
-0.0838743 0.08454212 0.031853195 0.083448194 0.05148188 0.031529453 0.0013899656 -0.09532286
-0.10083568 -0.021530878 -0.010800452 0.097452715 0.06879303 0.06688474 -0.04839059 -0.071192466
0.0714201 0.0501679 -0.034136336 -0.095976785 0.060467493 0.08995962 -0.037712567 -0.03805265
-0.036806192 0.044585034 -0.038541898 0.0850675 -0.037812322 0.05168912 0.060098663 -0.05131168
0.0516768 -0.08845077 -0.03663388 0.039776213 -0.0027428588 0.06987233 0.0070364624 -0.09638789
0.064960994 0.023519669 -0.07251711 0.026381163 -0.0824443 0.10094608 -0.037443284 0.080432616
0.070897564 0.02525265 0.027194733 -0.05751996 0.08762953 0.022960309 -0.013271811 0.033217754
0.016405854 -0.06013642 0.021447038 -0.09512984 0.09621782 -0.0901551 -0.0132964635 0.071982406
-0.052629195 -0.10004794 -0.09003299 -0.09659251 0.00042234283 -0.07728887 -0.031283285 -0.032049317
-0.0070394427 -0.075513646 0.06458421 0.020950243 0.08460044 -0.05310908 -0.05590149 0.0024624232
-0.07037756 -0.088565186 -0.042659774 -0.027203742 -0.023647578 -0.0012231374 -0.007259237 -0.039213188
-0.07952399 0.060699105 0.06942317 -0.050686307 -0.08063566 0.10092633 0.062392525 -0.027263135
-0.088713296 0.0007092686 -0.009190896 -0.02966589 -0.062735274 0.05810692 -0.0024993483 0.048071213
0.1011014 -0.010770713 -0.09431422 -0.077565014 -0.0472546 0.0037778711 -0.08433777 0.018106064
0.065274246 0.09371132 -0.07292201 -0.0865902 -0.06324361 -0.040780343 -6.53389e-05 0.04068765
00000000: f8f1 a93d 2ee2 2e3d e006 cdbd 5ef3 943d
00000010: 27ed 923d 8bc8 8cbd 62f9 c03d 94fc 6ebc
00000020: a143 e9bc 3fc5 b5bc eaa4 5bbc 17e2 3a3d
00000030: aa7e 84bd a676 d03d c7f1 06bd 42cd 243d
00000040: 4f60 2dbc bfa7 1dbd 51b8 dfbc 17ef a03d
00000050: 095b 1abd 190b 80bd 4215 14bd 8dc3 293d
00000060: 12dc 8c3d 0e07 51bb 1562 763d 6818 a0bd
00000070: 9e05 babd 9a80 cabc 5267 1bbd 6b56 93bd
00000080: 77aa 503b 8ede 16bd 8b31 a63c af01 803d
00000090: 2a7d 96bd 536e 06bc aabf 62bd e138 c1bd
000000a0: 16f7 bf3c 2620 9b3d cb9e 26bc 56a3 413c
000000b0: e079 d03c e7d0 37bb 4855 3cbc 9b01 a1bc
000000c0: beaa 0d3d 9a69 aebb c9b1 0e3d 9c87 303d
000000d0: 993e 89bd ad0a 88bd 8e97 05bd 9823 bd3c
000000e0: 9011 b2bd 5bb8 e83c 4f8d 743d 13f2 d03d
000000f0: 8fb1 b6bd eafa d4bc 3214 853d 5dbc 65bd
00000100: 18e4 94bd fe41 853d b880 8dbd 1d9e 9ebd
00000110: 62f2 83bd 40ef ca3d 10ff 0abc 0311 13bd
00000120: 683a bdbd faf5 32bd 323c e93c 6e4b 773d
00000130: 2388 c2bc 1d8e 73bd 6a1f d0b7 222a 983d
00000140: 589d 5cbd e931 ab3d e375 ad3b 29dc 993d
00000150: 7247 12bd 602b a73d 52f8 ee3c ce46 b7bd
00000160: 87d8 2e3d af46 75bd da4c 083d 6008 a73d
00000170: 30b6 493d 1ba1 7fbd 26bd 73bd 23d6 b0bd
00000180: e43c c9bd 4849 953d 5cf7 6d3d 29d8 d1bd
00000190: f4e0 77bd a216 b4bd 5b65 18bd e98d 9b3d
000001a0: d84d d1bc de8e bbbd 2833 453d 534a c63d
000001b0: 25c6 edbc db81 c33d 56dc 95bc 002d 32bd
000001c0: a2f6 4b3d b03a 5fbd 93f4 68bd ac3e 94bd
000001d0: a5a1 b2bd 2750 cabc 7531 753b f124 b53d
000001e0: 51bd cb3a ddff aabd 20e6 d93c d0cb f0bc
000001f0: bdb3 95bd 6bc6 983c 87d7 2e3c 1ecf b23d
00000200: e771 78bd 4ffa aa3b 38f2 71bc c7fd fcbb
00000210: f69d b2bc 6c3b 32bc f756 45bd f076 1f3d
00000220: 4ac6 abbd 6b24 ad3d 7f78 023d e3e6 aa3d
00000230: aade 523d 0725 013d 822f b63a a238 c3bd
00000240: f082 cebd 8661 b0bc 61f4 30bc 4a95 c73d
00000250: 5ce3 8c3d defa 883d 3635 46bd 5bcd 91bd
00000260: b444 923d db7c 4d3d 8bd2 0bbd 7a8f c4bd
00000270: c3ac 773d c03c b83d 7e78 1abd 18dd 1bbd
00000280: 17c2 16bd cc9e 363d 1cde 1dbd df37 ae3d
00000290: 18e1 1abd f8b7 533d 042a 763d 322c 52bd
000002a0: 0dab 533d ad25 b5bd 680d 16bd 62ec 223d
000002b0: 89c1 33bb 3919 8f3d 2092 e63b 0467 c5bd
000002c0: 450a 853d 52ac c03c da83 94bd 4f1d d83c
000002d0: 8fd8 a8bd d2bc ce3d 215e 19bd dbb9 a43d
000002e0: be32 913d a5de ce3c 7dc7 de3c 0d9a 6bbd
000002f0: 1c77 b33d 4217 bc3c 0372 59bc 570f 083d
00000300: 9265 863c 9b51 76bd b3b1 af3c 6fd3 c2bd
00000310: d90d c53d 3da3 b8bd 69d9 59bc 836b 933d
00000320: b691 57bd efe5 ccbd 3763 b8bd 4bd2 c5bd
00000330: e56d dd39 a149 9ebd e722 00bd 2546 03bd
00000340: 20ab e6bb e6a6 9abd ba44 843d d89f ab3c
00000350: ff42 ad3d e888 59bd f6f8 64bd 9b60 213b
00000360: 1c22 90bd aa61 b5bd 04bc 2ebd 62da debc
00000370: 91b8 c1bc ae51 a0ba e5de edbb 029e 20bd
00000380: 79dd a2bd a09f 783d bc2d 8e3d 729c 4fbd
00000390: 4f24 a5bd 77b2 ce3d 4e8f 7f3d f056 dfbc
000003a0: 51af b5bd 36ee 393a 6995 16bc e105 f3bc
000003b0: 5a7b 80bd 8601 6e3d 1bcc 23bb 52e6 443d
000003c0: 400e cf3d a577 30bc d027 c1bd 68da 9ebd
000003d0: 0a8e 41bd 2996 773b 48b9 acbd 2b53 943c
000003e0: 81ae 853d b8eb bf3d 2358 95bd 3456 b1bd
000003f0: de85 81bd 4a09 27bd 8e06 89b8 18a8 263d

feature_extractor.fc1.bias f4 [32]
0.05914533 -0.03230421 -0.055312846 0.0062695644 0.04889118 -0.02725596 0.04695652 0.07446335
0.10152739 0.0896832 -0.026585957 -0.08925982 -0.00554348 -0.00029321626 0.06983698 0.07611005
-0.0140397 0.049490675 -0.0150007475 0.014462331 -0.023154406 0.06968289 0.049795836 -0.012293529
-0.07871777 -0.08125662 0.07951596 0.033881932 0.048741113 -0.042118784 -0.05564854 -0.036781345
00000000: 6042 723d 6b51 04bd b98f 62bd eb70 cd3b
00000010: 1e42 483d e447 dfbc 7b55 403d 3e80 983d
00000020: 98ed cf3d d3ab b73d cbca d9bc dacd b6bd
00000030: 15a6 b5bb d2ba 99b9 b106 8f3d 96df 9b3d
00000040: c506 66bc bcb6 4a3d b2c5 75bc 6af3 6c3c
00000050: 4fae bdbc e7b5 8e3d b8f6 4b3d cc6a 49bc
00000060: c836 a1bd df69 a6bd 43d9 a23d c8c7 0a3d
00000070: c3a4 473d bf84 2cbd b9ef 63bd 09a8 16bd
