examples/extended/model.pt (torch, 148598 bytes, 45 tensors)

weight f4 [32, 24]
0	0x3b2dd3a6	0.0026523857
1	0x3e186314	0.14881545
2	0xbe1f72ec	-0.15571183
3	0x3d14bfdb	0.03631578
4	0xbdf0a93c	-0.11751029
5	0xbe0549eb	-0.13016479
6	0x3e2833ca	0.16426006
7	0x3e1ca605	0.15297706
8	0x3d85f8d4	0.06541601
9	0xbc2a0f65	-0.010379647
10	0xbd36bb01	-0.044611935
11	0x3de0dadb	0.10979243
12	0xbe4b8568	-0.19875109
13	0xbda0de99	-0.07854957
14	0x3d92b6eb	0.07163795
15	0x3d6e8897	0.05823573
16	0x3e13c57a	0.144308
17	0x3d3ccdbb	0.046094637
18	0xbd0f638b	-0.03500704
19	0x3cc3e975	0.023915032
20	0x3df2b295	0.11850468
21	0x3d232e45	0.039839048
22	0xbd29177d	-0.041282166
23	0x3e424595	0.18971856
24	0xbd73f509	-0.059559856
25	0xbd4a0fbd	-0.049331415
26	0x3e4959db	0.19663183
27	0x3cb7ad6d	0.022421563
28	0x3c84d3e5	0.01621432
29	0xbe467869	-0.1938187
30	0x3c4d6767	0.01253686
31	0xbb1341ef	-0.002246972
32	0xbd56db0a	-0.052454986
33	0xbd3cbf46	-0.04608085
34	0x3e40f4b9	0.18843354
35	0x3d99a372	0.07501878
36	0xbdf04a27	-0.117328934
37	0xbdf2cb1a	-0.11855145
38	0xbd6a0f44	-0.057143465
39	0xbd48bfa0	-0.049010873
40	0xbcfefb96	-0.031125825
41	0x3e4b6651	0.1986325
42	0x3e4d6888	0.20059407
43	0x3e2b402e	0.16723701
44	0x3e017767	0.12643205
45	0x3e05e31b	0.13074915
46	0x3d22e772	0.039771505
47	0x3e0dab8d	0.13834973
48	0x3e1acc28	0.15116942
49	0x3d4876ad	0.048941303
50	0xbcf1b125	-0.029503414
51	0x3db289ed	0.087177135
52	0xbe4df15c	-0.20111603
53	0x3e45710b	0.19281404
54	0xbe326fec	-0.17425507
55	0x3c567cf1	0.013091312
56	0xbd4aa507	-0.04947379
57	0xbd3197d0	-0.04335767
58	0xbe1dea91	-0.15421511
59	0xbdedfbe6	-0.116203114
60	0x3d45765f	0.04820859
61	0x3d819da6	0.06328897
62	0xbcf26491	-0.02958897
63	0x3d9c4316	0.07629983
64	0xbde45ad0	-0.111501336
65	0x3d6bec11	0.057598177
66	0xbcdc2280	-0.02687192
67	0x3e037dcc	0.12840956
68	0xbd29bc66	-0.041439436
69	0x3c364ef4	0.011127222
70	0xbe155463	-0.14582972
71	0x3e35cea8	0.17754614
72	0xbdb18e79	-0.08669753
73	0xbde91cec	-0.113824695
74	0xbd5e75cd	-0.054311562
75	0xbd55fd75	-0.05224367
76	0xbe12f105	-0.14349754
77	0xbd684e35	-0.05671521
78	0x3e292945	0.1651965
79	0xbd77c3cb	-0.060489457
80	0xbd07ba10	-0.033136427
81	0x3e03eaeb	0.12882583
82	0xbc31ee46	-0.0108600315
83	0xbd46c66e	-0.04852908
84	0xbd28f0aa	-0.04124514
85	0x3d8ff871	0.07029808
86	0x3e2d289f	0.16910027
87	0x3d801d0f	0.062555425
88	0x3d53b68f	0.051687773
89	0xbe3d7197	-0.18500362
90	0x3d4323d5	0.047641594
91	0x3d87b701	0.06626702
92	0x3d4f6b91	0.050639693
93	0xbe3228c9	-0.17398371
94	0xbe291b08	-0.16514218
95	0x3dc207b3	0.09474125
96	0xbdccc3aa	-0.099982575
97	0xbd8ec00a	-0.06970222
98	0x3e1610fc	0.14654917
99	0x3cdd4c3f	0.027013896
100	0x3e1ceab6	0.1532391
101	0x3d2e59db	0.04256616
102	0xbd814896	-0.06312673
103	0x3e44d426	0.19221553
104	0x3e1a92ae	0.15095016
105	0x3df57af2	0.119863406
106	0x3e37ce1f	0.17949723
107	0x3e44412c	0.19165486
108	0xbd99e8b5	-0.075150885
109	0xbde0ca5e	-0.109760985
110	0x3dd0d78d	0.10197363
111	0x3e00eec3	0.1259108
112	0xbe28ef82	-0.16497615
113	0x3d48c732	0.049018092
114	0xbe063f76	-0.13110146
115	0xbda5e0ae	-0.08099495
116	0x3d176298	0.03695926
117	0x3ba5e139	0.005062249
118	0xbe08538a	-0.13313118
119	0xbe0efb6b	-0.13963096
120	0x3d9d35c3	0.0767627
121	0x3d227180	0.039659023
122	0x3d374572	0.044743963
123	0xbe2e5ef0	-0.17028403
124	0xbd432551	-0.04764301
125	0xbe1161e4	-0.14197499
126	0xbcfaae5d	-0.030600721
127	0x3c8ace11	0.016943963
128	0x3d6cef24	0.05784525
129	0xbe3c20a7	-0.18371831
130	0xbe22dd0c	-0.15904635
131	0x3c4972fe	0.012295483
132	0x3dc68930	0.09694135
133	0xbd98efd4	-0.074676186
134	0xbc9ac8d6	-0.018894594
135	0x3e117c9c	0.14207691
136	0xbd64cc6e	-0.05585902
137	0xbdf9766c	-0.1218079
138	0x3e0638d0	0.1310761
139	0x3dac21a5	0.08404855
140	0x3e14e22e	0.14539406
141	0xbd3ebc28	-0.04656616
142	0x3d25b0bc	0.04045175
143	0xbe090e7b	-0.1338443
144	0x3c49a09a	0.012306357
145	0xbda251dc	-0.0792577
146	0x3e1a046f	0.15040754
147	0x3e28fce2	0.16502717
148	0xbdf133f7	-0.1177749
149	0xbe40a3b9	-0.18812455
150	0xbda65dd1	-0.08123363
151	0x3e18466e	0.14870617
152	0xbcd97f82	-0.026550058
153	0xbe17c5c9	-0.14821543
154	0x3e4adf12	0.19811657
155	0x3d322e6c	0.043501303
156	0x3d84803c	0.06469771
157	0x3e0179b4	0.12644082
158	0xbddd6060	-0.10809398
159	0x3d628629	0.055303726
160	0xbcc18566	-0.02362318
161	0xbe1173bc	-0.14204305
162	0xbcf0769c	-0.029353432
163	0xbe097696	-0.13424143
164	0x3e42d24a	0.19025531
165	0x3db590e4	0.08865526
166	0x3e388249	0.1801845
167	0x3d3cb680	0.046072483
168	0x3e4250ff	0.1897621
169	0x3e06dec1	0.13170911
170	0xbdfb7b23	-0.12279346
171	0xbd1fa1db	-0.038972717
172	0xbd9b114b	-0.07571658
173	0x3e281f82	0.1641827
174	0xbe1e8eab	-0.15484111
175	0xbe0d2b33	-0.1378601
176	0xbe06e0f4	-0.1317175
177	0x3e012347	0.12611113
178	0x3dea92b6	0.11453764
179	0x3ce80ac6	0.02832545
180	0x3c046b96	0.008082291
181	0xbddd5113	-0.10806479
182	0xbd9fbe4f	-0.0779997
183	0xbda3aad5	-0.07991568
184	0xbdcd23d6	-0.10016601
185	0x3e3a43bf	0.18189906
186	0xbc57e3bc	-0.013176855
187	0x3d239936	0.039941035
188	0x3dec04e3	0.115243696
189	0xbc381bb3	-0.011237073
190	0xbdb70927	-0.089372925
191	0xbdde51eb	-0.10855468
192	0x3e11fa1e	0.14255568
193	0xbd9a118f	-0.0752288
194	0xbe076a9e	-0.13224265
195	0x3e193f22	0.1496549
196	0xbe3b3caa	-0.1828486
197	0x3d2ee38a	0.042697467
198	0xbcbe79ac	-0.023251377
199	0xbd9e88e7	-0.07740956
200	0xbd9f69a9	-0.07783825
201	0xbe2f48bb	-0.17117588
202	0x3e284dd7	0.16435944
203	0x3db6db8e	0.089285955
204	0x3e08aa3b	0.13346188
205	0xbe046715	-0.12929948
206	0xbe3544aa	-0.17701975
207	0x3e2be1b6	0.1678532
208	0x3e352364	0.17689282
209	0x3a71c4b7	0.0009222733
210	0x3dcb2b5c	0.099203795
211	0x3e3e7a5d	0.18601365
212	0x3e478956	0.19485983
213	0xbe3a9bfd	-0.18223567
214	0xbe33f8c7	-0.1757537
215	0x3d8a219f	0.06744694
216	0xbd69ed00	-0.057110786
217	0x3ca8843b	0.020570865
218	0xbe18230b	-0.14857118
219	0x3da9630b	0.08270844
220	0x3e06ab6a	0.13151327
221	0xbda17b8b	-0.07884892
222	0xbe493f1e	-0.19652984
223	0xbd39791d	-0.04528152
224	0x3de3dc2d	0.111259796
225	0x3d3aff33	0.045653533
226	0xbcdc82e4	-0.026917882
227	0x3e155f49	0.1458713
228	0x3d473de8	0.048643023
229	0x3e41f60c	0.18941516
230	0xbda99c2b	-0.0828174
231	0xbe23cc2f	-0.15995859
232	0xbde817cf	-0.11332666
233	0x3d346572	0.04404206
234	0xbe358c1f	-0.17729233
235	0x3d7536b3	0.05986662
236	0xbdc45087	-0.09585672
237	0xbe1d2649	-0.15346636
238	0xbe00cc7e	-0.12578008
239	0x3db4ecfd	0.088342644
240	0xbe2f5ab6	-0.17124447
241	0xbe4c4c1b	-0.19950907
242	0x3e38179b	0.17977755
243	0x3e4dc097	0.20092998
244	0xbbeb569a	-0.0071819546
245	0xbcdf5176	-0.027260523
246	0x3d64e422	0.055881627
247	0xbe28a2c2	-0.16468337
248	0x3e052a7c	0.13004488
249	0x3e0e3a18	0.13889349
250	0x3d368007	0.04455569
251	0xbce1a0f4	-0.027542569
252	0x3d999929	0.07499916
253	0x3e4db848	0.20089829
254	0x3d5d517a	0.05403278
255	0x3e48d3a1	0.1961198

bias f4 [32]
0	0xbe4ce76f	-0.2001016
1	0xbe4a6adb	-0.19767325
2	0xbdd83c28	-0.10558349
3	0x3da1d024	0.07901028
4	0x3d813f52	0.063109055
5	0xbd0fea74	-0.0351357
6	0xbc9406d6	-0.018069666
7	0x3e476aa1	0.1947427
8	0x3d292eb1	0.041304294
9	0xbe418cf1	-0.18901421
10	0xbdefbd01	-0.117059715
11	0xbe022709	-0.12710203
12	0x3d81fedd	0.063474394
13	0xbe16f438	-0.147416
14	0xbd5e1501	-0.05421925
15	0x3e0aaefd	0.13543315
16	0x3df4ec84	0.11959174
17	0xbe243005	-0.16033943
18	0x3c5c5410	0.013447776
19	0xbd9eeaaa	-0.07759602
20	0xbc553fed	-0.013015729
21	0xbd030208	-0.03198436
22	0xbc302f72	-0.010753499
23	0xbe36e169	-0.17859425
24	0x3ddbe703	0.10737421
25	0x3e4dc1f2	0.20093516
26	0xbe2fc3ce	-0.17164537
27	0xbd87fe8e	-0.06640349
28	0x3dd62cda	0.104577735
29	0xbdd5e8b5	-0.10444776
30	0x3db6db52	0.08928551
31	0xbc0f9c72	-0.008765327

weight f4 [32, 32]
0	0x3dd0f88a	0.10203655
1	0xbe1981ca	-0.14990917
2	0xbd238875	-0.039925057
3	0x3e1b8fd1	0.1519158
4	0xbd96855a	-0.073496535
5	0xbe28d6b8	-0.16488159
6	0xbde663bb	-0.11249491
7	0xbdca2169	-0.09869654
8	0xbe1564cb	-0.1458923
9	0x3d17d3ea	0.03706733
10	0xbe1bcf32	-0.15215757
11	0x3d010659	0.031500194
12	0xbc9cf90e	-0.019161727
13	0x3dafdb28	0.085867226
14	0x3ba5d109	0.0050603193
15	0xbe1ea501	-0.15492631
16	0x3d08098a	0.033212222
17	0x3df2cff5	0.11856071
18	0x3e11f2e0	0.14252806
19	0xbdff8f13	-0.12478461
20	0x3c861d21	0.016371312
21	0x3e09b906	0.13449487
22	0xbd9a897c	-0.07545754
23	0x3e109f58	0.14123285
24	0xbcc88cb9	-0.024481164
25	0xbe2781b2	-0.16358069
26	0x3cb7c5cd	0.022433186
27	0xbd89470a	-0.06703003
28	0x3d76064f	0.06006461
29	0x3e1ca766	0.15298232
30	0x3c6e24cd	0.014535141
31	0x3e18e1d9	0.14929904
32	0x3dc9a71e	0.09846328
33	0xbdb232ab	-0.087010704
34	0xbdb26a56	-0.08711688
35	0xbde157e8	-0.11003095
36	0x3d76071b	0.06006537
37	0xbe219c99	-0.15782394
38	0x3d396999	0.04526672
39	0x3dddb750	0.1082598
40	0x3d53aaa9	0.051676426
41	0x3dd07377	0.10178273
42	0xbdf7743e	-0.12082718
43	0xbd11c27d	-0.03558587
44	0x3e0d0e95	0.13775094
45	0xbc955b25	-0.018231938
46	0xbda777af	-0.08177125
47	0xbc5e05c3	-0.013551178
48	0x3e1eaa20	0.15494585
49	0x3e351ad9	0.17686023
50	0x3e09eaff	0.1346855
51	0xbc871cf2	-0.016493294
52	0x3dc9d318	0.09854716
53	0xbc0f9c13	-0.008765238
54	0x3e2242fe	0.15845868
55	0x3ca6a384	0.020341642
56	0xbe01e507	-0.12685023
57	0xbe260643	-0.16213326
58	0xbdd4953c	-0.10380027
59	0x3d235745	0.03987815
60	0xbe1025ab	-0.14076869
61	0x3d8f0d5b	0.06984969
62	0x3e2f9eff	0.17150496
63	0xbe2ecc2b	-0.17070071
64	0x3dc6b530	0.097025275
65	0x3e2d3393	0.16914205
66	0x3de59b76	0.112112924
67	0x3dcf0457	0.1010825
68	0xbe127686	-0.14303026
69	0xbdef64d6	-0.11689155
70	0x3e179f0a	0.14806762
71	0x3db112ea	0.08646186
72	0xbe000a00	-0.12503815
73	0xbce630dd	-0.028099472
74	0x3d990f52	0.07473625
75	0xbcaa022c	-0.020752989
76	0xbddfbf56	-0.10925166
77	0x3c516ca1	0.012782247
78	0xbdfdac10	-0.12386334
79	0x3d8d8ce3	0.06911638
80	0x3b8887a0	0.0041665584
81	0x3d7a414d	0.061097432
82	0xbd0d8bbb	-0.034557085
83	0xbd9474a7	-0.07248812
84	0xbd0c98d7	-0.034325447
85	0xbca4681c	-0.020069174
86	0x3df188a4	0.1179364
87	0xbddbc6d3	-0.10731282
88	0x3dd5f622	0.10447337
89	0x3d853767	0.06504708
90	0x3c156809	0.009119042
91	0x3ca55ad7	0.020184917
92	0x3e174eab	0.14776103
93	0x3e0bbc57	0.13646065
94	0xbdec75b1	-0.11545885
95	0xbc450f90	-0.012027636
96	0xbe28ea1d	-0.16495557
97	0x3e2f837e	0.17140004
98	0x3d3218e1	0.043480758
99	0xbcfbf6d2	-0.030757342
100	0xbdf480ee	-0.11938654
101	0xbe296fbc	-0.1654653
102	0xbda23cbe	-0.07921742
103	0x3e1bffd2	0.15234306
104	0x3e300a85	0.17191513
105	0x3e16ae18	0.14714849
106	0xbd815107	-0.06314283
107	0x3cc874fc	0.024469845
108	0x3c517bcd	0.012785864
109	0xbd78c88c	-0.06073813
110	0x3e28c7bf	0.16482447
111	0xbdaf45c7	-0.08558231
112	0xbbf4b5b6	-0.0074679507
113	0xbde34346	-0.11096816
114	0xbcceabc0	-0.025228381
115	0xbdc27b3a	-0.0949616
116	0xbd1b2ad3	-0.037882637
117	0x3d1c06d3	0.038092446
118	0x3e0921fd	0.13391872
119	0xbc460bbb	-0.012087758
120	0xba8a2345	-0.0010539076
121	0xbd63b90b	-0.055596393
122	0xbd7e4004	-0.06207277
123	0x3e21dc19	0.15806617
124	0x3e2a7832	0.16647413
125	0x3d4460df	0.047943946
126	0x3e1e1a54	0.15439731
127	0x3d8ae93f	0.067827694
128	0xbd090b2b	-0.033457916
129	0x3e1ff3a1	0.15620281
130	0xbe0b88ea	-0.13626447
131	0xbd5d6cd1	-0.054058854
132	0xbda93ee0	-0.082639456
133	0xbd9df285	-0.077122726
134	0x3de264f8	0.110544145
135	0xbdb502ce	-0.088384256
136	0x3d0f9467	0.035053637
137	0x39c66e8d	0.0003784787
138	0xbe1a5b96	-0.15074
139	0xbdc8970b	-0.09794434
140	0xbd9ef45c	-0.077614516
141	0xbe18beba	-0.14916506
142	0xbde2c62c	-0.110729545
143	0xbdb6be6d	-0.089230396
144	0xbe253e37	-0.16137014
145	0xbd1bb035	-0.03800984
146	0x3d9da1f4	0.07696906
147	0xbd61c8f1	-0.055123273
148	0x3d9b1932	0.07573165
149	0x3e0d9a33	0.13828354
150	0x3e1e9ea9	0.15490212
151	0xbd39036d	-0.045169283
152	0xbdf9d2d3	-0.12198415
153	0x3e145fa8	0.14489615
154	0x3dbf0eb0	0.09328973
155	0x3dc56cab	0.096398674
156	0x3e1f18f7	0.15536867
157	0x3dda1d5f	0.10650133
158	0xbdfc0926	-0.123064324
159	0x3e020716	0.12698016
160	0x3e0bf37a	0.13667098
161	0x3ddeef29	0.1088546
162	0xbe3455d6	-0.17610869
163	0x3e3285d0	0.17433858
164	0x3e2507c9	0.16116251
165	0xbdf64ad5	-0.12025992
166	0xbe2744dc	-0.16334862
167	0xbe091a7e	-0.13389012
168	0xbe040e43	-0.12896065
169	0x3dae658d	0.08515463
170	0x3e080f23	0.13287024
171	0xbe2f4b4a	-0.17118564
172	0xbda6a82f	-0.08137547
173	0xbe136980	-0.14395714
174	0x3e035763	0.12826304
175	0xbe22398d	-0.15842266
176	0xbdacb9c3	-0.08433869
177	0xbde9a169	-0.1140774
178	0x3df8a9e2	0.121417776
179	0xbda857a6	-0.082198426
180	0xbd271aa2	-0.040796883
181	0xbe078b9d	-0.13236852
182	0x3dc0f629	0.09421951
183	0xbd6852fe	-0.056719773
184	0xbd96b427	-0.0735858
185	0x3b8148d7	0.0039454508
186	0xbda6496b	-0.08119472
187	0x3dcdd878	0.10051054
188	0xbe017f56	-0.12646231
189	0x3daef186	0.08542161
190	0xbe27c119	-0.16382255
191	0x3dfabf0e	0.12243472
192	0x3b182647	0.0023216174
193	0xbd73faa0	-0.059565187
194	0xbd885fa8	-0.0665887
195	0xbdf72cf9	-0.12069125
196	0x3d3bcb76	0.045848332
197	0x3cbf1856	0.023327034
198	0x3e2eceb2	0.17071036
199	0x3d60b562	0.05486048
200	0xbe0b59b4	-0.13608438
201	0x3e0f3c9e	0.13987967
202	0xbd8f1c11	-0.06987775
203	0xbd2c255e	-0.042027824
204	0x3dbebdb3	0.09313526
205	0xbd7e9099	-0.062149618
206	0xbdba0fe3	-0.090850614
207	0x3d666e93	0.056257796
208	0xbd48e73e	-0.049048655
209	0xbe1f080c	-0.15530413
210	0x3dfd3227	0.123630814
211	0xbc09197f	-0.008367895
212	0x3d80d660	0.06290889
213	0x3d69889d	0.05701505
214	0xbe13c2c0	-0.1442976
215	0x3d687252	0.05674965
216	0x3e18241a	0.14857522
217	0xbde9e5af	-0.11420762
218	0x3d4d129c	0.050066575
219	0x3e238201	0.15967561
220	0x3d0746d1	0.03302652
221	0xbd8cb07e	-0.06869601
222	0x3d932a93	0.07185855
223	0xbd6768b1	-0.056496326
224	0xbe1d5d6a	-0.15367666
225	0xbcd09183	-0.02546001
226	0xbe2c78ac	-0.16842908
227	0x3cfe3c87	0.031034721
228	0x3e24863b	0.1606683
229	0xbd182c23	-0.037151467
230	0x3e0c8d8c	0.13725871
231	0x3e19a931	0.15005948
232	0x3e015f06	0.12633905
233	0x3e29d08a	0.16583458
234	0x3d8a2193	0.06744685
235	0xbda4d9d4	-0.0804936
236	0x3dc5b05f	0.09652781
237	0x3e237e5e	0.15966174
238	0x3d8cf398	0.06882399
239	0x3e2ea529	0.17055191
240	0x3e0291b7	0.12750898
241	0xbda6a41b	-0.081367694
242	0x3ddf3e47	0.1090055
243	0xbd48ac26	-0.0489923
244	0x3e23e0a9	0.1600367
245	0xbc2637ec	-0.010145169
246	0xbc460c61	-0.012087912
247	0xbdcbcee1	-0.099515684
248	0x3d3b02ea	0.045657076
249	0x3e02ef40	0.12786579
250	0xbd4e7b4e	-0.05041056
251	0x3e294c8f	0.16533111
252	0x3db8a648	0.09016091
253	0xbd3ad768	-0.045615584
254	0xbe24a63b	-0.16079037
255	0x3dc8ee97	0.098111324

bias f4 [32]
0	0xbdd2f591	-0.10300744
1	0x3d9dcc64	0.07705
2	0x3c849fe7	0.016189529
3	0xbe015887	-0.12631427
4	0xbe13efd9	-0.14446963
5	0xbe1258b3	-0.14291649
6	0x3c91b15a	0.017784763
7	0xbe15ca1e	-0.14627883
8	0xbc577a74	-0.013151754
9	0x3c54cf4f	0.012988879
10	0xbbeaeef5	-0.007169599
11	0x3de8a33f	0.11359262
12	0x3d49fdcc	0.049314305
13	0xbd59047e	-0.0529828
14	0xbdceffb8	-0.10107368
15	0x3e02b18f	0.12763046
16	0xbcdd2e86	-0.026999723
17	0xbda81e04	-0.0820885
18	0x3e3700d9	0.17871417
19	0x3d8cc455	0.06873385
20	0x3c3e839d	0.011628059
21	0xbc2ecdf9	-0.010669225
22	0xbd0eae33	-0.034834098
23	0x3d34f742	0.044181116
24	0x3d2ab47c	0.04167603
25	0xbcf4ec33	-0.029897785
26	0x3e2c5190	0.16827989
27	0x3d8f8691	0.070080884
28	0xbd8b331a	-0.06796856
29	0xbdf00c2b	-0.11721071
30	0xbc0374d8	-0.008023463
31	0x3df892d6	0.12137382

weight f4 [32, 32]
0	0x3a311333	0.0006754875
1	0xbe2c1121	-0.16803409
2	0x3ced9ef2	0.029006455
3	0x3d2d1e67	0.042265322
4	0xbe16308e	-0.1466696
5	0xbd2870be	-0.041123144
6	0x3e11a187	0.14221774
7	0xbdeacd5d	-0.11464951
8	0xbe1fe82f	-0.15615915
9	0xbdfae05a	-0.12249823
10	0x3d232eaa	0.039839424
11	0xbdc91fa7	-0.0982049
12	0xbdaf9796	-0.085738346
13	0xbdd4b693	-0.10386386
14	0x381e2ff9	3.7714814e-05
15	0x3d67e216	0.056612097
16	0x3c3286ad	0.010896367
17	0x3d73dea6	0.059538506
18	0xbd129e35	-0.03579541
19	0x3b9e5dfe	0.004832982
20	0xbe18285b	-0.14859144
21	0x3d5bd905	0.053673763
22	0xbdc9e3c6	-0.098578975
23	0xbe3203c8	-0.17384255
24	0x3e1e500f	0.15460227
25	0xbdfa289a	-0.122147754
26	0xbd3f368c	-0.04668288
27	0xbd598f13	-0.05311496
28	0xbd9ced02	-0.07662393
29	0xbda4dd38	-0.08050007
30	0xbcd6b66d	-0.026210034
31	0xbdf1527f	-0.11783313
32	0xbe19ddcc	-0.15026015
33	0xbddbe300	-0.10736656
34	0x3d8fc8f1	0.070207484
35	0xbd94798f	-0.07249748
36	0xbe241f1d	-0.16027494
37	0xbdb15aac	-0.086598724
38	0x3d955c39	0.07292981
39	0xbe18b891	-0.14914156
40	0x3e27feb7	0.1640576
41	0xbe01b2bf	-0.12665842
42	0xbd0fba4b	-0.035089772
43	0xbd80c8bf	-0.06288289
44	0xbe3495f3	-0.17635326
45	0x3dc0c2c5	0.09412149
46	0xbe25653c	-0.16151899
47	0xbdaf8921	-0.08571077
48	0xbde6cd36	-0.1126961
49	0xbd99bfe8	-0.07507306
50	0x3d5c794f	0.053826626
51	0x3db8a2e4	0.09015444
52	0xbd9fdc58	-0.07805699
53	0x3b88de5a	0.004176897
54	0x3dc1f5b6	0.09470694
55	0x3e0bee54	0.13665134
56	0x3dfa1a58	0.12212056
57	0x3c8d518d	0.0172508
58	0x3d9dfd57	0.07714336
59	0xbe347e68	-0.17626345
60	0xbdc30dc0	-0.09524107
61	0x3cc97fc3	0.024597054
62	0xbd215439	-0.03938696
63	0xbe033f6c	-0.12817162
64	0xbcaa7828	-0.020809248
65	0xbe0cdeb3	-0.13756828
66	0x3be265f2	0.0069091255
67	0x3d5ab2d7	0.05339321
68	0xbda561c6	-0.080752894
69	0xbdfd474e	-0.12367116
70	0xbdbd76f8	-0.09251207
71	0xbd25cadb	-0.04047666
72	0x3d9c2328	0.07623893
73	0xbdefbdce	-0.11706124
74	0xbd645217	-0.05574235
75	0xbd5f2e1a	-0.054487325
76	0xbceeba86	-0.029141676
77	0x3dddba3d	0.10826538
78	0x3deccff5	0.11563102
79	0x3d8a638e	0.0675727
80	0xbdd9f57f	-0.10642528
81	0x3e1c5b40	0.15269184
82	0xbd2f68d4	-0.04282458
83	0xbe195cca	-0.14976802
84	0x3df6ffc6	0.12060504
85	0x3d6109d3	0.05494101
86	0x3e28ee67	0.16497193
87	0x3d3c2dca	0.045942105
88	0x3d50db6b	0.050990503
89	0xbe0b5b3f	-0.13609026
90	0xbe1b5bb7	-0.15171705
91	0xbdcbcdba	-0.099513486
92	0x3ab82236	0.0014048282
93	0xbdc2eb26	-0.09517507
94	0x3dc208f1	0.09474362
95	0xbe18f7df	-0.14938305
96	0xbe21e731	-0.15810849
97	0x3e27d7a1	0.1639085
98	0xbe1ba21a	-0.15198556
99	0x3da9b9fc	0.08287427
100	0xbd50dd94	-0.050992563
101	0xbe23818d	-0.15967388
102	0xbdf2c859	-0.118546195
103	0xbd0fa226	-0.035066746
104	0x3e0d28ca	0.13785091
105	0xbd6a5180	-0.05720663
106	0xbd3f9806	-0.04677584
107	0xbe09922b	-0.13434665
108	0x3d918796	0.07105939
109	0xbdd6367e	-0.10459612
110	0xbcaeb2c5	-0.021325478
111	0xbcf6584c	-0.0300714
112	0x3bf5215a	0.0074807825
113	0x3d42acd2	0.047528096
114	0xbe30d0ad	-0.17267103
115	0x3dd788d3	0.10524144
116	0xbd8fcb98	-0.07021254
117	0x3d55d0d4	0.052201107
118	0x3e2f1d16	0.17100939
119	0xbdd154ab	-0.10221227
120	0xbd7c4781	-0.06159163
121	0xbd906ac5	-0.07051615
122	0x3dcd7bfa	0.10033412
123	0xb8661c69	-5.4862732e-05
124	0xbde72c2d	-0.11287723
125	0x3dc6dbcb	0.09709891
126	0x3e14bbad	0.14524718
127	0xbde25da6	-0.11053018
128	0xbd013cbb	-0.031552058
129	0x3de77588	0.11301714
130	0xbddf2763	-0.10896184
131	0xbdf5ba86	-0.11998467
132	0xbc7c851d	-0.015412596
133	0xbe2c36cf	-0.16817783
134	0x3e07c67d	0.13259311
135	0x397f3231	0.00024337393
136	0xbd2c32ce	-0.04204064
137	0x3e09301f	0.13397263
138	0xbdba36c2	-0.090924755
139	0xbdf9043e	-0.12159012
140	0x3c847f68	0.016174033
141	0xbe2ff04b	-0.17181508
142	0xbe0af98b	-0.13571756
143	0xbdb73894	-0.08946338
144	0x3e11c4d4	0.1423524
145	0xbd82c00b	-0.063842855
146	0x3d4a6eec	0.04942219
147	0xbe2ab513	-0.16670637
148	0x3e313da2	0.17308667
149	0xbe2631dd	-0.16229959
150	0x3d02bdd1	0.031919304
151	0xbdf2d7ec	-0.1185759
152	0x3dab6794	0.08369365
153	0xbd8197f6	-0.063278124
154	0x3e0f1832	0.13974074
155	0xbe36771d	-0.17818876
156	0x3e2f0275	0.17090781
157	0xbdce489f	-0.10072445
158	0xbc055934	-0.008138943
159	0xbe33d0bb	-0.17560093
160	0xbe18b4d4	-0.1491273
161	0xbe01994c	-0.12656134
162	0xbe2feffb	-0.17181389
163	0x3de7d9a4	0.113208085
164	0xbe2545f7	-0.1613997
165	0x3d43465f	0.047674533
166	0xbdd14728	-0.1021865
167	0xbd4cc4f7	-0.049992528
168	0xbdf86f35	-0.12130586
169	0x3e1e6ad0	0.15470433
170	0x3e0a27a1	0.1349168
171	0xbc29943e	-0.010350285
172	0xbdd7af13	-0.1053144
173	0xbde055e4	-0.10953882
174	0x3e0e8ac6	0.13920125
175	0xbdce933f	-0.10086679
176	0x3d8302ab	0.06396993
177	0x3d8723cd	0.06598625
178	0xbd7dd072	-0.061966367
179	0x3dd74734	0.10511628
180	0x3d949a1e	0.07255958
181	0xbdc113f1	-0.09427632
182	0xbdb8c64b	-0.090221964
183	0x3cdb83d3	0.026796257
184	0xbd7eb698	-0.062185854
185	0x3e0b1107	0.13580714
186	0x3cddfd05	0.027098188
187	0x3e13e7b7	0.14443861
188	0xbd4f18a7	-0.05056062
189	0x3dcd2467	0.10016709
190	0xbdefbac6	-0.11705546
191	0xbda2ddf5	-0.07952491
192	0x3dfd406f	0.12365805
193	0x3d236430	0.039890468
194	0x3e1d5963	0.1536613
195	0x3e2b70b8	0.16742218
196	0x3e0f500c	0.13995379
197	0x3e107c4c	0.14109915
198	0x3dcf3a56	0.101185486
199	0x3d0029eb	0.031289976
200	0xbd127bb1	-0.035762493
201	0x3cdfcd2b	0.027319511
202	0xbe137984	-0.14401823
203	0xbd0414c1	-0.032246355
204	0xbdb85cc3	-0.09002068
205	0x3d984543	0.074350856
206	0x3d85fe09	0.06542594
207	0x3e14d108	0.14532864
208	0x3ccefae8	0.025266126
209	0xbdd52f70	-0.104094386
210	0x3d32f11e	0.04368698
211	0x3e257070	0.16156173
212	0x3e01e396	0.12684473
213	0xbdca2c72	-0.098717585
214	0x3e15385e	0.14572284
215	0x3e0db001	0.13836671
216	0x3d2fecb6	0.042950355
217	0xbb1e64b4	-0.002416891
218	0xbe02dc20	-0.12779284
219	0x3d934d76	0.07192509
220	0xbdbe0a1c	-0.09279272
221	0xbdb48d35	-0.088159956
222	0xbe0d0f9b	-0.13775484
223	0x3cdc073f	0.026858924
224	0x3e1624de	0.14662501
225	0x3d04f0f4	0.032456353
226	0x3d3816a8	0.04494348
227	0x3d3ea0df	0.046540137
228	0x3db1e9ff	0.08687209
229	0xbbab7a12	-0.005233058
230	0x3d60f7f1	0.054923955
231	0xbdcc5aab	-0.09978231
232	0x3d1f7c19	0.038936708
233	0x3e2ce47d	0.16884036
234	0xbe250020	-0.16113329
235	0xbd0c6c1f	-0.0342828
236	0xbde01ef0	-0.10943401
237	0xbd9f16d5	-0.07768027
238	0xbc724c19	-0.014788651
239	0xbd21653e	-0.039403193
240	0xbd3e8af3	-0.04651923
241	0xbe12408c	-0.14282435
242	0x3d91ed7d	0.071253754
243	0x3d35a569	0.0443472
244	0xbbfaedd2	-0.007657745
245	0x3e09a7f8	0.13442981
246	0x3b9c430e	0.0047687357
247	0xbddb372b	-0.10703882
248	0x3caf9173	0.02143166
249	0xbd6871ee	-0.056749277
250	0xbdf35e0a	-0.11883171
251	0xbe2144b8	-0.1574887
252	0x3db8d2b2	0.09024562
253	0xbe2efd9b	-0.1708893
254	0xbd80be3a	-0.06286283
255	0x3e0cd066	0.13751373

bias f4 [32]
0	0xbb35e613	-0.0027755543
1	0xbe28ae98	-0.16472852
2	0x3da6257a	0.08112617
3	0x3e1e0f72	0.1543558
4	0xbe066f88	-0.13128483
5	0xbdc73754	-0.0972735
6	0x3e237144	0.15961176
7	0xbd87aa4a	-0.06624277
8	0xbdc83004	-0.09774783
9	0xbe318b8e	-0.17338392
10	0x3c804d83	0.01566196
11	0xbd301863	-0.042992007
12	0xbdef4fd5	-0.116851486
13	0xbcf0b9ad	-0.029385412
14	0xbd6b067b	-0.057379227
15	0x3d636517	0.05551633
16	0x3d9f0846	0.0776525
17	0xbc3625b0	-0.011117384
18	0xbdb17935	-0.086656965
19	0xbd8a6103	-0.06756785
20	0x3e01ff07	0.12694941
21	0xbd9e77a6	-0.07737665
22	0xbe24a486	-0.16078386
23	0xbde8deb2	-0.11370601
24	0xbd8aeb3f	-0.06783151
25	0xbe332b08	-0.17496884
26	0xbe176924	-0.14786202
27	0x3da8abb0	0.08235872
28	0x3e1c2fc3	0.15252595
29	0xbe0d01ac	-0.13770169
30	0xbdcebb2d	-0.10094295
31	0x3db1cb36	0.086813375

weight f4 [32, 47]
0	0x3d465b5e	0.04842698
1	0x3e0b9978	0.13632762
2	0xbdda1a0c	-0.10649499
3	0xbcbc7f75	-0.023009995
4	0x3e11a4b5	0.14222987
5	0x3db55083	0.08853247
6	0xbd5b637b	-0.05356167
7	0xbd71d8cf	-0.059044655
8	0x3dac43cf	0.08411371
9	0x3dc1a0b0	0.09454477
10	0xbe16bae3	-0.14719729
11	0xbde3b796	-0.111190006
12	0x3d89e365	0.06732825
13	0x3cf4fbb3	0.029905176
14	0xbb0d4b13	-0.002155964
15	0x3da58a16	0.080829784
16	0x3dbb5b20	0.0914824
17	0x3cdff799	0.027339743
18	0xbd90552d	-0.07047496
19	0xbd69e418	-0.057102293
20	0x3d824f4f	0.06362783
21	0x3d1989ea	0.03748504
22	0x3df02fd8	0.117278755
23	0x3dfc924b	0.12332591
24	0x3d953157	0.072848015
25	0x3d3693be	0.04457449
26	0xbd9eb884	-0.07750037
27	0x3d923963	0.07139852
28	0x3cce45f1	0.025179835
29	0x3dd4206e	0.10357748
30	0x3e09eeea	0.13470045
31	0x3df79d20	0.12090516
32	0x3d7deaa3	0.061991345
33	0x3dc08710	0.09400761
34	0x3d5610d2	0.052262135
35	0x3cd647f2	0.026157353
36	0xbdc64038	-0.096802175
37	0x3d814ff9	0.06314082
38	0xbd93d73a	-0.072187856
39	0xbd9d0096	-0.076661274
40	0xbe108ab7	-0.14115416
41	0xbda4fed1	-0.08056415
42	0xbe04616e	-0.12927791
43	0xbda8f803	-0.082504295
44	0x3decdf15	0.11565987
45	0xbdf94841	-0.121719845
46	0x3cb5e3ba	0.022203315
47	0xbc88dd20	-0.016707003
48	0x3d77c32c	0.060488865
49	0x3ddf9f76	0.10919087
50	0x3db9f134	0.09079209
51	0xbdcfeb16	-0.10152261
52	0xbd081536	-0.033223353
53	0xbd5db73b	-0.05412982
54	0xbe0b656b	-0.13612907
55	0xbc0c5321	-0.008564741
56	0xbdb8f1fb	-0.09030529
57	0x3daba879	0.08381743
58	0xbd3c4a35	-0.045969207
59	0xbe008f94	-0.1255477
60	0x3d93c5ae	0.07215439
61	0x3ccb08dc	0.024784498
62	0xbd9c20be	-0.076234326
63	0xbce774be	-0.02825391
64	0x3deb9c66	0.1150444
65	0xbd517e87	-0.051146057
66	0x3cff595d	0.031170541
67	0xbd30a65c	-0.043127403
68	0x3e08e32e	0.13367912
69	0xbde0671c	-0.109571666
70	0xbd13d02b	-0.036087196
71	0x3d19d030	0.03755206
72	0xbde6009a	-0.112305835
73	0xbd11db3a	-0.03560946
74	0x3e07fbe8	0.13279688
75	0x3debdcf3	0.11516752
76	0x3d31412b	0.04327504
77	0xbdd9e835	-0.10639993
78	0x3df61757	0.120161705
79	0x3dbd8a11	0.0925485
80	0x3d8c329f	0.06845593
81	0xbdf38f11	-0.11892522
82	0xbd2f957b	-0.042867165
83	0x3dff2785	0.124587096
84	0x3cc45650	0.023966938
85	0xbdeeae30	-0.116543174
86	0x3dbe5232	0.09293021
87	0x3df68ffb	0.12039181
88	0x3c20457f	0.009782194
89	0x3dd052e7	0.10172062
90	0xbdc9730f	-0.09836399
91	0xbd88ea92	-0.06685366
92	0x3e08a9f5	0.13346083
93	0x3ca6b1fd	0.020348543
94	0x3e0a0784	0.1347943
95	0x3d684a99	0.056711767
96	0x3d2ee6ea	0.042700686
97	0x3df86be0	0.121299505
98	0xbe0d43b1	-0.13795353
99	0x3e034ec9	0.12823023
100	0xbe04811b	-0.12939875
101	0x3d865c0e	0.06560527
102	0xbdf6e179	-0.12054724
103	0xbcea1367	-0.028573705
104	0xbe10aa13	-0.14127378
105	0xbd4cde0e	-0.050016455
106	0x3e13582d	0.14389105
107	0xbbcd2140	-0.006260067
108	0xbe087e6a	-0.13329473
109	0xbdbe4a8c	-0.092915624
110	0xbc45117c	-0.012028094
111	0x3d5434de	0.05180823
112	0xbdca5477	-0.09879392
113	0xbc6c8f4b	-0.014438461
114	0x3c8ebcd7	0.01742403
115	0xbb7f836b	-0.0038988243
116	0x39cd5573	0.00039164312
117	0xbd7c8f12	-0.06165988
118	0x3ddcb57c	0.10776803
119	0x3dad1a5b	0.084522925
120	0xbd911b75	-0.07085315
121	0x3c543d87	0.012954122
122	0x3daae025	0.083435334
123	0x3dbc3223	0.0918925
124	0xbd7bea07	-0.061502483
125	0xbdc1af77	-0.094572954
126	0xbd1e1e1e	-0.03860294
127	0xbc5ae34b	-0.013359855
128	0xbd6b88c2	-0.05750347
129	0x3d75a3b6	0.05997058
130	0x3d2dfc9a	0.042477228
131	0x3d338ad3	0.043833565
132	0x3d31d03b	0.043411475
133	0xbe15824d	-0.14600487
134	0xbd0f2d67	-0.03495541
135	0x3d8ff85f	0.07029795
136	0x3d0a42a9	0.03375498
137	0xbe0ca044	-0.13733011
138	0xbd9f6e79	-0.07784743
139	0xbdc88f0d	-0.0979291
140	0x3d574b84	0.05256225
141	0xbc946bb7	-0.018117769
142	0x3db06d79	0.0861463
143	0x3c4ecaf8	0.012621634
144	0x3e0cb399	0.13740386
145	0x3da6b4ec	0.08139977
146	0x3d21b7fe	0.03948211
147	0x3da5a1a6	0.080874726
148	0x3df2dad2	0.11858143
149	0xbdf3a9ad	-0.118975975
150	0x3dfa16fd	0.12211416
151	0xbd74954a	-0.059712686
152	0x3daee555	0.08539835
153	0x3dbb947f	0.09159183
154	0xbd620af4	-0.055186227
155	0xbd16221f	-0.036653634
156	0x3e0e72d4	0.13910991
157	0x3d0d2eb8	0.034468383
158	0x3cf8e781	0.030383827
159	0xbc8924bf	-0.016741155
160	0x3c448b33	0.011996078
161	0x3d8943ae	0.06702362
162	0x3d7dcb83	0.061961662
163	0x3d84a984	0.06477645
164	0x3decdfbb	0.11566111
165	0x3d95768d	0.072980024
166	0x3db683b2	0.08911838
167	0x3cc72347	0.024308814
168	0xbe11e2ed	-0.14246722
169	0x3dd61c89	0.104546614
170	0xbd99ecda	-0.07515879
171	0xbe122d94	-0.14275199
172	0xbddb7701	-0.107160576
173	0x3bb82199	0.0056192395
174	0x3d8a3cf1	0.06749905
175	0x3d66fce0	0.056393504
176	0xbdd576c7	-0.104230456
177	0x3dba2877	0.09089749
178	0xbb3f97cf	-0.0029234772
179	0xbda68fd4	-0.08132902
180	0xbdf457be	-0.11930798
181	0x3e0e85c9	0.13918222
182	0x3c3c34af	0.01148717
183	0xbd8bb49d	-0.068215586
184	0x3ac6d1e4	0.0015168753
185	0x3d0b4b63	0.03400744
186	0x3d3a22ad	0.045443226
187	0x3dac8422	0.0842364
188	0x3d16a49d	0.03677808
189	0xbe1094bd	-0.14119239
190	0xbbe0ef9f	-0.0068645026
191	0xbdaca49b	-0.084298335
192	0x3e0aa300	0.13538742
193	0xbe07cb7c	-0.13261217
194	0xbd02f5e3	-0.031972777
195	0xbe10102e	-0.14068672
196	0x3dabaa63	0.08382108
197	0x3c5cdfcb	0.013481091
198	0x3e08dc27	0.13365231
199	0xbe09afa7	-0.13445912
200	0xbd2be032	-0.041961856
201	0x3dc79855	0.09745852
202	0x3d33d3f0	0.04390329
203	0x3d4fac67	0.050701525
204	0xbdfc696a	-0.12324794
205	0xbc99495c	-0.018711738
206	0xbd09f329	-0.03367916
207	0x3d1efc8c	0.038815066
208	0x3b81e49c	0.00396402
209	0x3d11f2c5	0.035631914
210	0x3dbbe329	0.09174187
211	0x3d1f0037	0.038818564
212	0x3c22cfe2	0.009937258
213	0x3e143772	0.14474276
214	0x3d2f0cb4	0.042736724
215	0x3dad8111	0.08471883
216	0x3d8f7db8	0.07006401
217	0x3c39caef	0.011339887
218	0x3d31e9c9	0.043435846
219	0x3e04e66f	0.12978528
220	0xbd6a63fa	-0.05722425
221	0x3dd4b3c3	0.10385849
222	0x3d9a3fe1	0.07531715
223	0x3e08bedb	0.13354056
224	0xbc83b2a3	-0.016076392
225	0x3dcc7eec	0.09985146
226	0x3d9f89d2	0.07789959
227	0xbd01aaa4	-0.031656876
228	0xbc73c189	-0.014877685
229	0x3dd320b9	0.10308976
230	0x3d182d1d	0.0371524
231	0x3df5b949	0.11998231
232	0xbc9e1a4a	-0.019299645
233	0x3d8ecfee	0.06973253
234	0xbb65502b	-0.003499041
235	0xbdcb9804	-0.09941104
236	0x3d2ed6c9	0.042685304
237	0x3e13c97e	0.14432332
238	0x3cb465a2	0.022021119
239	0x3e112d09	0.14177336
240	0xbda18b0e	-0.07887851
241	0xbcb718b7	-0.022350652
242	0xbe07f345	-0.13276394
243	0x3e030425	0.1279455
244	0xbd707b57	-0.058711376
245	0xbe11fad6	-0.14255843
246	0x3e0bec21	0.13664295
247	0xbe02030a	-0.12696472
248	0x3df31f50	0.11871207
249	0xbdeb87e0	-0.115005255
250	0x3d9109f2	0.07081975
251	0xbda23550	-0.07920325
252	0x3d62085d	0.055183757
253	0x3d86f3bf	0.0658946
254	0xbda8359a	-0.08213349
255	0x3de680aa	0.112550095

bias f4 [32]
0	0x3ddccc8e	0.10781203
1	0x3b346f68	0.0027532224
2	0x3ddd56c4	0.10807565
3	0xbd19ce82	-0.037550457
4	0xbbc47e48	-0.005996499
5	0xbc428f63	-0.011875006
6	0x3d8c88e1	0.06862045
7	0x3c79045c	0.015198793
8	0xbd52cce0	-0.051464915
9	0xbd5ddcf2	-0.054165788
10	0xbdddbe07	-0.108272605
11	0xbcd0ae66	-0.025473785
12	0xbd642f3c	-0.05570911
13	0xbda9f6d7	-0.08299034
14	0xbe161ef8	-0.14660251
15	0xbb510ce2	-0.0031898548
16	0x3d659827	0.056053307
17	0xbad3a851	-0.0016148185
18	0x3d17ca17	0.037057962
19	0xbd812c9e	-0.06307338
20	0x3df13968	0.117785275
21	0xbcd6d717	-0.02622561
22	0x3caf5dec	0.02140709
23	0xbcc439a9	-0.023953276
24	0xbd499af1	-0.04922003
25	0x3daf9490	0.08573258
26	0xbdfbaf85	-0.12289337
27	0xbda97551	-0.082743295
28	0xbd2f1229	-0.04274193
29	0x3e0521b4	0.13001138
30	0xbc8e02cc	-0.017335318
31	0x3da5f820	0.08103967

weight f4 [32, 32]
0	0xbcf30c8f	-0.029669074
1	0x3d9ed31e	0.07755111
2	0xbe16a696	-0.14711985
3	0x3d8f5e1f	0.07000374
4	0xbb298803	-0.0025868423
5	0xbe17428c	-0.1477148
6	0xbcba273a	-0.022723783
7	0xbdcc7dae	-0.09984909
8	0x3da7d078	0.08194059
9	0xbd81f899	-0.06346244
10	0x3c981415	0.018564263
11	0x3d149f68	0.036284834
12	0xbc61ea23	-0.013788733
13	0xbd842fe6	-0.064544484
14	0x3e1b08a3	0.15140013
15	0x3d9e7027	0.07736235
16	0x3e126a12	0.14298275
17	0xbe1915db	-0.14949743
18	0xbdd92e7a	-0.10604568
19	0xbe2fdbe3	-0.17173724
20	0xbc874928	-0.016514376
21	0xbc423ab0	-0.0118548125
22	0x3e2b4343	0.16724877
23	0x3d8f96e1	0.070112
24	0x3dbede09	0.093196936
25	0x3c41c5ed	0.011826974
26	0xbd102510	-0.035191596
27	0xbd57375a	-0.05254302
28	0x3d9b6aa0	0.075886965
29	0xbdcad7dd	-0.09904454
30	0x3c9bdf28	0.019027308
31	0xbe1762b8	-0.14783752
32	0x3e0311b7	0.12799726
33	0xbdeb16aa	-0.11478932
34	0xbbb7cb89	-0.00560898
35	0x3e191952	0.14951065
36	0xbd94a2e5	-0.07257632
37	0xbda2fbd5	-0.079581894
38	0x3dbf6a8f	0.09346496
39	0x3e170838	0.14749229
40	0xbd99c3bc	-0.075080365
41	0xbe29ac81	-0.16569711
42	0x3b29e434	0.0025923373
43	0x3e21151a	0.15730706
44	0xbcc72aff	-0.024312494
45	0x3c751dfb	0.014960761
46	0xbd922fdc	-0.07138035
47	0xbe067056	-0.1312879
48	0x3d99095b	0.074724875
49	0x3c12dba3	0.008963498
50	0x3da4cf6c	0.08047375
51	0xbe13065a	-0.14357892
52	0xbe2755ba	-0.16341296
53	0x3d2f2a42	0.04276491
54	0x3df9ea9a	0.1220295
55	0xbd9bf984	-0.07615951
56	0xbe1e6f1d	-0.15472074
57	0x3e1d3efb	0.15356056
58	0xbe189f34	-0.14904481
59	0xbc9267aa	-0.017871697
60	0xbdb72d67	-0.08944207
61	0xbd7e2939	-0.06205103
62	0xbd41c51c	-0.04730712
63	0x3e2ab5d1	0.1667092
64	0xbdaa4ad9	-0.08315057
65	0xbe10d23a	-0.14142695
66	0x3e353495	0.1769584
67	0x3dcce75a	0.10005064
68	0xbc209da6	-0.009803211
69	0x3daf7b10	0.08568394
70	0xbd65991c	-0.05605422
71	0x3e06eeb5	0.13176997
72	0x3b9fbd4f	0.0048748623
73	0xbe1c84bf	-0.15285014
74	0x3db9565e	0.09049676
75	0x3dca8c76	0.09890072
76	0xbc976da9	-0.018484907
77	0xbe30c5ed	-0.17263003
78	0x3cdc110a	0.026863594
79	0xbe04c726	-0.12966594
80	0x3e167cd6	0.14696059
81	0x3e14e6a3	0.14541106
82	0x3ce48d7c	0.027899496
83	0xbd60a441	-0.054844145
84	0x3d1bea42	0.038065203
85	0xbc94ad59	-0.018149065
86	0x3d3b0c35	0.04566594
87	0x3e203244	0.15644175
88	0x3e08591c	0.13315243
89	0xbdd2bff8	-0.102905214
90	0xbd4ee8e9	-0.05051509
91	0xbd719f29	-0.058989678
92	0x3cf12a45	0.029439101
93	0x3ce109f7	0.027470572
94	0xbc5995c8	-0.01328034
95	0x3e1b0acf	0.15140842
96	0xbdd6f5a4	-0.10496071
97	0x3e0c0023	0.13671927
98	0x3e166be7	0.14689599
99	0xbdea6cea	-0.11446555
100	0x3dcb9015	0.09939591
101	0x3cbde63d	0.023181075
102	0x3db6a995	0.08919064
103	0x3e1843ed	0.14869662
104	0x3deac5d1	0.11463512
105	0x3cb49d41	0.02204764
106	0xbc286d09	-0.010279902
107	0xbe1015d8	-0.14070833
108	0x3d2ee2ec	0.04269688
109	0xbd2176bd	-0.03941988
110	0xbcf361de	-0.029709753
111	0x3df35678	0.11881727
112	0x3e1cb82a	0.15304628
113	0xbdbef5e2	-0.09324242
114	0xbc655923	-0.013998303
115	0x3e078135	0.13232882
116	0xbd97d294	-0.074132115
117	0x3e252b03	0.16129689
118	0x3de8610d	0.11346636
119	0x3e0595ab	0.13045375
120	0x3e324548	0.17409241
121	0xbdf6e0ac	-0.120545715
122	0xbd8c6a5e	-0.068562254
123	0x3e1d4976	0.15360054
124	0xbe388101	-0.18017961
125	0xbdc3cce5	-0.09560565
126	0xbdee3b1e	-0.116323695
127	0x3da71128	0.08157569
128	0xbd828a4e	-0.06374036
129	0x3d09530b	0.03352646
130	0xbdedaf28	-0.11605674
131	0x3d2f1f81	0.042754654
132	0xbdceb4ad	-0.10093055
133	0x3e1711d8	0.147529
134	0xbc990bb2	-0.018682335
135	0xbd3e72fc	-0.046496376
136	0xbe0bb2c3	-0.13642411
137	0x3d83dc80	0.064385414
138	0xbc505ac8	-0.012716956
139	0x3df82baa	0.12117703
140	0x3c05bcab	0.008162658
141	0xbc894df4	-0.016760804
142	0xbd742770	-0.059607923
143	0xbe3278f5	-0.17428954
144	0xbdb4c7ee	-0.08827196
145	0xbddcea73	-0.10786905
146	0x3e043694	0.12911445
147	0xbd4c21ca	-0.04983691
148	0x3ddc7390	0.10764229
149	0xbde26281	-0.110539444
150	0xbd1842aa	-0.03717295
151	0x3dc8609b	0.09784051
152	0xbe18dcd2	-0.14927986
153	0xbdd8dcc9	-0.105889864
154	0x3d793e44	0.060850397
155	0xbddfd7d5	-0.109298386
156	0x3d8b33fc	0.067970246
157	0xbdcfd03c	-0.101471394
158	0xbd991d63	-0.07476308
159	0xbc7a88d4	-0.015291411
160	0xbdbc1682	-0.091839805
161	0xbdc72902	-0.097246185
162	0xbc9b8211	-0.018982919
163	0x3e2dbc7c	0.16966432
164	0xbc4ebf0f	-0.012618794
165	0x3d9c7309	0.07639129
166	0xbd7765be	-0.060399763
167	0xbe15e266	-0.14637145
168	0xbdb62bea	-0.08895095
169	0xbb05fd65	-0.0020445224
170	0x3c938989	0.018009918
171	0x3d617db3	0.055051517
172	0x3e12098b	0.14261453
173	0x3df1299a	0.11775513
174	0x3e2ff141	0.17181875
175	0x3d0f9414	0.035053328
176	0x3e1b30ce	0.15155336
177	0xbd7f58e8	-0.062340647
178	0xbdb76c66	-0.08956222
179	0xbe175f2a	-0.14782396
180	0x3da2d23c	0.07950255
181	0x3de54e2b	0.1119655
182	0x3c8348e8	0.016025975
183	0xbdddab09	-0.10823638
184	0xbd5ff879	-0.05468032
185	0xbdab447a	-0.0836267
186	0xbd50a0af	-0.05093449
187	0xbc96984d	-0.01838317
188	0x3bebd198	0.0071966164
189	0x3d645e11	0.05575377
190	0xbcf78b25	-0.030217716
191	0x3e0ead62	0.13933328
192	0xbe272b39	-0.16325082
193	0x3e26f1fc	0.16303247
194	0x3d44c945	0.048043508
195	0x3e12aeb2	0.14324453
196	0xbde70908	-0.112810194
197	0xbe0ce05e	-0.13757464
198	0xbab3e95d	-0.0013726164
199	0xbdb87db1	-0.09008349
200	0xbd07a54a	-0.033116616
201	0x3c349d5c	0.0110238455
202	0x3d58e12e	0.052949123
203	0xbe3358dd	-0.17514367
204	0x3e249a18	0.16074407
205	0xbe0de5ed	-0.13857241
206	0x3d88aec6	0.066739604
207	0x3dc3df45	0.0956407
208	0xbe2d2823	-0.16909842
209	0x3e1d14ce	0.15339968
210	0x3dc2dc9a	0.09514733
211	0x3c922ee2	0.017844621
212	0xbdc434eb	-0.09580406
213	0x3d9fd6f7	0.07804673
214	0x3cc59660	0.024119556
215	0xbca2f2b2	-0.019891117
216	0x3e0eab84	0.13932616
217	0x3e1a7a2b	0.15085666
218	0x3d30c5db	0.04315744
219	0xbdaef312	-0.08542456
220	0x3e0d4f8f	0.1379988
221	0x3db84ebd	0.08999393
222	0xbd804a6c	-0.06264195
223	0x3dd1778b	0.10227879
224	0x3d8ef7de	0.06980871
225	0xbe1bc99c	-0.15213627
226	0xbcbe3939	-0.023220645
227	0xbe171e74	-0.1475771
228	0xbe19d400	-0.15022278
229	0x3e12efdf	0.14349316
230	0xbe06a9eb	-0.13150756
231	0x3affc026	0.0019512221
232	0x3d0e8c63	0.034801852
233	0x3dca13c1	0.09867049
234	0xbd7e4bf4	-0.062084153
235	0xbb5d40cc	-0.0033760546
236	0xbe0f9bbe	-0.14024255
237	0xbe0b1dc6	-0.13585576
238	0xbb9c3179	-0.00476664
239	0xbe1936ca	-0.14962307
240	0xbd3a8a5f	-0.045542117
241	0x3df9eb91	0.12203134
242	0xbe04e68f	-0.12978576
243	0x3e17998b	0.14804666
244	0xbd36a9e8	-0.04459563
245	0xbba5c33f	-0.0050586755
246	0xbe02191d	-0.12704892
247	0xbd9f05e9	-0.07764799
248	0xbe2b2d98	-0.16716611
249	0xbd7f128c	-0.062273547
250	0x3d250a5f	0.040293094
251	0xbd3b4b5d	-0.04572617
252	0x3d1f5368	0.0388979
253	0x3d891bd9	0.06694765
254	0xbd8eb09b	-0.069672786
255	0x3d94b0c6	0.07260279

bias f4 [32]
0	0xbe1c302f	-0.15252756
1	0xbdf5bac1	-0.11998511
2	0xbcfa4f6a	-0.030555446
3	0xbe33abfc	-0.17546076
4	0x3e144377	0.14478861
5	0x3d61a03e	0.05508446
6	0x3d5d53fa	0.054035164
7	0x3e350197	0.17676388
8	0x3e073d06	0.13206872
9	0xbe26813b	-0.16260235
10	0x3c8799f1	0.016552897
11	0xbe2733a6	-0.16328296
12	0xbc30544c	-0.010762285
13	0xbdac0d2a	-0.08400948
14	0x3dc20f0e	0.09475528
15	0xbe31da98	-0.17368543
16	0xbda1b7a2	-0.07896353
17	0x3e1cb714	0.15304214
18	0x3d1cd0e1	0.03828514
19	0x3c797c3f	0.0152273765
20	0x3e1580cc	0.14599913
21	0x3e03686d	0.12832804
22	0xbb1eb9f4	-0.0024219723
23	0x3e180962	0.1484733
24	0x3df82e74	0.12118235
25	0x3dc38c31	0.09548224
26	0xbca59ed5	-0.020217339
27	0x3e22fc48	0.1591655
28	0x3c24b46c	0.010052782
29	0xbe122064	-0.14270169
30	0xbc09b370	-0.008404598
31	0x3e02933d	0.1275148

weight f4 [32, 32]
0	0x3d0882df	0.033327933
1	0xbc9967f8	-0.018726334
2	0xbe22ff13	-0.15917616
3	0xbccb6724	-0.024829455
4	0x3d1d8868	0.038460165
5	0xbe0b514d	-0.13605233
6	0x3e262cc7	0.16228019
7	0xbe289d4e	-0.16466257
8	0xbe2ad401	-0.16682436
9	0x3d17c90d	0.03705697
10	0xbe08f1af	-0.13373445
11	0x3e05f30a	0.13080993
12	0xbd2a34ef	-0.041554388
13	0xbe270dac	-0.16313809
14	0xbd31a3d2	-0.04336912
15	0x3d36d80e	0.04463964
16	0x3ddc3bd7	0.10753601
17	0x3d520efb	0.051283818
18	0xbc828501	-0.015932562
19	0x3d12db14	0.03585346
20	0x3d80caa0	0.06288648
21	0xbe1bbda7	-0.15209065
22	0xbd3d7789	-0.046256576
23	0xbca215f0	-0.019785851
24	0xbdefa937	-0.11702197
25	0xbd9e562e	-0.07731281
26	0x3d9e7107	0.07736402
27	0x3db9ec80	0.09078312
28	0x3dbd0ca5	0.092309274
29	0xbda1ca89	-0.07899959
30	0x3dafbd19	0.085809894
31	0xbca82198	-0.020523831
32	0xbd66f6ae	-0.056387596
33	0xbe1482f2	-0.14503077
34	0xbda0e869	-0.07856829
35	0x3cce8e03	0.0252142
36	0x3e04665d	0.12929673
37	0xbd2f16b2	-0.042746253
38	0xb94393ad	-0.00018651663
39	0xbd9c24df	-0.0762422
40	0xbda9bf2b	-0.082884155
41	0xbd5567dd	-0.052101005
42	0x3d0639a0	0.0327698
43	0x3d97a393	0.07404246
44	0xbe11c53d	-0.14235397
45	0x3dc9ba0d	0.098499395
46	0x3dfe3b0e	0.124136075
47	0x3e27c20a	0.16382614
48	0x3d9538d7	0.07286232
49	0xbe191695	-0.1495002
50	0xbde4a5ed	-0.1116446
51	0x3e163788	0.14669621
52	0xbe111043	-0.1416636
53	0x3c10d8ee	0.008840783
54	0x3d7b460b	0.061346095
55	0x3c155056	0.009113392
56	0x3e1c392d	0.15256186
57	0x3cea54fd	0.028604979
58	0xbe150ee4	-0.14556462
59	0xbe136ad8	-0.14396226
60	0xbe01e6a0	-0.12685633
61	0x3a26012e	0.0006332573
62	0x3de222dc	0.11041805
63	0xbbab1ab0	-0.0052216873
64	0x3dd64d7c	0.10463998
65	0x3e0222c7	0.12708579
66	0x3e021ea7	0.12707005
67	0x3e01eac8	0.12687218
68	0x3e310f90	0.17291093
69	0x3e044fe8	0.12921107
70	0x3e32f240	0.17475224
71	0xbc7d9683	-0.015477779
72	0x3e310d71	0.17290284
73	0xbdd08081	-0.1018076
74	0xbd526fc8	-0.051376134
75	0xbd84b62d	-0.0648006
76	0xbc937348	-0.017999306
77	0x3d0a007a	0.03369186
78	0xbdef7d13	-0.11693778
79	0xbd656843	-0.056007635
80	0x3dfe0881	0.12403966
81	0x3c3d9252	0.01157053
82	0x3d527994	0.051385477
83	0x3db3de2d	0.08782611
84	0xbe195aee	-0.14976093
85	0xbd34469e	-0.04401266
86	0xbc74d72d	-0.01494388
87	0x3e070231	0.1318443
88	0xbd9a8938	-0.07545704
89	0x3d71138d	0.058856536
90	0x3cea694b	0.02861466
91	0x3e074f24	0.13213784
92	0xbcdbce5d	-0.0268318
93	0xbdab0079	-0.083496995
94	0x3db7e788	0.08979708
95	0xbe28abde	-0.16471812
96	0xbe083bdf	-0.13304089
97	0xbd0bfa88	-0.034174472
98	0x3e283ad5	0.16428693
99	0xbd125d9a	-0.035733797
100	0x3cf06e98	0.02934961
101	0xbdaad2f6	-0.08341019
102	0xbdaa0959	-0.08302564
103	0xbc54c6f9	-0.012986892
104	0xbc7d400f	-0.015457167
105	0x3ce6fb6d	0.028196061
106	0x3dccb1ef	0.09994876
107	0xbe2e007f	-0.16992377
108	0x3df58b71	0.11989487
109	0x3dd9359c	0.10605928
110	0xbd83586e	-0.06413351
111	0xbdcfc4ac	-0.10144934
112	0xbe0a2c91	-0.13493563
113	0xbd8311ff	-0.06399917
114	0x3c77e2bd	0.015129742
115	0xbd806ab1	-0.0627035
116	0xbe2c6fe5	-0.1683956
117	0xbe0c38f3	-0.136936
118	0xbddb4c64	-0.1070793
119	0x3d7c24c2	0.061558492
120	0xbdbdd1b5	-0.09268514
121	0xbe28af43	-0.16473107
122	0xbdb1b142	-0.08676387
123	0xbe05ce63	-0.13067012
124	0xbce0f4db	-0.027460506
125	0xbd21d055	-0.03950532
126	0xbe01776a	-0.12643209
127	0x3dba1703	0.090864204
128	0xbd19657f	-0.03745031
129	0x3d6e5d4c	0.058194444
130	0xbe313922	-0.1730695
131	0x3d89e7de	0.06733678
132	0x3dd410a0	0.103547335
133	0x3d1da527	0.03848758
134	0xbb82aff8	-0.0039882623
135	0x3c5ac14f	0.013351752
136	0xbaa6de48	-0.001273104
137	0x3debc8a3	0.11512878
138	0xbda251af	-0.07925736
139	0xbd533e70	-0.051573217
140	0xbd256f74	-0.040389493
141	0xbe0b28d3	-0.13589792
142	0x3d470c24	0.048595563
143	0xbdbcf572	-0.092265025
144	0x3d12be6b	0.035826128
145	0xbe1d8ff4	-0.15386945
146	0xbd453c09	-0.048152957
147	0xbd0a5d4f	-0.033780392
148	0x3d1b6bf2	0.03794474
149	0xbdce76a4	-0.10081223
150	0xbe0c4930	-0.13699794
151	0x3de3221e	0.11090492
152	0xbc955270	-0.018227786
153	0x3d44e0be	0.048065893
154	0xbd0c2c20	-0.03422177
155	0xbd1a994d	-0.037743855
156	0xbd2efc4e	-0.042721085
157	0xbe17789d	-0.14792104
158	0x3d8fab5f	0.07015108
159	0x3e0dbd4d	0.13841744
160	0xbe2a7ff8	-0.16650379
161	0x3d0c4601	0.03424645
162	0xbe0f6fe8	-0.14007533
163	0xbcf5f9da	-0.030026365
164	0x3c590864	0.013246629
165	0x3e2db0a6	0.16961917
166	0x3dd2f36b	0.103003345
167	0xbdfd2276	-0.123600885
168	0xbdd77910	-0.10521138
169	0xbd99752e	-0.074930534
170	0x3c0daf0e	0.008647693
171	0x3d438491	0.047733847
172	0xbcab439e	-0.020906266
173	0x3da3328c	0.079686254
174	0xbe2b9c66	-0.1675888
175	0xbdfae393	-0.122504376
176	0xbe2b99bf	-0.16757868
177	0x3b95081a	0.004548085
178	0xbe255527	-0.16145764
179	0x3e262c91	0.16227938
180	0xbd6072c3	-0.054796945
181	0xbd42f1dc	-0.047593936
182	0x3e04acf0	0.12956595
183	0xbd1c26db	-0.038122993
184	0xbe2aa7d0	-0.16665578
185	0xbcaff08e	-0.02147701
186	0xbc261441	-0.010136665
187	0xbd80a20b	-0.06280907
188	0xbc6188d8	-0.013765536
189	0xbd470fdf	-0.04859912
190	0xbd949031	-0.07254065
191	0xbe0b56ab	-0.1360728
192	0x3c5c0c90	0.0134307295
193	0xbe2bcfd4	-0.16778499
194	0x3da714a9	0.081582375
195	0xbb6d800a	-0.0036239647
196	0xbe1b6de2	-0.15178636
197	0x3c9afac9	0.018918412
198	0x3c34683d	0.0110111805
199	0x3c9cd3f4	0.019144036
200	0x3dc5cf11	0.096586354
201	0xbd39d694	-0.045370653
202	0xbd916895	-0.071000256
203	0x3d769b13	0.060206484
204	0xbc76bba3	-0.0150593845
205	0xbc8afc7d	-0.016966099
206	0xbe0c41cf	-0.13696979
207	0xbe1c0ced	-0.15239306
208	0xbe1860bb	-0.1488065
209	0xbd09d27a	-0.03364799
210	0xbde7d6fb	-0.11320301
211	0x3e09a14e	0.13440439
212	0x3dec3af3	0.11534681
213	0xbe0fe46a	-0.14051977
214	0xbdee4216	-0.11633699
215	0x3a5d2335	0.0008435727
216	0x3d4861b0	0.048921287
217	0x3cae5b50	0.021283776
218	0x3d51a03c	0.051178202
219	0xbd92c689	-0.07166774
220	0xbd4ae8b7	-0.04953834
221	0xbe18aed8	-0.14910448
222	0xbddcef77	-0.10787862
223	0xbd755d7a	-0.0599036
224	0x3d25004d	0.04028349
225	0xbdd4568f	-0.10368072
226	0xbdec1912	-0.11528219
227	0xbe0d9832	-0.13827589
228	0xbda616f0	-0.08109844
229	0x3e2a9995	0.1666015
230	0x3e1ac1c6	0.15112981
231	0xbe0cf277	-0.13764368
232	0x3ddd69e0	0.1081121
233	0xbe1ed1b0	-0.15509677
234	0xbdc45e4f	-0.095883004
235	0x3c02748c	0.007962357
236	0x3d90e79e	0.070754275
237	0x3d5d1b12	0.053980894
238	0xbd84c06b	-0.06482013
239	0x3e10ab8b	0.14127938
240	0x3c000eb1	0.007816003
241	0xbe26c081	-0.16284372
242	0x3dac8edc	0.08425686
243	0xbd6926d9	-0.056921814
244	0xbd5d0a0a	-0.053964652
245	0xbcbaa632	-0.022784326
246	0xbe1d5335	-0.15363772
247	0xbca38219	-0.019959496
248	0xbdcd30cd	-0.10019074
249	0x3df2cec8	0.11855847
250	0xbdc25c2d	-0.094902374
251	0xbd56ed8f	-0.052472647
252	0x3defc126	0.11706762
253	0xbc64947c	-0.013951417
254	0x3d538055	0.05163606
255	0xbc9df082	-0.019279722

bias f4 [32]
0	0xbd9364ff	-0.07196998
1	0xbd200578	-0.039067715
2	0x3e038082	0.1284199
3	0xbe0d887b	-0.13821594
4	0x3e2da65d	0.16957994
5	0xbd630a96	-0.055430017
6	0xbca2b298	-0.01986055
7	0x3df3b15f	0.11899065
8	0xbdaec4ab	-0.08533605
9	0xbba18722	-0.004929439
10	0xbdb482e2	-0.088140264
11	0xbd183c64	-0.037166968
12	0x3e2e85ee	0.17043278
13	0xbc5d1bda	-0.01349541
14	0x3c243753	0.010022956
15	0xbe1b8c69	-0.15190281
16	0x3dd985cb	0.10621222
17	0x3db092c0	0.0862174
18	0x3cca7076	0.024711829
19	0xbe0a3ee9	-0.13500561
20	0xbda62681	-0.08112813
21	0x3de10308	0.10986906
22	0x3e0e1f09	0.13879026
23	0xbdd6887a	-0.104752496
24	0x3e322143	0.17395501
25	0xbdd8438b	-0.10559758
26	0xbdf8f97a	-0.12156959
27	0x3e305f9e	0.17223975
28	0x3d00b247	0.03142002
29	0x3dc9f509	0.0986119
30	0xbe00dd7c	-0.1258449
31	0xbdd18ac7	-0.10231548
