src/quicktune/pretrained/mtlbm/surrogate/mini/dyhpo.pth (torch, 109150 bytes, 37 tensors)

feature_extractor.encoder.0.mlp.0.weight f4 [32, 45]
00000000: fb12 d0bd ea4d ba3d 8a0c 87bd e540 1a3e
00000010: 88f8 0d3d 0790 b03c 9751 043e 5605 78bd
00000020: 2083 e8bc 9e68 173e 748d f3bc 91dd 61bd
00000030: 63a5 b7bd 3817 e3bb 6738 9c3d ae1d c8bd
00000040: 7fed edbd f147 bebd 3dc2 ddbd b598 b3bc
00000050: d140 f33d c3ae e63d 16f7 8f3d 01e4 dd3c
00000060: 38f7 cbbd 42fc 7d3d 36f8 803d e403 c6bc
00000070: 9316 eabd 1932 d03d ef68 ddbd 554f 7ebd
00000080: 41da 81bb 476e c0bd 3703 e13d 0c62 1d3e
00000090: ee83 773d 5f58 773c afcc 283c 2b6f 3bbd
000000a0: 295a f8bd 9226 c4bd 1354 1c3e ebe0 37bd
000000b0: 73cd 8e3d f282 c53d 46dd b13d d76f 87bd
000000c0: 6249 4cbd 24f3 043e 10aa 0f3e c22e 03be
000000d0: e549 debd ecc9 fc3d 0bbe b3bd b4e9 d9bc
000000e0: 436e 7f3d 6556 183e 4241 4fbd 63be 383c
000000f0: 8eac 03be 280b e5bd 302b e9bd 6d4c 74bd
00000100: dd0c 583d 5e26 b4bd ebf8 df3d ce47 043d
00000110: c134 b33d c322 c4bd 0f8f e63c 8a06 543d
00000120: e400 f83d 67ee a93d 09d7 f9bd c945 473d
00000130: 0374 11bd c55c ea3d d5ed 0ebe 63ef 2fbd
00000140: 1fa6 40bd fe33 acbd 4aeb d1b9 04cb ad3d
00000150: 6701 783c 7144 ecbc 208d f1bd 6faa 04be
00000160: 6f20 ffbd 16fe b0bc 16e0 41bc 65a7 e03d
00000170: 5b8e 57bd e3e4 963c d3c0 ddbd d1fd 8dbd
00000180: 1565 05be cded 0ebe aa7d 68bd 4a1e c7bd
00000190: 6287 183c ca00 e5bb 1c69 b33d a56f c83d
000001a0: e02c 0f3b f38c 6fbd 6cd9 b23c 7805 213d
000001b0: 169d b4bd ed93 093e cb21 033e 3946 3c3c
000001c0: 3546 c63d 2678 e5bd 4a67 273d 8fb9 ecbd
000001d0: 9362 923d c4c8 53bd f10b d6bd 707e af3d
000001e0: be51 c4bd 8570 113e f1e1 44bd af95 31bd
000001f0: 64b9 b63d d381 a0bd 7c7b 923c 6999 9dbd
00000200: 8e1e 3a3b 0761 1b3e a6f8 e9bd 0601 c6bd
00000210: 925e 713b 900c 01bd 30c0 0dbe 74d3 43bb
00000220: 0792 863d 280d c23c 97f9 003e f8e4 70ba
00000230: c616 9a3b f1f3 243d 0f88 c33c 8346 e5bc
00000240: d53d 093e e46d bf3d af00 1e3b fda4 003e
00000250: 2fa9 973c 99bf 383d c13f 21bd 0ce1 f13d
00000260: 339f db3d c702 18bd 2799 843d 3619 12be
00000270: d4e4 f1bd f139 213c 5510 5a3d c406 983b
00000280: c563 c73c a4c7 e8bd 494a da3c 1126 143e
00000290: f111 de3d 7c8e b7bd 56df b2bd 3279 0b3e
000002a0: 0837 113e 02af 9cbd a19f 163e 4d78 bc3d
000002b0: 9391 923d 5a3c 723d 563b cebd 77e0 feba
000002c0: 774a 813c 76b3 e93d cbd5 b53d 4465 d0bd
000002d0: e9d7 a13d 6318 95bd ba99 8dbd 7771 fbbd
000002e0: 3d77 c53c 9699 023e 2a3a b03c 05d7 ffbd
000002f0: 37ac e53c 823b 143d c552 acbd 9548 bdbd
00000300: 3e96 0e3e 41ab 11be e913 013e 7a3d 1fbd
00000310: f27c a4bd 2ca7 733d 2bad ccbd da03 123e
00000320: 976f dbbd 191c 873b 8e0c 163d 684e d33d
00000330: 62fa 223d 637b d2bd c4ec ccbc dc0b cfbd
00000340: c8ea f63d a13b ac3d 6746 d23d 7fda 953d
00000350: ca0c 173d 5a98 f43c 776b ef3d fa0a 01be
00000360: e3f2 17be a2e0 dfbd 9557 a43d e5e5 143e
00000370: ef17 643c 49d5 8e3d 4881 d5bd a86f 953d
00000380: 7186 6dbb f815 843d eaee f8bd eb95 09be
00000390: 2919 bf3d e421 b4bd bb3f aebd 55ce 4fbd
000003a0: 2c33 0fbe 852d 4aba 90ad 173d 7188 b93d
000003b0: 2bf4 ba3c cc0d 173d 486a 143e ad91 183e
000003c0: 2326 48bd a2c4 d5ba 9950 e7bd f5d3 edbd
000003d0: 2ad2 5fbd 4cfc f53d bff4 b63d 4ead 16be
000003e0: 89b4 553d fc38 cc3d 9123 943d 2549 0dbe
000003f0: aff0 da3d 11b7 f7bd 2149 8a3b 1326 d23d
-0.1015987 0.09096892 -0.065941885 0.15063818 0.034660846 0.021553053 0.12921749 -0.060551964
-0.028382838 0.14786002 -0.029730536 -0.055142943 -0.08967092 -0.006930258 0.076279454 -0.09771286
-0.116175644 -0.092910655 -0.10828064 -0.021923402 0.11877597 0.11263802 0.0702955 0.02708626
-0.099592626 0.06200815 0.062973425 -0.024171777 -0.11430087 0.10165805 -0.1081103 -0.062087376
-0.0039627855 -0.09396034 0.10986941 0.15369433 0.060428552 0.015096753 0.010302707 -0.045760315
-0.12126572 -0.09577669 0.15266447 -0.044892233 0.0697278 0.096441165 0.08684783 -0.06613129
-0.04987467 0.12983376 0.14029717 -0.12810805 -0.10853938 0.12343201 -0.08776482 -0.026600696
0.062361013 0.14876707 -0.050599344 0.0112758605 -0.12858793 -0.111837685 -0.113851905 -0.059643198
0.052746642 -0.087963805 0.10936149 0.03229504 0.087502964 -0.09576943 0.028144388 0.05176405
0.12109545 0.08297425 -0.12199218 0.048650537 -0.035511028 0.11443476 -0.13957913 -0.042952906
-0.047033425 -0.08408354 -0.0004003889 0.08485988 0.015137053 -0.02884123 -0.117944956 -0.1295564
-0.12457358 -0.021605533 -0.011833211 0.10969428 -0.052625995 0.018419689 -0.10827794 -0.06933177
-0.13026841 -0.13957901 -0.056760468 -0.09722574 0.0093096215 -0.0069886195 0.087602824 0.097869195
0.0021846816 -0.05848403 0.02183219 0.039311856 -0.08819024 0.13435335 0.1280586 0.011491352
0.0968136 -0.11204557 0.04086999 -0.1155883 0.07147708 -0.051705137 -0.104514964 0.08569038
-0.095859036 0.14203079 -0.048067037 -0.04335564 0.08922079 -0.07837262 0.017881148 -0.07695276
0.002839956 0.15173732 -0.11424379 -0.09668164 0.003683005 -0.03150612 -0.13842845 -0.0029880675
0.06570821 0.023687914 0.12595211 -0.00091893924 0.004702422 0.040271703 0.023868589 -0.027987724
0.13402493 0.09347132 0.0024109294 0.12562938 0.01851329 0.045104597 -0.03936744 0.118105024
0.10723724 -0.037112024 0.06474524 -0.1426743 -0.118112236 0.009840474 0.05323823 0.0046394784
0.024339566 -0.113662034 0.02664675 0.14467646 0.10843266 -0.089627236 -0.08734004 0.13620451
0.14181149 -0.076505676 0.14709331 0.09202633 0.07156672 0.059139587 -0.10069911 -0.0019445558
0.015782578 0.114111826 0.088786684 -0.10175565 0.0790251 -0.07280042 -0.06914087 -0.12277501
0.024104709 0.12753901 0.02151211 -0.124921836 0.02803622 0.036189564 -0.084142245 -0.092423595
0.139245 -0.14225484 0.12605251 -0.038876988 -0.08031644 0.0594856 -0.09993967 0.14259282
-0.107146434 0.0041232225 0.036633067 0.10317689 0.039789565 -0.102774404 -0.025015242 -0.10109684
0.120565 0.08409811 0.102673344 0.073170654 0.03687743 0.029857803 0.11690419 -0.12601843
-0.14838748 -0.10931517 0.080245174 0.14540823 0.013921722 0.06974275 -0.10425049 0.07296687
-0.0036243463 0.06449503 -0.12154944 -0.13436095 0.09330971 -0.087955266 -0.08508249 -0.050733883
-0.13984364 -0.00077124714 0.037030756 0.09059227 0.022821506 0.036878392 0.14493668 0.14899321
-0.048864495 -0.0016309211 -0.1129467 -0.11612693 -0.054643787 0.120110124 0.089334 -0.14714548
0.052174125 0.099718064 0.07233346 -0.13797434 0.10690438 -0.12095464 0.0042201434 0.10261168

feature_extractor.encoder.0.mlp.0.bias f4 [32]
00000000: 2af6 9f3d f14e 0c3e d6e0 2abd 9f91 c53c
00000010: ce7c fa3c f114 0dbe 6b77 efbd ae2c 9e3d
00000020: bec8 57ba ce08 f13d 2025 123e 4c82 10bd
00000030: f52c 37bd 6909 153e d252 d0bb d8b8 b4bc
00000040: 8154 cbbd e916 19be eafb b8bd 241e d63d
00000050: b238 643d 422d 103e f100 e43d f8b1 94bd
00000060: cd50 bb3d 34fb 6d3d 852e 013e 5935 53bc
00000070: 8efb c93c 61a8 fbbd ed66 9a3c 944a 5dbd
0.07810624 0.13701989 -0.041718327 0.02411729 0.03057709 -0.1377752 -0.11692699 0.07723366
-0.0008231512 0.117692575 0.14271975 -0.03528051 -0.04472061 0.14554371 -0.006357529 -0.022060797
-0.09928227 -0.14950146 -0.09032424 0.104549676 0.05571813 0.14079764 0.11132992 -0.07260507
0.09146271 0.058100894 0.12615402 -0.012891137 0.024656083 -0.12287975 0.018847907 -0.0540262

feature_extractor.encoder.0.mlp.2.weight f4 [32, 32]
00000000: 5cb6 76bc d55f 933b 58e4 1a3e a408 953d
00000010: 3ece ce3d bedd 893d 6eff 173e aca2 4d3d
00000020: a01e 54bc 3aa6 0f3c 544f e33d 56cc 9d3d
00000030: 3c05 f93d efd3 e3bb 272e 2d3e f993 c63d
00000040: 4cde 14be 069d b03d 522b d13d 796b 7a3d
00000050: 01c6 27be a86f 1ebd 6081 7b3d f5b4 30bd
00000060: 00c1 0a3c ecf7 843d 25fb 95bc 1565 b5bd
00000070: 981b d6bd 72ce 9b3d f4ea 2bbe b1fb 383d
00000080: 75c0 063e bfd6 e8bd 5a9a 1e3d 5c5c a5bc
00000090: 92db 2e3c a414 fc3d 3f05 afbc 5212 c33b
000000a0: 001b cbbb d774 97bd 04ed 093e e7ce 42bd
000000b0: c5cb 103e be96 1fbe dccb 00be e379 df3b
000000c0: 9975 2dbc 2af6 173e a2b8 ef3d 74b8 163d
000000d0: a4ef db3d 0cdf 263e bc09 2e3d 8bb5 c03b
000000e0: 80d8 f03d 9a38 25be 8c1c c4bd 0f81 1dbe
000000f0: 1aa5 09be 19a9 bdbd 8941 e1bd 021a 8dbd
00000100: 69e1 9dbd c14b e43d cd1e cc3d 403f 053d
00000110: 30a2 003e dd6e 093e d664 e63b 49fe 283e
00000120: 467b f0bc d23c 073d 433d c83c f491 133e
00000130: dc57 ae3d 2749 b73c 4dd0 7abd 8674 23bd
00000140: 4e12 afbd 172f 2c3e bd7d d83d d776 fcbc
00000150: 520d 29bc eb47 fa3d a7e5 c4bd 4649 d63d
00000160: 8212 f2bd b3ee 34be a2d7 a2bd a876 9b3c
00000170: f2c7 143e 56b0 5f3b 31ab d03c 5614 2bbc
00000180: 5e8d 083e 5e0c 013e a7eb 133e eacc 90bd
00000190: bf91 b23c 40c9 283e bc37 5e3d a8f2 eb3d
000001a0: 1a7a 0fbe 3693 3ebd 3683 df3d 3f4e c8bc
000001b0: c79f a3bd c6ba 7a3d a6ae 0f3e b46a 133e
000001c0: cc4a 98bd 5187 86bd 9079 e7bd b590 97bd
000001d0: b699 2fbe fcf4 2dbe 4722 1bbe 1682 b43d
000001e0: a0ec bd3d 35a5 f2bc 5eb2 213e 617d 82bd
000001f0: 121c b2bd 97b9 adbd 1d59 1a3e 5f80 05be
00000200: f1d3 01bd 1cb2 ff3b 0aee 37bd 4b5a 063d
00000210: d36a 10be 1116 2e3d 9131 c1bd 9206 9a3d
00000220: a602 11be 7149 04be 96ff 33be ed36 bdbd
00000230: dd0e 84bc bc4c 953d aa63 abbc 81e9 413d
00000240: 59e9 ef3d d053 a2bd ec46 8dbd 0eba 57bd
00000250: 1188 dc3c 3f39 bfbd c2f3 1dbe dae2 aa3d
00000260: 227a 84bd c967 8abd b2d0 1b3e 8e18 9f3d
00000270: 169f 343e 9296 d03d 9867 d2bc bc78 0ebe
00000280: 5d03 9b3d 65ee bf3d e386 07be de30 c4bc
00000290: 67b4 d23c 0f5d e63d a00a 29bd 1854 dabd
000002a0: 12fd 05bd dde0 0f3d 97e7 11bd 4728 f63d
000002b0: 2dbb dabd d472 2f3e b902 883d dd14 9bbd
000002c0: e6fc d5bd 6c26 c9bc c9fe 983c 3eb7 e5bb
000002d0: a7a5 003d 84a2 be3b fd0e 10bd 2856 3ebd
000002e0: 2f5a be3d 08e6 e13d 7900 d93c f8c3 8f3d
000002f0: 711a 2e3e a09b b63d c0c0 e7bc b425 253e
00000300: f711 4dbd 242f 913d 2a96 8ebc b226 2c3c
00000310: 0082 aa3d 6b9b d5bd cba5 343e 4d30 1bbd
00000320: ccd0 2c3e 4ef5 2dbe f170 0c3e dc63 8f3c
00000330: 9a90 343e 6288 093e 90b7 c33d b34c 10be
00000340: 3d8f cd3b 43f8 a0bd d521 ef3d b6a2 d93d
00000350: 37fd a1bd b19c d23a 5db1 703d d673 253e
00000360: 8022 eabc f051 bdbc e4c8 01bd 510b 603d
00000370: e2e0 80bd fc92 b2bd f702 f2bd a14c 263e
00000380: d986 f43d a008 94bd 6fa2 d33d 09ae 203e
00000390: bc02 ba3c 5d27 9a3c 6207 523d cfb9 1dbe
000003a0: 4e0b 183e 457d b9bc 6cd5 94bd f873 fcbb
000003b0: 7434 153e 652d 233b c917 213e ba6e 703c
000003c0: 48a5 123e b84e a03d 734d 073c 2494 2b3e
000003d0: 4d32 be3d ab19 2dbe 72a6 ec3d 5df1 57bd
000003e0: 62b7 e3bc 6b13 a33d 57f4 97bd 4feb 293d
000003f0: cdae 37bd fcb2 3ebd b2b6 143d a234 81bd
-0.015058126 0.004497508 0.15126169 0.07277039 0.10097931 0.06731747 0.14843532 0.050203964
-0.012946755 0.008767659 0.11099115 0.077049896 0.121592015 -0.0069527547 0.16912137 0.09696192
-0.14537925 0.086237 0.10213341 0.06113765 -0.16384126 -0.038680702 0.06140268 -0.043141324
0.008468866 0.064926 -0.018308232 -0.088571705 -0.10454482 0.07607736 -0.16788846 0.045161907
0.13159354 -0.113690846 0.03872142 -0.020185642 0.010672467 0.123086244 -0.021364806 0.0059531117
-0.006198287 -0.07395332 0.1346932 -0.0475606 0.14140232 -0.15584847 -0.12577766 0.00681995
-0.0105871195 0.14839998 0.11705138 0.036797002 0.10739067 0.16296023 0.042489752 0.0058810166
0.11760044 -0.16134873 -0.095757574 -0.15381263 -0.13441887 -0.092607684 -0.10998828 -0.06889726
-0.07709009 0.111472614 0.09966812 0.032531023 0.1256187 0.13421197 0.0070310635 0.16503252
-0.029355656 0.033016987 0.024443274 0.14411145 0.085128516 0.022373749 -0.061233807 -0.039906047
-0.08548413 0.16814838 0.10570858 -0.030818386 -0.010318117 0.122207485 -0.09614115 0.104631945
-0.11819936 -0.17669182 -0.07951285 0.018977478 0.14529398 0.0034132204 0.025472255 -0.01044186
0.13335177 0.12602374 0.14445363 -0.07070334 0.021798013 0.16483021 0.05425237 0.115208924
-0.14011422 -0.04652711 0.109136984 -0.024451373 -0.079894595 0.061213277 0.14031467 0.14396173
-0.07436141 -0.06568778 -0.11302483 -0.074006476 -0.1714848 -0.16987985 -0.15149795 0.088138744
0.09273648 -0.029619792 0.15790698 -0.063715704 -0.0869676 -0.08482664 0.15073057 -0.13037251
-0.031696264 0.0078032147 -0.044904746 0.032800954 -0.1410325 0.042501513 -0.09433282 0.075207844
-0.14161167 -0.1291864 -0.17577967 -0.09238992 -0.016120369 0.072900265 -0.020921547 0.047341827
0.117144294 -0.07926142 -0.06898293 -0.05266767 0.02692035 -0.09337091 -0.15425017 0.0834405
-0.064686075 -0.06758077 0.1521633 0.07768355 0.17638811 0.10184969 -0.025684163 -0.13913244
0.07569001 0.09371642 -0.13235049 -0.023949083 0.025720788 0.11248218 -0.0412699 -0.10660571
-0.03271205 0.035126556 -0.035621252 0.12019401 -0.10680232 0.17133647 0.06641144 -0.07572339
-0.10448627 -0.024554454 0.018676179 -0.0070103696 0.03140798 0.005817713 -0.035170544 -0.046468884
0.09294545 0.11030203 0.026489483 0.070198 0.17002274 0.08916402 -0.028290153 0.16127664
-0.05006596 0.070890695 -0.017405588 0.010507273 0.08325577 -0.10430034 0.1764137 -0.03788786
0.16876525 -0.16988108 0.13714959 0.017503671 0.17633286 0.13430932 0.09556496 -0.14091758
0.006273179 -0.07859852 0.11676375 0.10626738 -0.07909625 0.0016068426 0.058762897 0.16157469
-0.028580904 -0.02311036 -0.031685725 0.054698292 -0.06292893 -0.08719441 -0.11816972 0.16240169
0.11939783 -0.072282076 0.10333716 0.15691389 0.022706382 0.018817598 0.051276572 -0.15402912
0.14848062 -0.022642741 -0.072672695 -0.0077042542 0.1457079 0.0024898883 0.1573173 0.014674837
0.14320862 0.078275144 0.008258211 0.1675573 0.09286938 -0.16904323 0.115551844 -0.052720416
-0.027797405 0.07962688 -0.07419651 0.041484173 -0.044844437 -0.04655741 0.036307044 -0.06308867

feature_extractor.encoder.0.mlp.2.bias f4 [32]
00000000: 48a2 2f3d 4dfa fd3d 64ee c2bc 404b bd3d
00000010: d25a 10be 1da7 a03c ff6e eabc 7c8d ea3d
00000020: f7ff 0abe 4ba2 48bd 6ef0 6d3d 22d6 21be
00000030: d73e b33d 2ffc b73d 1fe4 8dbd 402c a13d
00000040: 500f 89bd 66d2 1d3d 3c04 0abc bece 043e
00000050: 55c0 9bbd 5b79 1a3e ece9 173e d5dd d43d
00000060: 1754 2c3e af88 2b3e d797 25be bbc3 6cbb
00000070: fa99 f63d b6c0 acbd efeb 88bd dd85 9ebd
0.042879373 0.12401257 -0.023795314 0.092428684 -0.14097145 0.019610936 -0.02861738 0.11452767
-0.13574205 -0.0489829 0.05809062 -0.15804341 0.0875222 0.08983647 -0.06928276 0.07869768
-0.06692374 0.03853073 -0.008423861 0.12969491 -0.07605044 0.15085356 0.14835328 0.103938736
0.16828953 0.1675136 -0.16171204 -0.0036127407 0.120410874 -0.08435194 -0.06685626 -0.07740376

feature_extractor.encoder.0.mlp.4.weight f4 [32, 32]
00000000: 4af4 8bbc 1681 21bd b796 a2bd e981 cebc
00000010: b949 2cbe 30c6 b7bd f207 a33d 8a31 98bc
00000020: 1c1b 19be 3c83 b13c 7f9d 323e 9aaf fb3d
00000030: a4a9 ab3c 7ca1 253e 30ee 1f3e 4ad5 863c
00000040: cb0c 8bbd cfe7 f03d d838 1fbe b87e debd
00000050: 5593 58bd 551c 1fbd 4938 ac3c fab1 30be
00000060: daf5 00bb 1cb4 7d3d 3cec f1bd 2a9c d33d
00000070: f2d9 21be f4c4 b93d dc2f d5bd 6ec4 6e3b
00000080: 305b 2fbe 6b80 563c 7fb9 353d 49ff 923d
00000090: 7888 17be 307c ed3c 2159 50bb 8a91 cdbd
000000a0: b19a df3d aa78 04be 2881 25be 11f8 553d
000000b0: 5419 603c 53a1 b23c 70a5 f5bd 97ad 843c
000000c0: c3d2 a8bd c4ce eb3d bd39 32be dda3 31bd
000000d0: d48a 18be a607 e73d 54e2 b33b 2ecd bfbc
000000e0: 3202 10bc d6a3 11be a801 0f3e 5d34 183e
000000f0: 6e7f 3a3e 208a 2fbe f669 0e3d bafd 083e
00000100: 40fc 1c3e 2925 2e3d 157e 1f3d 5ce9 873d
00000110: 68eb 6f3d 1722 013e d915 55bc c812 243e
00000120: 9f6a fcbd b93e 76bd 78f4 bc3a ebe4 583d
00000130: ca91 8fbb 6b5a b4bc c09b bbbd fd75 013e
00000140: 013b 2f3e 62aa da3d e5f2 283e c020 28be
00000150: b944 ad3d d995 3c3d d0ee 1bbe a8a0 42bd
00000160: c7a0 b43c 9c8d 65bd fda8 24be 479c fc3d
00000170: 3dce 213e 9d25 1d3e 2506 bb3d dfe2 e53d
00000180: 6268 71bd ff2e f93d e474 f13d b754 1dbe
00000190: 1338 183e 1cfe 14be 3a63 e0bd d4eb 853d
000001a0: 16c4 29bd 4113 e8bd c593 983d cbb1 be3c
000001b0: f921 573d 5ecd cb3d 5733 15bd 7f23 23bb
000001c0: a840 4abd c42e 4e3d ac27 d0bd f813 07bb
000001d0: 1af2 16be a129 1c3e ace1 a1bc 3ac0 8ebd
000001e0: 0852 a8bd 78c1 55bd 4786 da3d 0a6d 3d3e
000001f0: 3f4a 96bd baa3 c43d 7d3d 6d3c fc8a b43d
00000200: a1d8 1d3e 0327 4c3c e83e e6bd 409b 0cbe
00000210: 9074 f03d 0856 c43c 6280 f3bd 2e7f 8dbc
00000220: b62f fe3d 65d1 12be e964 82bd 9271 aa3c
00000230: c6e3 49bd fa9f 93bb db17 763b e1f9 21be
00000240: c18f 0dbd 13b6 0e3d 8ac1 06be 5453 073d
00000250: 4613 2ebe 0f85 e93d 1cae d33d 504f e2bd
00000260: 01df 313c d2a9 45bd 7c7f 333e f554 9cbd
00000270: 470d c63d 3807 ef3d 388b 1abd 6bdb 11be
00000280: 189e 783d 3fe7 0e3d 826f febd d26c 1dbc
00000290: 2ebd 163e ba46 f4bd 5fcb ac3d 7efa 9ebd
000002a0: 7db8 223e 0ac5 0cbe 474a db3d 18d9 8ebc
000002b0: 4215 d43a b485 f33d a09f 0dbd 4a1d ab3d
000002c0: d5d5 203e f064 113e d524 463d db45 f0bd
000002d0: ff6b 1abc dfb4 f33d abd8 283e 9328 eb3d
000002e0: a780 26be 5cd9 2a3d 4d67 2d3e 0a38 dc3d
000002f0: 1a1d cf3d 470f afbc ce31 183d fcaa f9bc
00000300: b1d4 c4bc e01c fe3d 1571 343d 9d7b 2e3e
00000310: 836a 2c3d 771a dc3c f04b 0abe 6739 583d
00000320: 13e3 6f3d f9bb 1a3e 851b b5bd 7b38 bb3d
00000330: 79ca 28bd d0c1 1a3e a19e 1d3e ba27 01be
00000340: c425 15be bb71 0e3e f1e1 23be 55d7 e2bd
00000350: ac59 ff3d 2b60 a2bd 5dee a43c bd0a 9ebd
00000360: 655a e83a 748a 543c 11fa cb3c e1c4 c7bc
00000370: 3a42 29be bec2 f03c 9ac4 173d 8788 cebd
00000380: 8600 a3bd 9892 c73d 79c3 1d3e f6e2 b4bd
00000390: b0ff e33c b937 313e dcfe 5b3d ca4b 1bbe
000003a0: d4c6 1c3d eac1 95bd d230 873d c555 893d
000003b0: 2367 78bd 035d 10be c202 183e 1872 f9bd
000003c0: a7d4 d43d b0b0 a23d ed4b 0abe 6ac2 77bd
000003d0: 991a 10be 47cf 62bc 1dc0 93bd 9579 04be
000003e0: 32f8 353e 6929 f4bc ed7d b8bd d40c 96bd
000003f0: fe92 163c bd9f 8d3d 0564 f7bd 9d95 86bd
-0.01708426 -0.039429747 -0.07938903 -0.02520843 -0.16824998 -0.08973348 0.079605 -0.01857831
-0.14951748 0.021669023 0.17442892 0.12289353 0.020954914 0.16174883 0.15618205 0.016459126
-0.067895494 0.11762964 -0.15549028 -0.108640134 -0.05287488 -0.03884538 0.021022933 -0.17255393
-0.001967779 0.061939344 -0.11812636 0.1033252 -0.15805796 0.09070769 -0.10409519 0.0036433
-0.17124629 0.013092141 0.044366356 0.07177598 -0.14798152 0.028989881 -0.0031791406 -0.10037525
0.10918177 -0.12936655 -0.1616255 0.052238528 0.013677914 0.021805441 -0.11994445 0.016196055
-0.082433246 0.11514047 -0.17404838 -0.043369163 -0.14896709 0.11280756 0.005489627 -0.023413267
-0.008789586 -0.14222655 0.13965476 0.14863725 0.18212673 -0.17142534 0.03476902 0.13378039
0.153306 0.042515907 0.0389386 0.06636307 0.05857411 0.1261066 -0.013005697 0.1602279
-0.12325024 -0.06011841 0.0014416119 0.05295269 -0.004381393 -0.02201577 -0.09160566 0.12642665
0.17112352 0.10677029 0.16498907 -0.16418743 0.084603734 0.046041343 -0.15227818 -0.047516495
0.02204932 -0.056043252 -0.16080089 0.12334495 0.1580133 0.1534638 0.09132031 0.11224913
-0.058937438 0.12167167 0.11789873 -0.15364347 0.1486514 -0.1455006 -0.10956426 0.06539121
-0.041446768 -0.113317974 0.0745006 0.023278138 0.052522633 0.0995128 -0.036425915 -0.0024892983
-0.049378067 0.050337568 -0.10163817 -0.0020611268 -0.14740792 0.15250255 -0.019760929 -0.06970258
-0.08218771 -0.05218646 0.106701426 0.18498626 -0.0733838 0.09601541 0.014479992 0.08815572
0.15414669 0.012460473 -0.11242467 -0.13731098 0.117409825 0.023966804 -0.118897215 -0.017272558
0.12411444 -0.1433769 -0.06366903 0.020806108 -0.049289487 -0.0045051547 0.003755084 -0.15817977
-0.034560923 0.03484161 -0.13159767 0.033038452 -0.1699954 0.11402332 0.10335943 -0.11050284
0.010856391 -0.048257656 0.175291 -0.07633392 0.09670501 0.11671299 -0.037730426 -0.14243858
0.060697645 0.034888502 -0.12423612 -0.009608464 0.14720604 -0.119275525 0.084372275 -0.07762621
0.15890689 -0.1374704 0.10707527 -0.017437503 0.0016180652 0.11890736 -0.03457606 0.08355196
0.1570657 0.14198661 0.04837497 -0.11732074 -0.009425162 0.11899733 0.16488902 0.11482348
-0.16260014 0.041711196 0.16933937 0.10752876 0.101129726 -0.02136959 0.037156872 -0.03047704
-0.0240272 0.12407851 0.044053156 0.17039342 0.042093765 0.026868088 -0.1350553 0.05278912
0.058566164 0.15110768 -0.088431396 0.09141632 -0.041208718 0.15112996 0.15392543 -0.1261281
-0.14565188 0.13910572 -0.16004159 -0.110762276 0.124682754 -0.07928499 0.020133192 -0.07716892
0.0017727135 0.012972463 0.024899514 -0.024385871 -0.1652917 0.029389735 0.03705273 -0.10084634
-0.07959084 0.097447574 0.15406598 -0.08832352 0.027831882 0.17306413 0.05370985 -0.1516563
0.038275555 -0.07312377 0.066011086 0.06705812 -0.060645234 -0.14097981 0.14844802 -0.12179965
0.10392123 0.07943857 -0.13505526 -0.060488142 -0.14072646 -0.013843364 -0.07214377 -0.12937005
0.1777046 -0.029804902 -0.090083934 -0.073266655 0.009190319 0.06915233 -0.12079624 -0.06571505

feature_extractor.encoder.0.mlp.4.bias f4 [32]
00000000: 577d d2bc dcfe 2d3e 32c5 b63d 0bcc 893d
00000010: 86e4 83bd 72fd 093e 0e5d 0a3e 92bd 833d
00000020: b3ba 2f3c a00b f83d 35dd 12be f5a1 2ebd
00000030: 311b 8c3d e593 bdbd 6e51 a93d b8d4 d73d
00000040: 3653 123e c543 0e3d 13ee e73c 14f1 ed3d
00000050: 1af1 24be 620e 73bd 6276 3b3e 76af 6d3c
00000060: bf22 203d 4ea9 9cba 1d34 f43d 5183 3b3d
00000070: b96a 9d3d 7b06 6b3d a5c3 523d 36e4 a4bd
-0.025694532 0.16991752 0.08924331 0.06728371 -0.06440072 0.13475588 0.1351206 0.06432642
0.010725665 0.12111592 -0.14342196 -0.042634923 0.06841124 -0.09256724 0.082674846 0.1053862
0.14289555 0.0347326 0.028311765 0.11618248 -0.16107598 -0.05933989 0.18306878 0.014507165
0.039095636 -0.0011952312 0.11924002 0.04577953 0.07686371 0.057379227 0.051456112 -0.0805134

feature_extractor.encoder.1.mlp.0.weight f4 [32, 26]
00000000: 2d40 483e 1388 1a3e c712 e5bd 49cb 32bd
00000010: b32b 1d3e 0af8 9e3d c22e 30be 58f2 dabc
00000020: bfbd 823d ac52 0d3d 0b3a 22be 1d4e cfbd
00000030: 17fe 97bd c03b 32bd 14c4 3a3d 9ac6 fe3d
00000040: df8c 373e 4a5b b4bd 0a59 3b3e c864 203e
00000050: 3e8c b5bc 33f5 d33d 668b 233e 8f42 b5bd
00000060: bab4 a6bd 6d4b 3e3e 694b ae3d 56ee 293b
00000070: 8c19 d53d 6199 163e f29a 18bc 7d30 17be
00000080: 87e7 15be f304 3fbe 299d db3d ea01 3b3d
00000090: fef9 06be b0b1 cfbd 449a a93d 14c9 a3bd
000000a0: 79e7 0c3e 9755 e3bd d8d6 10be bcf9 3c3e
000000b0: 2f8c 3f3d 30ad f2bd dcfa 013e 24fb 033d
000000c0: 9d82 213e da2c c6bd 38f4 023d ba95 efbd
000000d0: b06d 973d ae5f 36be 27a2 063e a41a 7abc
000000e0: 675a 4f3d b240 873c 5ca9 113e c7e5 273e
000000f0: 231b 98bc 73bf 9ebc f21a 6bbc 5718 c3bc
00000100: e518 7ebd e686 143c 3f5b bcbd 8df8 0abd
00000110: 633c 7a3d 2037 3b3e 6284 d4bd c2d0 39bd
00000120: 9826 c2bd 7ec0 c03d a918 ca3c a2cd 43be
00000130: 470d cf3d 53b1 b73c a5a4 40be 5b0b 9e3d
00000140: a057 19be 8982 8d3d 3398 f43d a39f 21be
00000150: 28ff 1cbd 2df4 8abd 4434 0abe e9b7 33be
00000160: 3375 3fbd 2f3d 97bc 4969 17be 8147 48be
00000170: 6959 fc3c e263 633d 52a2 53bd 8b4e 763d
00000180: 95d0 e73c 4c4b 7c3d 5f4f 213e d367 fabb
00000190: 5a24 693d f92c 7abd 5ef6 8dbd 8ed4 4a3d
000001a0: 8dd2 9fbb a2bb e5bd f399 1dbe 406d df3d
000001b0: a2ed dc3c 0529 8e3d fb4e 2ebe fdc4 3f3d
000001c0: 0ada 8c3c 6caf d73d eb73 10be 664a 9d3c
000001d0: 37c5 92bd f632 47be 7883 c1bd ddc0 08be
000001e0: 7501 01bc 4a42 173e fe2e 1b3d a73b 033e
000001f0: 46aa 89bd 3de6 063e 3096 50be b967 b9bd
00000200: 5e4e 1e3e 1006 32be 6701 0abe e61a 3cbe
00000210: 5e22 afbb 7d3b b83d 6ae8 cfbc 398d 11be
00000220: c6d6 a7bd e42d 0c3e f73e 433e 465a 46be
00000230: 4785 313e 826e 9bbc c157 00be 2044 02be
00000240: aa78 dcbc 0dd5 04bd 402f a53c 18c2 3a3b
00000250: 7d1c b53c af9a 16bd 1456 18bd 012e 0e3e
00000260: 0312 cabd a5d5 e33c 2359 b73d c4ad 2c3e
00000270: c680 913d 6d7d a93c 9ed3 f0bd 2bc8 a6bd
00000280: 7e4d 1b3e 2967 233d 9d56 2abc 67f9 2bbe
00000290: fc6e 3fbe 86b1 133e 6be5 0ebe eff9 79be
000002a0: e612 03be 957a 013c 3cd0 9abb 3c7a 543d
000002b0: 1227 443d b2d6 1fbd 13b6 013e 6bfb 02bd
000002c0: b9cf 203d ddb5 063e ff27 c23c 2f13 193e
000002d0: dc1c ddbd 31c7 d93d 6faa f23d 6497 0cbe
000002e0: f62a 07be 0eb1 e2bd 092c af3d 5b6e e1bd
000002f0: af25 833d a941 f5bd 11de 16be 4b3a 6e3c
00000300: 7546 c8bd 6fdd 0c3e 1497 1c3d d492 0f3e
00000310: b4c8 ddbc a905 023e ca8c 013e 3302 85bd
00000320: 8f69 ce3d 015b 3fbd 8ac0 ccbd f086 8ebd
00000330: b2c0 793b 5dc0 b8bd 0eff 54bd b0d6 26be
00000340: 1078 c93c 4d30 253d 0e65 e0bd c647 4abd
00000350: a25e cabc 3f29 a33d d0e5 cfbd 4f05 983a
00000360: 821d 253e 615f 77bd 0b36 30bd 8d59 62bd
00000370: cf0f f5bc b6bc f43d 5a82 0fbe 5981 eebd
00000380: 66cc 4a3e 1b1c 3cbe b38f 243e 38cd 4e3e
00000390: dbb8 d43c e5fe 49bd 8e5e 133e 01bf 18be
000003a0: 2e75 153e b4fc 96bd 3a52 a5bc 3d02 bcbd
000003b0: a688 26be 9020 b53d 021e 373e a8a5 08be
000003c0: b84a 38be 21fd 34be d645 fabd a0a1 cc3d
000003d0: d0ee 29bd 78d1 65bd 9e18 e9bd 5a90 26be
000003e0: 2cae cc3c b36d 1abe 3bc9 233e c310 a7bd
000003f0: 7da7 03be f931 da3d 54a0 433e fe45 383c
0.19555731 0.1509097 -0.11185222 -0.0436509 0.15348701 0.077621534 -0.17205337 -0.026726887
0.063838474 0.03450267 -0.15842454 -0.10122321 -0.07421511 -0.043514013 0.04559715 0.12440224
0.17924832 -0.088064745 0.18295684 0.15663445 -0.0221616 0.103495024 0.15971145 -0.08850586
-0.081399396 0.1858346 0.08510477 0.0025929413 0.10405263 0.14706947 -0.009314286 -0.1476459
-0.14639102 -0.18654232 0.10723335 0.045656122 -0.13181302 -0.10141313 0.08281377 -0.07997337
0.13760175 -0.11100309 -0.14144456 0.18454641 0.04676455 -0.11849439 0.12693352 0.03222193
0.15772481 -0.096765235 0.031971186 -0.1169848 0.07393968 -0.17809936 0.13147794 -0.015265141
0.050623324 0.016510341 0.14224762 0.16396247 -0.018567627 -0.0193784 -0.014349686 -0.023815317
-0.06203546 0.009065365 -0.09197091 -0.033928443 0.061092746 0.18282747 -0.103768125 -0.045365103
-0.094800174 0.09411715 0.024669962 -0.19121411 0.10109954 0.022423422 -0.18812807 0.0771701
-0.14974833 0.06909663 0.11943092 -0.15783553 -0.038329273 -0.06784854 -0.134965 -0.17550625
-0.04674263 -0.018461792 -0.14786257 -0.19558527 0.030804353 0.055515178 -0.051668473 0.0601335
0.028297702 0.061595246 0.15752934 -0.0076417713 0.056919433 -0.061078046 -0.069317564 0.049519114
-0.0048773945 -0.11217429 -0.15390758 0.1090951 0.02696878 0.069414176 -0.17022316 0.046818722
0.017193813 0.10531506 -0.14106719 0.019200515 -0.07166522 -0.19453034 -0.09448904 -0.13354822
-0.007873883 0.14771381 0.037886612 0.12815724 -0.0672193 0.13173766 -0.20369792 -0.09052987
0.15459582 -0.17385125 -0.13477097 -0.18369636 -0.005344673 0.089957215 -0.025379378 -0.14214028
-0.08195262 0.13689381 0.19066988 -0.19370374 0.17335998 -0.018973593 -0.12533475 -0.127213
-0.026913006 -0.032429744 0.020164132 0.0028497037 0.02210831 -0.03676861 -0.037191465 0.13884737
-0.09866717 0.027811835 0.08952548 0.16863161 0.0710464 0.02068969 -0.11759113 -0.08143648
0.1516628 0.039893303 -0.010396627 -0.16794358 -0.18694681 0.14423189 -0.13954704 -0.24411748
-0.12800178 0.007902761 -0.0047245305 0.051874384 0.047888823 -0.03902311 0.12667112 -0.031978052
0.0392606 0.13155313 0.023700712 0.14948724 -0.1079652 0.10633696 0.11848914 -0.13729626
-0.13199982 -0.11068927 0.08553321 -0.11007377 0.06403672 -0.11975414 -0.14733149 0.014540265
-0.097790636 0.13756345 0.038230017 0.14020854 -0.027073242 0.12697472 0.12651363 -0.0649456
0.100787275 -0.046717647 -0.099976614 -0.06959331 0.003810924 -0.090210654 -0.05200105 -0.16292834
0.024593383 0.040329266 -0.10956775 -0.049384855 -0.024703328 0.079668514 -0.10151255 0.0011598262
0.16124538 -0.060393695 -0.04302029 -0.055261184 -0.029914765 0.11950056 -0.14014569 -0.11645765
0.19804534 -0.18370096 0.16070442 0.20195472 0.025967052 -0.049315352 0.14391539 -0.14916612
0.14595482 -0.07372418 -0.02018081 -0.091801144 -0.16263065 0.088441014 0.17882541 -0.13344443
-0.17997253 -0.17674686 -0.122203514 0.09991765 -0.041487515 -0.056107968 -0.113816485 -0.16266003
0.024985395 -0.1508091 0.15994732 -0.08157494 -0.1285686 0.10654063 0.19104129 0.011247156

feature_extractor.encoder.1.mlp.0.bias f4 [32]
00000000: bf0c 0d3c 74d9 e9bd 104d aabd 51be 34bd
00000010: b38d 26bb 3f24 d83d 330a f23d 8d7b 8abd
00000020: 17b5 38bd 81db 923d 3157 123e 50bd 3d3e
00000030: cab0 c8bd 90fb a63d e0d7 0bbd 408c 203d
00000040: eca1 163e 0444 ec3d 5b96 49be 4639 313d
00000050: e3fd 2cbe d28a 48be f807 30be 1bc9 15be
00000060: 6b26 853d 2c89 18bd 5653 ce3d f33a 73bd
00000070: 4c08 2abe 6739 333d 3aa8 4b3c 554c 39be
0.008608996 -0.11418429 -0.0831548 -0.044126812 -0.002541405 0.105537884 0.118183516 -0.06761847
-0.045094576 0.07170773 0.14291073 0.18529248 -0.09799345 0.081534505 -0.03414142 0.039196253
0.14710206 0.115364105 -0.19686262 0.04326751 -0.16893725 -0.19584206 -0.1719054 -0.14627497
0.06501468 -0.037240192 0.10074489 -0.05938239 -0.16604728 0.043755915 0.012430245 -0.18095525

feature_extractor.encoder.1.mlp.2.weight f4 [32, 32]
00000000: 7db5 14bc c31e 78bd 3c3c 81bd bec7 873b
00000010: a7de d43d 871e 9e3d 6cff 883d 8912 7f3d
00000020: a9f9 1a3e 5af0 dabc 6e9b 9ebd 0f0c b83b
00000030: 5ee4 1a3e 6179 56bd b2f8 db3d 19ba 72bc
00000040: 1297 1fbe b95c 84bd 5b70 22be d663 19be
00000050: 9c92 ee3d f235 263e f89e 06bb 1cca 403c
00000060: 0d98 16be db51 9e3d d57d 8abd ef64 003e
00000070: cb8a 153e aa46 b93d 45e8 8cbc 884b c33d
00000080: 8acd 343e 18e9 00be db3e 023c ec68 74bd
00000090: 9815 18be 1e21 20be ea12 153e 4771 f73d
000000a0: 6bac de3d 788b 183d 65b2 c63d 28d6 ecbd
000000b0: 9807 2b3e a03d d3bc 023e 41bd 2e86 23be
000000c0: 87e7 97bd a7fa 33bd 7320 17bd 3913 b23c
000000d0: 662e 89bd bb15 293e b0b4 87bd 9a27 e93d
000000e0: d322 0fbd 78ab 15be ef14 de3d c068 7a3d
000000f0: cde7 28be 29ed 0a3d ed76 6c3d ad9d 9d3d
00000100: a9e5 2fbe ed64 013d 2522 0abe f18e a33d
00000110: d453 09be 2e8a 5e3d 3bc3 efbc ea83 e1bc
00000120: ac8a 06be 740a f73d a5ee 923d 314b 00be
00000130: 9bf0 243e 030b 3d3c 75dc 5cbb 024c 1cbd
00000140: 6c3f 1c3e 8a51 e73d 907f 113e 52a1 e5bd
00000150: 0aa9 133e 2790 3f3d 9bc4 e63d a0c7 31bd
00000160: 91c1 803c 9498 89bd 38eb 003e 1c19 bebd
00000170: 3c04 5cbc 53fa 6dbd ca5b 1c3e c813 dabd
00000180: a4aa 03bb 964e b1bd 490e f9bd 252f 043e
00000190: 4131 29be b7c6 debd 0cba 473d 93c4 35be
000001a0: 34cb dd3d 4bcf d23c f8a4 fe3c a12d 3fbb
000001b0: 9e35 18be d5db 2abe dbfe 8a3d 3377 a0bd
000001c0: b800 16be 84c6 0cbe 84e0 ff3c ed58 3fbe
000001d0: 2608 973d f915 77bd ac00 0a3e c098 1b3e
000001e0: 5cd6 f23d 23b9 683d b0d9 033e 8da1 52bc
000001f0: 9d54 133e 8d1d eb3d c14c 183d 7e0a 28be
00000200: a4de 993d 3a70 00bd 18b0 9d3d ad4e a83d
00000210: efe8 683c 4a85 dbbd b3aa a63d 8ea7 61bd
00000220: fb05 aebd bc4c bbbd e690 7dbd b6fd 2fbd
00000230: 7056 b23d 2eed 0d3e dd7a a4b9 41c3 08be
00000240: 7dab bf3d 052e 1b3e be8d 88bb 9938 99bd
00000250: 74d6 cebd a857 143d 37ad c03d 4aaf debd
00000260: be9b 7f3a fe36 ab3d 5b9d babd 25d9 bb3d
00000270: f6fc c5bd f7aa cf3d e599 0a3e 5ab3 22be
00000280: 9a38 373d d3f2 f5bd c83e d73d 1246 0ebe
00000290: ff99 a13d 6d90 efbd d3c8 30bc 0a5f 26bd
000002a0: bd77 7ebd d879 67bd 858a 97bd 8be3 ea3d
000002b0: 947d b33d 387c 46bd 4ca3 acbd ab06 003e
000002c0: 2046 f1bc 1fba fb3c 5f72 12be 8637 113d
000002d0: ba6a 2dbe c14e 213e 0382 543d 1881 e73d
000002e0: f69e 1a3e a6d9 e03d 6bff 47bd f7af 163e
000002f0: 4f5b 12be e500 05be 47aa 283c 2bc6 cabd
00000300: 5dba 4e3c 7ec4 5f3c 5f02 043e 9a00 193e
00000310: 3f01 653d 6ff8 c83c 40ad 1c3e e110 0ebe
00000320: 9a6d cf3d 88c6 17bd 9c9f 103e e096 13be
00000330: 6f09 b43c e612 e6bd 3fca c43d 0500 b4bd
00000340: 2427 0ebe 6c84 89bd 762e 6e3d fe4b e73d
00000350: f3ed e13d c594 e9bd aa23 d93d 6218 6e3d
00000360: 8bf0 423d 6c1b 5abd c042 3d3d 5732 5abc
00000370: 504b 1f3e 70dc e43d 15e6 1b3e b981 40be
00000380: 851c dcbc eddf 72bd b7f6 cd3d 1cc4 84bd
00000390: 1093 033e f99e a43c d69b 54bd dc29 e53c
000003a0: bcaf 163e 8837 fdbd 9c0b 3bbe 2780 2ebd
000003b0: 638d 833d b055 a73d 009a 213d c10d 11be
000003c0: 36c2 3b3d 6fe1 143e 1e7f 9a3d 535a 183e
000003d0: 9568 a33d 7647 9a3d 0e3a 1f3c 8673 d9bd
000003e0: 4519 923d e08d 22bc d522 42bd 724f 003e
000003f0: 91bb c53d a1a4 973d 8705 de3d 0066 39bd
-0.009076473 -0.06057621 -0.06310317 0.004143684 0.1039403 0.077206664 0.06689343 0.062273536
0.151343 -0.026725937 -0.077444896 0.005616672 0.15126178 -0.05236185 0.10740794 -0.014814877
-0.15584973 -0.06462998 -0.15863173 -0.1497949 0.11649057 0.16231516 -0.002054153 0.011766937
-0.1470644 0.077304564 -0.06762282 0.12538503 0.14603727 0.09046681 -0.017200598 0.09535891
0.17656532 -0.12588918 0.007949556 -0.059670374 -0.14851987 -0.15637633 0.14557996 0.12082153
0.1087273 0.037242383 0.09701995 -0.115642846 0.16702116 -0.025786221 -0.047178276 -0.15969154
-0.07417207 -0.043940213 -0.03689618 0.021737682 -0.06698303 0.16512196 -0.0662626 0.113845065
-0.03494532 -0.14616191 0.108438365 0.061135054 -0.16494675 0.03391758 0.057730604 0.0769609
-0.17177452 0.03159039 -0.13489588 0.07986248 -0.13410884 0.054330997 -0.029267898 -0.027528722
-0.13138837 0.12062541 0.07174424 -0.12528683 0.16107409 0.01153827 -0.0033700739 -0.038158424
0.15258569 0.11294849 0.14208817 -0.1121241 0.14419952 0.046768334 0.11267968 -0.043403268
0.0157173 -0.06718555 0.12589729 -0.09282133 -0.013428744 -0.058100056 0.1526939 -0.10648304
-0.0020090723 -0.08657567 -0.12160928 0.12908609 -0.16522695 -0.108777456 0.048761413 -0.17750768
0.108297735 0.02573361 0.031084523 -0.0029171484 -0.14864203 -0.16685422 0.06786891 -0.078352354
-0.14648712 -0.13747603 0.031234987 -0.18686266 0.07374601 -0.06032369 0.13476819 0.15194988
0.11857292 0.056817185 0.1287601 -0.0128558995 0.14387746 0.11480246 0.037182573 -0.16410252
0.075131685 -0.031357028 0.07699603 0.08218131 0.014215692 -0.10718782 0.08138027 -0.055091433
-0.084972344 -0.09145495 -0.061905764 -0.042966567 0.08707893 0.13860008 -0.00031372058 -0.13355733
0.09358881 0.15154274 -0.0041672876 -0.07481498 -0.100994974 0.036216408 0.09408038 -0.108732775
0.00097506854 0.08360098 -0.091120444 0.091722764 -0.09667389 0.10140031 0.13535269 -0.1588873
0.044731714 -0.12009206 0.105100214 -0.13893917 0.078907005 -0.11697469 -0.010790068 -0.04061798
-0.06212591 -0.056512684 -0.073994674 0.114691816 0.087641865 -0.048458308 -0.08429584 0.12502544
-0.029452384 0.030728398 -0.14301442 0.035453342 -0.16935244 0.15752698 0.0518818 0.113039196
0.15099701 0.10979013 -0.04882757 0.14715563 -0.14292644 -0.12988622 0.0102945035 -0.09901079
0.012617675 0.013657687 0.1289153 0.14941636 0.05590939 0.024532525 0.15300465 -0.13873626
0.10128327 -0.03705457 0.14123386 -0.14413023 0.021977155 -0.11234073 0.09608888 -0.08789066
-0.13882118 -0.067147106 0.058149777 0.11293791 0.11031713 -0.11405329 0.106025055 0.058128722
0.04759268 -0.053248808 0.046206236 -0.013317666 0.15556073 0.111748576 0.15224488 -0.18799485
-0.026869068 -0.059295584 0.10056823 -0.064827174 0.12849069 0.020095335 -0.05190643 0.027974062
0.14715475 -0.12364107 -0.18266147 -0.042602684 0.06423452 0.081706405 0.039453506 -0.14165403
0.04583951 0.14539121 0.07543777 0.14878206 0.07978932 0.07533161 0.009718431 -0.106177375
0.07133726 -0.009921521 -0.0473965 0.12530306 0.09654916 0.07404447 0.10840898 -0.04526329

feature_extractor.encoder.1.mlp.2.bias f4 [32]
00000000: a15f 013e 4817 31be a668 d33d 548a 933d
00000010: bfdb c6bd bea8 ba3d dfe5 efbd f8d8 ba3c
00000020: f089 a9bd e53f c03c fae5 a6bb c0ce 8c3d
00000030: b66c 6d3d e542 d83d ed97 0dbe 5387 bd3d
00000040: 6af6 dbbd ab90 073e 19dd 07be 10ed 2b3e
00000050: b5f1 14be 74bb a03b 361e a53c 17b2 e93d
00000060: 94cf 07bd 5c21 363e c809 06be 31b6 20be
00000070: 63fd 28be 08bd cbbd bca6 bfbd c4bd 5dbd
0.12634136 -0.17294037 0.103226945 0.07204118 -0.09709882 0.09114216 -0.11713766 0.022808537
-0.082782626 0.023467967 -0.0050933333 0.06875372 0.057965003 0.10559634 -0.13827486 0.09254327
-0.10740359 0.1323878 -0.13267936 0.16789651 -0.14545329 0.0049051587 0.020156007 0.11410921
-0.033156946 0.17786163 -0.13089669 -0.156945 -0.1650291 -0.09948164 -0.09357974 -0.054136053

feature_extractor.encoder.1.mlp.4.weight f4 [32, 32]
00000000: 5c0c 1b3d b10b 2f3d a8b5 56bc 540a 21be
00000010: 66b8 d3bd 71c4 b03d 126e a3bd 734f 0dbc
00000020: a484 083e 013a eb3c f099 89ba 31cf 17be
00000030: e7a3 db3d 1d92 4ebd 2581 0d3e d038 76bd
00000040: 206c b0bd 5986 babd cc6c bcbd fe2f 9f3a
00000050: ebd8 bebd 4670 90bc 6a04 e0bd 1d26 bc3c
00000060: 7e2d 0a3e 9e82 64bd 53fe 96bd 52e4 5c3d
00000070: 4cce cdbd f33d 173e 6167 2b3e 196b 15be
00000080: b437 043d ec81 e6bc 09c6 1e3e eda3 b83d
00000090: c32b 013e 888f eabd 6d78 f7b8 908d 71bc
000000a0: 38c7 093e 849c e039 527b e6bc 5c23 3d3c
000000b0: 8dac efbd ae16 16be 4c3f 88bd 800d 39bd
000000c0: e39b 173e 6a81 023e 733f 13bd 55de 173e
000000d0: 9114 c1bd f21b a93d fe9d efbc 763d 58bd
000000e0: f72c e83c 4e06 3a3b 6530 1e3e 487f 27be
000000f0: a6ee 9bbd ce51 f03d 0aaa 033e a7aa 9ebd
00000100: 5932 623c 0910 da3d 17fe 8d3d f03b 133e
00000110: eab7 f2bc 3d0a a83d dfc3 29be 7034 833d
00000120: 861f e7bc 5880 13be a722 19be 6d86 313d
00000130: f1c4 973d cb80 e23d eb56 1abe 16bf 86bd
00000140: 6ca9 f33d 6aa6 1dbe 20e2 abbd 01d9 65b9
00000150: 0939 27be d2ba 2dbe 847b 703d 04f4 d7bd
00000160: f264 0c3e 8e93 f53d 9ae8 18bd 29a6 ea3d
00000170: e919 413a 5fcc 3ebd 2d10 5fbd 379f 013e
00000180: 4aca 953c 3539 ffbc 6bcf c0bc fd8e 04bd
00000190: 9c95 2d3d 5416 fbbc e6e3 d13c 8601 f3bd
000001a0: 6e3e b0bd eddb aa3c 72b6 943d 573e 433b
000001b0: 18d6 003e bc36 063d 4836 cd3d 2a4d 47bc
000001c0: 70cc 173e c252 0abe c624 cbbd 8c3c 74bd
000001d0: 8421 cb3d 938e 6c3c 21e6 5a3c 8331 ed3d
000001e0: fe2b 18be 3658 abbc b78d 02be 1fe5 0e3e
000001f0: a019 3dbe e1b1 17be 7d89 803d 4f6d 183e
00000200: 85d0 d83d c516 12be cef7 ffbd de1f 013e
00000210: e934 073d d58f 8b3d 59b0 53bc eee8 093e
00000220: c01b 1f3e b99a d3bc f5c2 04be c28e 9f3c
00000230: 703a 8fbd 7dfb 203c 1143 b13d d13a 0bbe
00000240: 352a bfbd 4080 02bc 3dd4 d33d 15a6 f6bb
00000250: b9f3 e73d d768 7d3d 8f3a 2bbd f926 e6bd
00000260: 8ef9 3f3d 3e6d 0bbe 4002 133c ecf1 c1bc
00000270: b3ca af3b ee96 183e bef0 793d 73a8 aebd
00000280: 1b6f da3c 7a29 d93d 7a57 9dbd 7fcb e83d
00000290: 1bc2 42bd 5cd3 133d 7038 d9bd e873 1abe
000002a0: fc58 f3bd 59fa e33c daac d8bd 5ae1 1d3e
000002b0: 73dd 083d 2d6e 7e3b 2778 b3bc 7ff1 f63d
000002c0: bb96 a33d 3bea 703c 537a bd3d 2189 583d
000002d0: 6068 37bb 5a84 debd 09f9 833c b5ea 3a3d
000002e0: 0022 9bbd ffea 11ba 49d3 233e f881 20be
000002f0: 53d6 cb3d 4084 4e3b 19a0 1b3e d741 043e
00000300: 1574 b8bd 93ea 16be 8380 083e d335 eabd
00000310: eedb ea3d cfe8 1d3e 72c2 393d 37e1 9cbd
00000320: 2473 073e 9e02 01be cbe5 3ebd f1dc 19be
00000330: eefa 793d 622e cdbd b3db 16be 2ac4 243e
00000340: 5422 f23d a6bc a63d 5dc9 ef3d 23ae 163c
00000350: b777 083e 6613 afbc fa8f 7cbd 9407 1dbe
00000360: 8159 1fbe 3f2c 323d 5b39 b83d d763 a1bd
00000370: f6c3 8dbd 10c2 2f3e ee76 063e 7b10 17bd
00000380: f2c8 bebd c0e5 903d 071f 24be c649 d5bd
00000390: e4ab dd3d fa22 34be d98b b63b 578a 573d
000003a0: 6d9b a8bd a0d0 263b 1c66 2ebd afc5 813d
000003b0: 13ec 11bd f433 1fbe 62cf 2bbe 4c54 013c
000003c0: f58b 5cbd 3e80 263d 2956 083e a361 a33a
000003d0: 591e 8fbd b174 67bd 1570 793d 01a8 d1bd
000003e0: f6bf 29be 5a4c 2bbe 6b8e eebd 854c 95bb
000003f0: 127b 4c3d c579 29be c696 debd 4ad4 ad3d
0.037853584 0.04273576 -0.013104834 -0.15726596 -0.103379056 0.08631218 -0.079799786 -0.008624899
0.13331848 0.028714182 -0.0010498147 -0.14825131 0.10724621 -0.050432313 0.13818796 -0.060112774
-0.08614373 -0.09107656 -0.09200439 0.001214504 -0.093187176 -0.017631661 -0.10938342 0.022967393
0.13493916 -0.05578863 -0.07372727 0.05392868 -0.10049114 0.14769726 0.16738655 -0.14591636
0.032279685 -0.028138123 0.15505232 0.09015641 0.1261435 -0.11453158 -0.00011800309 -0.014743224
0.13454902 0.00042841223 -0.028134976 0.011544075 -0.11702833 -0.14657089 -0.06652698 -0.04517889
0.1480556 0.1274468 -0.03594918 0.14830907 -0.09427751 0.08257283 -0.029250141 -0.05279299
0.028341753 0.0028385106 0.15448149 -0.16357148 -0.07613878 0.11734353 0.12857834 -0.07747393
0.013805949 0.1064759 0.069332294 0.14378333 -0.029628713 0.08205078 -0.16578625 0.06406486
-0.028213274 -0.14404428 -0.14954625 0.04334109 0.074106105 0.110597216 -0.15072219 -0.065794155
0.11897549 -0.15395513 -0.08392739 -0.00021919982 -0.16330351 -0.16965798 0.058711544 -0.10544589
0.13710383 0.119910344 -0.0373312 0.11457474 0.00073662266 -0.046581622 -0.054458786 0.12658392
0.018284936 -0.031155208 -0.023536405 -0.032362927 0.042379007 -0.030650295 0.025621366 -0.11865525
-0.086056575 0.020856822 0.07261361 0.0029791796 0.1258167 0.032767043 0.10020119 -0.012164393
0.1482408 -0.13508132 -0.09919123 -0.059628054 0.09918502 0.014438289 0.013360531 0.11581709
-0.14860532 -0.020916086 -0.12749372 0.1395459 -0.18466806 -0.14813949 0.06276224 0.14885448
0.10586647 -0.14266498 -0.12498437 0.12609813 0.033009443 0.06814543 -0.0129204625 0.13467762
0.1553793 -0.025830613 -0.12964995 0.019477252 -0.06993568 0.0098255845 0.0865537 -0.13596655
-0.09334222 -0.0079651475 0.103432156 -0.0075271227 0.11325783 0.06186756 -0.041803893 -0.11237902
0.046868853 -0.13615891 0.008972704 -0.023674928 0.00536474 0.14901325 0.061020605 -0.08528223
0.026664307 0.10603614 -0.076827005 0.11366939 -0.047548395 0.03609024 -0.10606468 -0.15083277
-0.11882207 0.027829336 -0.10579844 0.15417996 0.033414315 0.0038822994 -0.021907879 0.120577805
0.07987734 0.014704282 0.09251847 0.05286515 -0.0027985796 -0.10865088 0.01610996 0.04563399
-0.07574844 -0.0005566328 0.15998568 -0.15674579 0.099529885 0.0031511933 0.15197791 0.12915741
-0.09006516 -0.1473792 0.13330273 -0.114360474 0.114677295 0.1542084 0.045351453 -0.07660144
0.13227516 -0.12598655 -0.046605866 -0.15025689 0.06103032 -0.100186124 -0.14732246 0.16090456
0.11822954 0.081414506 0.11708329 0.009196791 0.13326918 -0.021371555 -0.061660744 -0.15334922
-0.15561487 0.043499228 0.08995315 -0.07880371 -0.06922142 0.17163873 0.13131306 -0.03688095
-0.09315671 0.07075071 -0.16027461 -0.10414462 0.10823801 -0.17591467 0.0055708704 0.052622166
-0.0823277 0.002545394 -0.042577848 0.06336533 -0.03562553 -0.15547162 -0.16778329 0.007893633
-0.05384441 0.040649645 0.13314117 0.0012465011 -0.0698821 -0.05650777 0.060897905 -0.10237122
-0.16577134 -0.16728345 -0.11648258 -0.004556241 0.049922056 -0.16550358 -0.108686015 0.084877566

feature_extractor.encoder.1.mlp.4.bias f4 [32]
00000000: e2ee 64bd 5bd5 bebd fbe7 083e c473 ebbd
00000010: 19e0 263e b3b3 11bd 88e8 e73d e3ab 2f3d
00000020: 1575 e13d e6e7 1ebe 6493 08bd ba65 1bbd
00000030: 473a 273d a1ba d43d 6951 2abe 8cf8 003e
00000040: 60b9 bb3d 98d1 2bbc d41f 7dbd 8092 4dbd
00000050: 8af8 c53d 1ea7 073e 3ab8 223e a414 2d3e
00000060: 87ef 0e3d 1e29 3dbe f106 303d 0c44 bf3d
00000070: 5283 31be 2ea7 e5bd a416 a63c 7c45 e23d
-0.05589188 -0.09318038 0.13369744 -0.1149669 0.16296424 -0.035571765 0.11323649 0.042888533
0.1100866 -0.1551815 -0.033343688 -0.03793881 0.040827062 0.10387159 -0.16632618 0.12594813
0.09166217 -0.010486983 -0.06179793 -0.05018854 0.09666546 0.13247344 0.1589059 0.16902405
0.0348964 -0.18472716 0.04297537 0.09339151 -0.17335251 -0.112135276 0.020274468 0.11048409

feature_extractor.fc1.weight f4 [32, 97]
00000000: 3786 ba3d db03 11bd 16f7 923d b160 b63d
00000010: 4458 b73d 8a28 c8bb 3566 dabd 2115 73bd
00000020: edd9 573d b5cc d7bd c659 763d d996 943d
00000030: 6fdc b23c d1dd e4bc 4c5e 89bd 5dc3 95bd
00000040: 128d 163d 8e64 45bc b923 9c3d af99 1dbd
00000050: a3d0 a0bd 500a 5f3d 97bb b5bd f5c2 ce3d
00000060: 9f7b 12bc 86db 4f3c ca07 503d f148 d0bd
00000070: f033 bd3d 2db2 dbbd d402 0cbb a09b 1f3d
00000080: f5b3 a8bd bc72 073b 38d6 9fbd bc85 69bd
00000090: 9c2c b2bd ca46 b9bd aa04 acbc 07b7 ae3c
000000a0: ca91 86bd 724e 823d d513 0f3d 1c20 813d
000000b0: da54 8fbd 87be 70bd d688 183d b93b 7bbd
000000c0: a6a8 e03c 9b2b cc3c 4658 c33d bbe0 aabb
000000d0: b966 31bb 91e4 6e3d c3b4 ac3d e757 1fba
000000e0: c833 4bbd 6999 c4bb 6166 373c dbf8 6e3b
000000f0: 8859 9f3d 4332 d23d 5fd9 f4bb 48e5 73bd
00000100: 1931 9a3d 2c37 c63d ea60 d4bd cbff e03c
00000110: 0339 04bc 2bfb 93bc 98b5 963d b98b e3bc
00000120: 2dbc 273d 3c92 07bd 8875 57b9 f1fb 8b3d
00000130: b392 623d d3b3 0abd ffec fdbc a0fc cfbb
00000140: b357 6bbc c502 03bc d766 b3bd 361f b93d
00000150: af71 aeba 9dc0 d5bd ed8e 5fbd 227f 97bb
00000160: 9334 87bd 39e8 50bc 4e65 103d 0e57 e73b
00000170: b321 3bbd 3f91 873d 3975 31bd b8a5 3dbd
00000180: e74a 8b3b 39eb a4bc ca69 9c3c 8dd4 4e3b
00000190: db25 963d d8c5 1ebc cf4b 5a3b 74e9 e33c
000001a0: 8248 37bc d2e8 693d 078d ae3d 03df d33c
000001b0: 8f1e abbd b18d 73bc 6a02 c03d d7a4 bebd
000001c0: 13e9 95bd b12c 40bd fdb1 3a3d d662 4f3d
000001d0: 0ea4 193d f196 dd3d 13b7 84bc 1b69 a8bd
000001e0: c194 363c 57d2 b23d 5490 0e3c de20 7ebd
000001f0: a6fe 01bd fd18 7cbd b8d5 df3c abfa 943d
00000200: fcae eb3c bb98 253d d470 a23c fe25 983d
00000210: c69b d13c d596 c93c 85eb 5ebd 226b 9ebd
00000220: 1913 2d3c c2a5 b0bc 0306 f63a 340e be3c
00000230: d017 a1bd 9bcf a43d 4506 493d 180d 9dbd
00000240: f670 bf3b 2945 babd 2df6 efbc 391f 853d
00000250: b5f9 2abd 565f 013d f8d8 c23d 04cf 9dbd
00000260: 43ca b73d 1ed4 ff3c bd10 333d f8ec b4bd
00000270: e423 8b3d e1b6 41bd 2f0f b1bc 9795 5abd
00000280: 27ad 84bc 8825 0abc 3d48 973d 0b63 d9bd
00000290: a71f 1f3c bef3 28bd fca3 6fbc 0a45 c9bc
000002a0: c1a9 233c 9509 cd3d 9066 a3bd 35f4 9abd
000002b0: 09f1 b53a 997f 7c3d e2c4 73bc af1e 2f3d
000002c0: cf77 06bc 20b4 103d 0313 9e3c 88d7 dfbc
000002d0: e578 bf3b ece1 04be 7224 b8bd 1d29 23bd
000002e0: f8a8 fcbd 2e34 a0bc b03d febc ec30 c73d
000002f0: 9733 4e3c 9742 0d3d fc0f 393d a21f 833b
00000300: 92f2 75bd 049a 89bc a014 6ebb f46e 8c3d
00000310: 8312 8ebd 875d c3bb 01d2 bfbd 9d9e b1bd
00000320: f97e 41bd 9967 c93c 7c92 33bd aaac 35bd
00000330: b77c 6d3d 04a2 893c c258 9abd fbb1 c1bc
00000340: 5735 a43d 8e96 a83d 5d10 5bbd 8b20 39bd
00000350: 0792 90bd 2ef9 b8bd 5b85 d1ba 15d9 143d
00000360: 012f 093d d893 5cbd db5a 033c 2b7c afbd
00000370: 4e33 bfbd c1ed 9b3d 3166 c2bd 41bd 3cbc
00000380: 7826 3e3d 7a5c 8e3d 112e acbc 2bfd b6bb
00000390: 4db9 bdbd 1391 863c 1636 9dbc cba7 8a3d
000003a0: 2c79 cebd 4f75 95bd 82f7 77bd aec2 213d
000003b0: d0a6 69bc ed7e 82bd b82c 8e3b 076c 6d3d
000003c0: d998 1ebd 68d7 823d d427 a33b c5bb 20bd
000003d0: 694f 0cbd 0b35 d5bc 4f25 6f3d dc6f 2a3d
000003e0: cea9 b8bb 7206 9ebd d599 adbd 6c07 fb3c
000003f0: d851 90bd 423e 9c3c 8534 a93c 3652 723c
0.09107631 -0.035404067 0.07176034 0.08905161 0.08952382 -0.0061083483 -0.10664026 -0.059346322
0.052698065 -0.10537092 0.06014421 0.072553344 0.021833627 -0.027937802 -0.06707439 -0.07312653
0.03675563 -0.0120479 0.07624001 -0.038476642 -0.07852294 0.054453194 -0.088736705 0.10095779
-0.008940606 0.012686616 0.05078868 -0.101701625 0.09238422 -0.10727344 -0.002136399 0.038966775
-0.08237449 0.0020667752 -0.07804531 -0.057012305 -0.08699915 -0.09046705 -0.020998318 0.021327509
-0.06570776 0.063626185 0.034931023 0.063049525 -0.06998606 -0.05877545 0.037239872 -0.061336253
0.027424168 0.024923136 0.09538321 -0.0052147782 -0.0027069284 0.058323447 0.08432915 -0.0006078467
-0.04960993 -0.005999733 0.011193843 0.0036464247 0.077807486 0.10263493 -0.0074722017 -0.05954483
0.07528896 0.09678492 -0.103700474 0.027465722 -0.008070233 -0.018064102 0.07358855 -0.027776586
0.040950943 -0.033098444 -0.00020547782 0.068351634 0.055315685 -0.0338629 -0.030996798 -0.006347254
-0.014364171 -0.007996266 -0.087598495 0.09039156 -0.0013309027 -0.10437129 -0.054579664 -0.0046233097
-0.066018246 -0.012750679 0.03525286 0.0070599383 -0.045686435 0.066195 -0.043324683 -0.04630062
0.0042508724 -0.020131694 0.019093413 0.0031559796 0.07331439 -0.009690724 0.0033309346 0.02782128
-0.011186721 0.0571068 0.085229926 0.025863176 -0.08355438 -0.014865325 0.093754604 -0.093087845
-0.07319846 -0.04691762 0.0455799 0.050631367 0.03750997 0.108198054 -0.016200578 -0.08223172
0.011143864 0.087315254 0.008701403 -0.062043063 -0.031736992 -0.06154727 0.027323589 0.072743736
0.028769962 0.04042886 0.019829191 0.074291214 0.025586974 0.024608055 -0.054423828 -0.07735278
0.010563635 -0.021563414 0.0018770102 0.023200132 -0.0786587 0.0804741 0.049078245 -0.07668513
0.0058423234 -0.090952225 -0.02929219 0.06500096 -0.041742045 0.03158506 0.0951404 -0.07705501
0.08974125 0.031229075 0.043717135 -0.08834261 0.06793955 -0.047293548 -0.021613685 -0.053365316
-0.016195847 -0.0084318 0.07386825 -0.10614594 0.009712136 -0.041248076 -0.014626499 -0.024569053
0.009989203 0.10011593 -0.079785466 -0.0756611 0.0013881038 0.061645124 -0.0148784835 0.04275387
-0.0082072755 0.03532803 0.019296175 -0.027324453 0.005843269 -0.12976807 -0.089913264 -0.03983413
-0.12336916 -0.019556131 -0.031035274 0.09726128 0.012585542 0.034487333 0.04518126 0.0040015737
-0.060045786 -0.016797073 -0.0036328211 0.068571 -0.069371246 -0.005962077 -0.09366227 -0.08672831
-0.04724023 0.024585532 -0.04384087 -0.04435412 0.057980265 0.016800888 -0.075364605 -0.023644438
0.08017986 0.08231841 -0.053482402 -0.04519705 -0.070591025 -0.09031902 -0.0015985178 0.036339838
0.033492092 -0.053851932 0.008017267 -0.08568605 -0.093359575 0.07613707 -0.09492148 -0.011519731
0.046423405 0.06951232 -0.02101806 -0.005584379 -0.09263859 0.016426599 -0.01919083 0.06770285
-0.100817055 -0.072977655 -0.060538776 0.0394923 -0.014260963 -0.063718654 0.004338827 0.05796435
-0.038719986 0.06388742 0.004979113 -0.03924157 -0.03425542 -0.02602627 0.05838519 0.041610584
-0.0056354767 -0.07716073 -0.08476607 0.030643187 -0.070468605 0.019072656 0.020654926 0.014790108

feature_extractor.fc1.bias f4 [32]
00000000: 03ac 833d b624 1f3d d886 b83d cd63 94bd
00000010: f58b bd3d 58b3 b5bd 40d2 503d b1ef ac3d
00000020: b906 ac3c e395 aabd 096e a6bc 49b3 18bd
00000030: 7b56 2b3d c7e5 993d 22d0 1a3d 30db 44bd
00000040: ed35 88bd c338 d73c 9685 33bd 5333 febc
00000050: bf98 073d 04b9 55ba 7509 59bd f0ee a4bc
00000060: 7499 d63d f65c 6bbd f3c9 d0bd fb37 bbbd
00000070: f976 a63d 7fa9 2ebd 79ec bdbd e22a acbc
0.06429293 0.03885337 0.090100944 -0.07245598 0.0925521 -0.08872098 0.05098176 0.08444155
0.0209993 -0.0832937 -0.02031614 -0.037280355 0.04183052 0.0751453 0.037796147 -0.048060596
-0.066509105 0.026272183 -0.04382857 -0.031030333 0.033104654 -0.00081528747 -0.052987535 -0.020133466
0.104784876 -0.0574617 -0.10194769 -0.09141537 0.08128161 -0.042642113 -0.09273619 -0.021016542
