examples/micro/cost_predictor.pt (torch, 41514 bytes, 13 tensors)

weight f4 [32, 104]
00000000: 6d04 6fbd c1dc 84bd 94f2 1bbd 136c d6bb
00000010: 90d6 593d 16b5 80bc 9bfa 823d 346c 333c
00000020: 061f 3c3e 6eec c5bd 3e51 10be 6de8 0bbd
00000030: 1628 6dbd 911a 45be c30e 0fbe 7627 3dbe
00000040: 3c07 23be 2e92 54bd e1df 4e3d 4a9b a8bd
00000050: 65ea 0dbe a914 84bd 0265 93bc 8a8a 583b
00000060: cfa8 dcbc 9195 1b3e 042e 583e 743d 73bd
00000070: f2a9 c0bd fd52 94bc 055c 30bd 1558 76bd
00000080: 5357 883b dbe8 34bd ff43 52bd ff31 9abc
00000090: fe47 0a3d a930 6dbd ddb0 a8bd 0d36 e9bd
000000a0: 963c 51bd ff63 13bd 9061 67bd 34e7 41bd
000000b0: 0957 80bc dc30 b3bd ea8f 1bbb e757 543c
000000c0: 305b 4e3c 6204 cf3c abf2 a23d 1c4b 713d
000000d0: 565e c3bd d429 6bbb 4e7f c4bc c583 b63c
000000e0: 9b4c a03c 65f8 f83c c667 383d 280b 8abd
000000f0: fb45 603d 9a53 1c3d b9d6 a3bd 66b3 e93c
00000100: 3ecd b4bd 8060 3bbd 9d70 1ebc 0180 b2bd
00000110: 1b28 9c3d 6b78 0abc 4ec4 3e3d a19e 633c
00000120: 45bb 23bd 56df 9ebc 36df c2bc 45e6 443d
00000130: 0e6d 743d 1796 403d 4930 94bc 0e39 e33c
00000140: 8ac7 963d 41ce 423c 81cb aabd a797 063d
00000150: 25f0 38bd 303f a7bd ee04 1bbd 697d 8a3d
00000160: 82a2 e93d 4e1a 2c3e 36ab 94bc 9dc3 47bd
00000170: 6a22 02be b70f ab3d 6610 dd3d fc15 cd3d
00000180: 8030 e03c b321 2ebe 4b11 63bd 8305 29be
00000190: 6462 773d f509 823d 16a1 07be d9b5 26be
000001a0: fdb7 213c eff8 f53c 2678 4e3d be1a 073d
000001b0: 33a1 29bd f65c 55bd 1efb d0bd ecc8 fdbc
000001c0: 22bc febc ecbc 4abd de42 aa3d 5ff1 e33d
000001d0: e42b 92bc 4764 0e3e 2533 d03d 266f 423d
000001e0: d4a9 87bc 2c29 ee3d 5b4f 6e3d e981 133d
000001f0: 7c2a 04bc 3e31 6ebd 0bec bdbd 4133 dcbc
00000200: d00e 713c 1452 a2bd 39b6 f23b c50f fcbb
00000210: d94d c5bd dfeb 37bd 5d2d e5bd 4af3 8f3d
00000220: ef8c c03c a2bd 0c3d 7fc7 2b3d b1bb 593d
00000230: d580 72bd a666 2dbd 6cd8 c0bd 6da5 663c
00000240: 5136 12bc 26c0 ca3c c5af 64bd 122a febc
00000250: 8fce 97bd e795 18bd 7007 303d f66f 96bb
00000260: b42c 03bd e8fa 503d 2dd9 00bd 4ebe 01bd
00000270: 221d 9d3d 3ecd c93d eb84 af3d 4fcc af3c
00000280: 3b76 07bd f2fe a7bc 472a 48bd 1edd aebd
00000290: ba85 b23a fcff 5b3d 0b18 b6bc 1f57 3ebd
000002a0: eaee dd3b aa63 9bbc 23f5 86bd 3e90 97bc
000002b0: 8739 d7bc c259 e23c ddc6 01bb a90d 9bbc
000002c0: e5b2 2fbd fefc 4c3c 4b9b 82bc 15bd 8e3c
000002d0: 0e9b 1c3c 850a 9fbd b223 cf3d b4c0 243d
000002e0: 92d5 253c b3bd 7e3d 82fc 8cbd 691e 8dbd
000002f0: c4b1 3a3d 8055 8e3d dc08 7cba 6b3b 943d
00000300: 019e 02bd 56d1 51bd 0e8a b9bc dcff 5b3c
00000310: 907a 81bd cd5e 9ebd 8e1a 2bbd 0930 f9bd
00000320: 6f94 3c3d 8836 6b3d a4da 62bd 7029 883c
00000330: 38eb 08be 8f70 5b3b 0929 b1bc 289a 9a3d
00000340: 2881 2a3c 2748 dfbc a326 473d ba00 16bd
00000350: 8823 673d 09fd c4bc fbd2 353d 9695 e3bc
00000360: 300a c5bd 0fb2 d13d 4061 fa3d 3539 b03d
00000370: 149a 1b3e 8fd0 273d 67da 133e 92bd 2d3d
00000380: 83ff f73d b8aa 353e a224 c03c c811 413d
00000390: 235d ad3d c7db c33d bc28 f93d c9dc a63c
000003a0: f197 fcbd c07b 10bd 465b 5fbe 4845 0d3d
000003b0: 5004 fabc 45f4 d03d 1b46 1b3c a82b ea3c
000003c0: aad0 8abd 1a48 b73d b7fe a23d f1d1 583d
000003d0: 2849 60bd 1328 003e 9e02 6cbc 66b0 92bd
000003e0: 0868 573c 197e 24bd 4f18 613d 95f5 833c
000003f0: c1ad ef38 463c e23d fcb0 67bd 07ef 9abd
-0.05835383 -0.06487418 -0.038073137 -0.006543645 0.05318314 -0.015711349 0.063954554 0.010951091
0.1837121 -0.09664236 -0.14093491 -0.034157205 -0.057899557 -0.19248416 -0.13970475 -0.18472084
-0.15920728 -0.05189722 0.050506476 -0.08232744 -0.13858946 -0.06449253 -0.0179925 0.003304156
-0.026935963 0.15193774 0.21111304 -0.05938478 -0.094074145 -0.018105978 -0.043056507 -0.060142595
0.0041608005 -0.04416738 -0.051334377 -0.018822668 0.033760063 -0.057907734 -0.08236859 -0.113872625
-0.05108317 -0.035984036 -0.056489527 -0.047339633 -0.015666502 -0.087495536 -0.0023736903 0.012960411
0.012594983 0.025270645 0.079564415 0.05890952 -0.095394775 -0.0035883086 -0.023986485 0.02227963
0.019567778 0.030391881 0.04502084 -0.06740409 0.05475424 0.038165666 -0.079999395 0.028527927
-0.08828209 -0.045746326 -0.009670404 -0.08715821 0.07624837 -0.008451561 0.04657393 0.013892801
-0.039973516 -0.019393604 -0.023788076 0.048071165 0.059674315 0.047018137 -0.01808943 0.027737167
0.07362278 0.011889995 -0.083395965 0.03285947 -0.045150895 -0.08166349 -0.0378465 0.06762201
0.11407949 0.1680691 -0.018148046 -0.048770536 -0.1270844 0.08352607 0.107941434 0.10013959
0.027366877 -0.17005043 -0.055436414 -0.16506009 0.060396567 0.063495554 -0.13245043 -0.16280307
0.009870526 0.030025927 0.05040755 0.032984488 -0.041413497 -0.052090608 -0.10204147 -0.030979596
-0.031095568 -0.049496576 0.08313535 0.11130022 -0.017843194 0.1390544 0.10166005 0.04746928
-0.016560473 0.11628947 0.058181148 0.036012564 -0.00806677 -0.05815243 -0.09273537 -0.026879909
0.014713004 -0.079258114 0.0074069765 -0.0076923096 -0.09633989 -0.04490268 -0.11190293 0.070288256
0.023504702 0.034360535 0.0419383 0.053157512 -0.059204895 -0.04233422 -0.09416279 0.0140775265
-0.008924083 0.024749827 -0.05583169 -0.03102592 -0.07412445 -0.037252333 0.042975843 -0.0045909835
-0.032025054 0.051020533 -0.031457115 -0.03167563 0.07671572 0.098536 0.08570274 0.021459727
-0.033071738 -0.02050731 -0.048868444 -0.085382685 0.0013620176 0.053710923 -0.022228261 -0.046469804
0.0067728655 -0.018968422 -0.06589725 -0.018501397 -0.026272548 0.02763069 -0.001980237 -0.018927412
-0.042895216 0.01251149 -0.01594319 0.017424146 0.009558452 -0.07765678 0.1011423 0.04022284
0.01012172 0.06219263 -0.068840995 -0.06890566 0.045579687 0.069499016 -0.0009614357 0.072378956
-0.031888966 -0.05122503 -0.022648837 0.013427701 -0.06322205 -0.077329256 -0.04177337 -0.12167365
0.046039995 0.057425052 -0.055384293 0.016621321 -0.13370979 0.0033483838 -0.021626012 0.07548934
0.01040677 -0.027256085 0.04862083 -0.036621787 0.05643037 -0.024046438 0.04439066 -0.02778129
-0.09621084 0.1023904 0.1222558 0.086046614 0.15195495 0.04097038 0.14438783 0.042417116
0.12109282 0.17740905 0.023454968 0.0471361 0.0846503 0.095634036 0.121659726 0.02036895
-0.12333668 -0.035274267 -0.21812162 0.0344899 -0.030519634 0.10202841 0.009477164 0.02858527
-0.06778081 0.08949299 0.07958739 0.05293459 -0.054757267 0.12515287 -0.014404921 -0.071625516
0.013147362 -0.04015932 0.054954823 0.016108314 0.00011428772 0.110466525 -0.05656527 -0.07565122

bias f4 [32]
00000000: 93c9 713d ed02 0ebd 9e7d 81bd 560e 793d
00000010: d074 adbc 8b17 133d 7f1c 53bd 914a 0b3d
00000020: fb97 ae3d ac51 453d 26b6 1b3d d90c 843d
00000030: 6af5 d9bd 3ea0 9abc d285 99bd cfc4 813d
00000040: 845b 35bb a33e bdbc a278 5a3d a9db ed3d
00000050: 647f 3dbd 6e18 a63d 3c31 553d 83fc 77bd
00000060: 5951 103d 82b3 8abd e84b 2c3d 48e1 1a3d
00000070: b235 b9bb 2c2a 8fba ae7c 863c 875c a43d
0.059030127 -0.03467076 -0.06322788 0.060804687 -0.021173865 0.035911124 -0.051540848 0.03400666
0.08525082 0.04817359 0.038015507 0.06447763 -0.10642512 -0.018875238 -0.07496227 0.063363664
-0.0027672956 -0.023101157 0.0533377 0.116141625 -0.046264067 0.08110128 0.052048907 -0.06054355
0.03523383 -0.0677252 0.042064577 0.0378125 -0.005652153 -0.0010922602 0.016416874 0.08025461

weight f4 [32, 32]
00000000: 5d09 ef3c dc34 cb3d 9852 1c3e 470b 593d
00000010: 1fe2 c1bc 8301 06be e466 29be 1edc 2dbe
00000020: 7448 89bd 4a95 1dbb 696b a7bd 22fa 84bd
00000030: e0ef ad3d b32c 07be 1ae0 173e 4ac1 213c
00000040: 70bb 05be fb75 a7bd 57e9 003c e8ef f9bd
00000050: 150d 05be 92d6 513d fe48 fb3d e13c 80bd
00000060: b080 fbbd 6382 033d 0e4e 153e c3d8 583d
00000070: bbc9 adbd 07ef 0c3e c58e f63d d695 263e
00000080: 8ddd 353d 9a31 253e 25d8 4fbd 33e2 93bd
00000090: b8a3 0e3e 8ea2 0cbe 1b5a 15be 2e40 a03d
000000a0: 3d41 9ebd c7d4 05be 4779 b3bd 338b 59bd
000000b0: d4e4 eabd 181b 163e c221 6f3d f4ac f33d
000000c0: dc9e f9bd 108f db3d 3873 9abd 7d09 f33b
000000d0: 1e72 b6bd 8ffa f83d 45a1 513d 5e65 fc3d
000000e0: 856c 813d 4977 bdbd ccc3 ba3c 5eeb b5bd
000000f0: 41f9 a7bd f837 243e 8a5a 0f3e 653d e6bd
00000100: 127c 0e3e 4434 bebd ea11 f1bd df29 033e
00000110: 9685 05be 2c0a e13b c6e6 0f3e eee9 7cbd
00000120: 2917 823d 95b7 903d f5ba 1ebe fe61 233d
00000130: 063c 8bbd 4c25 2cbe f500 443e 6cf6 363d
00000140: deba 3c3d 21c3 28bc 2265 44bd f26b d43d
00000150: a1e1 323e d4e1 243e 914e 003d 8407 14be
00000160: 3139 af3d c47b ec3d 1bd9 303e 96b2 a7bd
00000170: d38f 44bd 7a9a 5fbd 6177 f9bd e33f 263e
00000180: 8ed7 583d 5d56 283e e0e1 1f3e 098d 2abe
00000190: 1c8b c43c 5060 643d 573f bc3d 4394 7d3d
000001a0: f6df 14be 8a8c 6f3d 42e4 babc e88a c53d
000001b0: cf85 ae3d 0249 08be 4ee7 703d e8cf b23c
000001c0: ed17 d0bb fd60 18be 1aa9 7d39 dd02 b73d
000001d0: 510d 853d dda3 febd db33 7dbd d868 25be
000001e0: 768a d73d c06c 403d 31af 64bd c635 4c3d
000001f0: 550b d0bc 0235 303d 5470 373d 7846 c53b
00000200: 51c7 403e 7200 99bd 6952 f83c 819a f5bd
00000210: ee82 41bd bc8d c33d cb91 093e 9d6e 80bb
00000220: f604 433e a219 a9bc 65ed 1c3e 4376 7e3c
00000230: 3745 2ebd 278f 95bd b494 363d d624 a23c
00000240: c974 81bd 937c 863d b201 cabd cb9a 3d3e
00000250: eea0 613d 4b52 013e c40b c5bd 6a4f 1a3d
00000260: 4c2e dd3d bc0d 2abe 5d29 99bd ca3a 25be
00000270: afc1 193c a385 b53d d972 30bc 398f a3bd
00000280: 8e07 153e f232 fe3d 7c38 11be fdcd 003e
00000290: c0c9 303d 0681 423d 554f 1cbe 4a49 01bd
000002a0: b78d 8cbd 9cdc e33c 5c48 303e fb60 e6bd
000002b0: 5b8f 183d c301 223e 9cd3 dc3c f5dc 013d
000002c0: ebf0 bf3d e79e f8bc 33c3 6bbd 537a 83bd
000002d0: e7e5 8ebd 5871 fb3b 5825 1dbd 48d5 3fbe
000002e0: 6166 b83d 171e 70bd 5499 b43d c4da f6bc
000002f0: e3e8 033d 201e 023e 1ecf 34be fc83 393d
00000300: 2426 25be 67a6 e2bd 17b8 303e e360 be3d
00000310: ee3d da3d 6288 8f3d 48d4 20bc 6d95 b13d
00000320: 51bd 1dbe 347a 883d d3a5 2cbe ff82 19be
00000330: beda 18be 79f5 6dbd 1bc2 003e 5b59 6e3d
00000340: 9581 10bd 96ae 173e 75b6 c03d 4b11 04bd
00000350: 65ef 24be 72d0 0ebd 5118 3a3e f494 2c3e
00000360: 0fd4 373d a74f 17bd 92cc 9e3d 107d c23d
00000370: e2bd c03d 9763 093e f7a8 e73d 01d4 7fbd
00000380: 91da 1a3e 3112 f8bd 9aee 0d3e e966 26bc
00000390: 2a66 f43d a611 b63d ccf9 d63d 91a7 4c3c
000003a0: bd6c dcbc a494 09be a8cd e1bd 6b2d c0bd
000003b0: ed0d 723d 3ac6 c8bd 6955 0b3d 29c5 aabc
000003c0: 7fc1 833d 450a a73d 903d 3bbd 974d cb3d
000003d0: e917 cb3d 1206 cfbd 9ed7 0abe ff5c 143e
000003e0: cbe4 7f3d 4c65 1f3e 428b d0bc 29ed 66bc
000003f0: cab5 453d b081 3ebb 5a6e d43d 7504 94bd
0.02917927 0.099221915 0.15265882 0.05298927 -0.023667393 -0.13086514 -0.16543156 -0.169785
-0.067032725 -0.0024045282 -0.08174784 -0.064930215 0.08493018 -0.13200645 0.14831582 0.009872744
-0.13059783 -0.081768 0.007868133 -0.122039616 -0.12993272 0.05123002 0.122697815 -0.06261612
-0.122804046 0.03210677 0.14580557 0.052941095 -0.08485743 0.13763057 0.1203895 0.16268095
0.04440074 0.16132203 -0.05074324 -0.072208785 0.13929641 -0.13733885 -0.14585154 0.07824741
-0.07727287 -0.1306945 -0.08763366 -0.053111266 -0.11469427 0.14658773 0.058381803 0.118982226
-0.12188503 0.107206464 -0.075415075 0.0074169026 -0.08908485 0.12157165 0.05117919 0.12324022
0.063195266 -0.092512675 0.022798441 -0.08882783 -0.08201838 0.16036975 0.13999382 -0.11242179
0.13914517 -0.092873126 -0.11770995 0.12808941 -0.1303924 0.0068676677 0.14052877 -0.06174653
0.06352074 0.070662655 -0.15501006 0.039888375 -0.06798558 -0.16811103 0.1914099 0.0446686
0.046076648 -0.010300429 -0.04794801 0.103721514 0.17468883 0.16101772 0.031324927 -0.14455992
0.0855583 0.11547044 0.17270319 -0.081883594 -0.047988724 -0.05459068 -0.12180973 0.16235308
0.052939944 0.16439195 0.15613508 -0.16655363 0.023992114 0.055755913 0.091917686 0.06190897
-0.1453856 0.058483638 -0.02281392 0.09645635 0.08521616 -0.133091 0.05881434 0.021827653
-0.0063505084 -0.14880748 0.00024190955 0.08936093 0.064966805 -0.12433598 -0.06181703 -0.16153276
0.10524456 0.046978712 -0.055831138 0.04985597 -0.025396029 0.043019302 0.04478486 0.0060203634
0.18826033 -0.07470788 0.030312734 -0.1199236 -0.047244005 0.09548518 0.13434522 -0.003919436
0.19044861 -0.020642105 0.15324934 0.0155311255 -0.042546477 -0.07302695 0.044575408 0.019792955
-0.06321103 0.065667294 -0.098636046 0.1851608 0.055085115 0.12629049 -0.09621385 0.03767339
0.10799846 -0.16606802 -0.074785925 -0.16135707 0.009384557 0.0886338 -0.010769569 -0.07986302
0.14553663 0.12412061 -0.14181703 0.12578578 0.043161154 0.047486328 -0.15264638 -0.031564035
-0.068629675 0.027815156 0.17215103 -0.11248966 0.03724609 0.15820985 0.026956372 0.03170486
0.09372123 -0.030349208 -0.057559203 -0.06419816 -0.06977444 0.0076734237 -0.038365692 -0.18733704
0.09003902 -0.058622446 0.088183075 -0.030133612 0.03220452 0.12706804 -0.17657134 0.045291886
-0.1612783 -0.11066895 0.17257725 0.092958234 0.106563434 0.07008435 -0.009816237 0.08671079
-0.1540425 0.066639334 -0.16860132 -0.14991377 -0.14927194 -0.05809543 0.12574045 0.058190685
-0.03527983 0.14812693 0.09409801 -0.032243054 -0.16106947 -0.034866758 0.18173338 0.16853696
0.04487997 -0.036941197 0.077538624 0.0949651 0.09411217 0.13416897 0.11311524 -0.062458042
0.15122439 -0.12112845 0.1386055 -0.010156372 0.11933549 0.08890085 0.10496864 0.012491123
-0.02690732 -0.13435608 -0.11025554 -0.09383663 0.059095312 -0.09803434 0.034017 -0.020845966
0.06433391 0.08156256 -0.045713007 0.099269085 0.0991667 -0.1010858 -0.13558814 0.144886
0.062474053 0.15565985 -0.025457028 -0.014094629 0.04826907 -0.0029069 0.103726104 -0.072274126

bias f4 [32]
00000000: c688 2fbe 89e8 103e 47b5 3bbc de91 043e
00000010: dc0a 9cbd cece f23d c4e4 643d e97e 01be
00000020: ad07 753c 50c2 2c3d cea8 ba3c b332 95bd
00000030: 3a88 62bd 70bc d43c 121e afbd b813 d43d
00000040: c7de d9bc 9d4d 19be 5c72 203e 3edd 95bd
00000050: b110 263e 5c22 0cbe af93 52bd 3236 6fbd
00000060: f555 023e 9bb3 843d 1331 87bd 18f5 d3bc
00000070: 4d57 e3bd 9b99 993d 775f bebc 2dbb 00be
-0.17142019 0.14151205 -0.011456794 0.12946269 -0.07619259 0.11855851 0.05588223 -0.12646069
0.014955443 0.0421775 0.02278557 -0.07285061 -0.055305697 0.02596876 -0.08550657 0.103553236
-0.026595486 -0.14971013 0.15668625 -0.07317589 0.16217305 -0.13684982 -0.051410373 -0.058401294
0.12728103 0.064795695 -0.06601157 -0.025873706 -0.11100636 0.07500001 -0.02323888 -0.12571402

weight f4 [8, 1, 3]
00000000: 7523 92be a611 883e 3e61 073f be9c bebd
00000010: 066c bb3d 13f3 8bbe 3e10 413f bd6c e03c
00000020: 2d33 e03d a8ae 1f3e 8376 ffbc 5c50 2a3f
00000030: 571d ee3e 42ed 02bc 0ab0 ee3e 703c 04bf
00000040: a9ec 7cbe f280 de3d ed2b f5be 3922 a5be
00000050: bdf6 ce3e 3da7 b03e 47d8 28bf b034 993e
-0.28542677 0.26575965 0.52882755 -0.0930724 0.09151463 -0.27333888 0.7541541 0.0273956
0.10947261 0.1559397 -0.03118444 0.6652887 0.4650676 -0.007991137 0.46618682 -0.5165472
-0.24699654 0.10864438 -0.47885075 -0.32252672 0.4042262 0.34502593 -0.65955013 0.2992301

bias f4 [8]
00000000: bc04 efbe 1f82 4ebe a466 903e 3d10 ad3e
00000010: 1709 c83e 3de0 0dbd 2297 6ebe de19 1e3f
-0.466833 -0.20166825 0.2820331 0.3380145 0.39069435 -0.03463768 -0.2329984 0.6175822

weight f4 [8, 8, 3]
00000000: fe19 743e 38f3 863d 9e26 973e e077 81bd
00000010: 635e 233c 82f3 9f3d 3c76 8f3e 37af 223e
00000020: 846d a4bd f228 973d 79b6 71ba baa4 4fbe
00000030: ff05 5a3d e8c9 0c3e 47f5 f53d d54f b9bc
00000040: 4eda b83b 2e61 febd 19de 8abb 98cd 16bc
00000050: 849c 3a3e d99a 56be 1117 6dbc a814 d33d
00000060: 144c e93c 8311 553e ca3a 55bd 0bc0 8d3d
00000070: 56ea 00be 2548 92bd 296b 903e 359b 8fbc
00000080: 1a8c 3c3e e85e 473e ba9b 21bd 96cf 7ebc
00000090: 5543 b73d 6c66 c1bd 7e43 133c bb1e f7bd
000000a0: c192 d63d 04af 42be 91b2 03be 1092 2ebe
000000b0: 6e5d 27bd e951 373e db33 41be 8ddd 3abe
000000c0: cf0f e43d 25cd 8ebd efcb a4bd b579 403e
000000d0: 1a2e 013e 2666 07be f84b 38be d3c1 9d3d
000000e0: 26a4 b83d cbc5 f83d 5c3c 08be 2c47 4ebd
000000f0: b7c0 01bd 3eaf c4bd 2ef2 1cbe d67d 46be
00000100: 3a21 de3d bc7d 1bbe eda6 963d b7dd 1e3e
00000110: 507e 7c3d 6305 1abd e08f 04be fdd6 24be
00000120: f38e f2bb 7fdd 2cbe 1170 62be fa9e a4bd
00000130: 04fc 74bd bc21 41be bd08 7dbe 83eb 4fbe
00000140: cadf c53d 84a1 3abe ca31 c63d 5ad5 0a3e
00000150: 0ee5 da3d 2d47 bebd 5009 05bd 5c39 d13c
00000160: a822 4d3e 9991 cfba a357 11be f493 fabd
00000170: a26a c73b 9520 3f3e 7323 643e 01c1 9d3d
00000180: caa9 2e3e e810 953c d770 573d 3eb1 24be
00000190: 368f f1bd 611d b23d 00b3 2a3d 616b 913e
000001a0: 1898 563e e2b1 453e af03 f0bb a3fa 0dbe
000001b0: 65f7 d3bd e7f8 343d d33e 083e d6c8 073e
000001c0: e2cd 923d eaad 32be d173 d43d 20bb a2bd
000001d0: 4152 303d 6866 83be 3d79 6cbe f7d8 8ebd
000001e0: 4d5a 8d3e 44e7 7a3e 4266 433e 7132 a8b9
000001f0: 10c8 3c3e fb6a b0bd 0067 8c3e 49bb 0f3d
00000200: f46b 113e 438e 063e e3e4 503e f2df 31bd
00000210: 3fa4 9e3d bbf3 93bd b911 a6bd 40fc 37be
00000220: 046e 093e a90b 00bd d150 1a3e efe9 023e
00000230: 13c0 473e 5b3a 0e3e 304d ed3d bfe1 133e
00000240: af91 0dbe a5eb 613d 2814 1e3e 909c 29be
00000250: ddc7 b2bd 30c1 35be 13e7 74bd b94c 45be
00000260: e595 70bd 5957 b83d 1241 04be 7bf4 053e
00000270: 3ac4 04bd 4b5b eebd 4089 ba3d 56ba e5bd
00000280: 36e0 943d ddff 073e ea6a 413e ef15 9abd
00000290: 460b fcbd 3f2e 8ebd 7ddd 92bd 1586 1c3d
000002a0: 4d7c bb3e da17 063e d9d7 423e 2681 223e
000002b0: 8a03 03bd d9d3 2ebe 8c09 dd3d beee 443e
000002c0: 6a80 9e3d 415f 76bd d4d6 7e3d b8ec 7abe
000002d0: a023 5d3e ad21 773d db30 38be dea9 4ebd
000002e0: 884b 6bbd bcbb 3a3c 3d92 fabd f627 83bd
000002f0: 4cd2 00bd 538a 1bbe a329 3b3e ca1f 35bb
0.2383804 0.06589359 0.2952165 -0.063216925 0.009971234 0.07810117 0.28019893 0.15887152
-0.08028701 0.073808566 -0.0009220611 -0.20277682 0.053228375 0.13748896 0.120096736 -0.022621075
0.0056412583 -0.12420879 -0.004237902 -0.009204291 0.18223768 -0.20957507 -0.0144708315 0.10306674
0.02847866 0.20807461 -0.05205802 0.06921395 -0.12589392 -0.07142667 0.28206757 -0.017530063
0.1841282 0.19469798 -0.039455153 -0.015552422 0.089483894 -0.094433635 0.008988259 -0.12066408
0.1047721 -0.19012076 -0.12861086 -0.17047906 -0.040860586 0.1790234 -0.18867438 -0.18248577
0.11135828 -0.06972722 -0.0804671 0.18796428 0.12615243 -0.1322256 -0.1799773 0.07702985
0.09015684 0.12147101 -0.13304275 -0.050360844 -0.031677928 -0.09603737 -0.15326759 -0.1938394
0.10846181 -0.15184683 0.07356057 0.15514265 0.0616439 -0.037602793 -0.12945509 -0.16097637
-0.007402295 -0.16881369 -0.22113062 -0.08038135 -0.059810653 -0.18860525 -0.24710365 -0.20304684
0.09661825 -0.18225676 0.09677465 0.1355795 0.1068822 -0.092909195 -0.032479584 0.025540046
0.20032752 -0.0015836238 -0.14193587 -0.12235251 0.0060857097 0.18664773 0.22279148 0.07702828
0.17056957 0.018196538 0.052597847 -0.16083238 -0.117948934 0.0869701 0.041674614 0.28402236
0.20956457 0.19306138 -0.007324658 -0.13865142 -0.10349921 0.044182684 0.13305216 0.13260207
0.07168175 -0.17449155 0.10373653 -0.079458475 0.043047193 -0.25664067 -0.23093124 -0.069749765
0.27607957 0.24502283 0.19081977 -0.0003208104 0.18435693 -0.08614155 0.27422333 0.03509072
0.14201337 0.13140206 0.20399813 -0.04342646 0.07746171 -0.07224222 -0.08108849 -0.1796732
0.13420874 -0.03126112 0.15069892 0.12784551 0.19506864 0.13889448 0.11586988 0.14441584
-0.13825105 0.05515637 0.15437376 -0.1656363 -0.08729527 -0.17749476 -0.059790682 -0.19267549
-0.0587367 0.09001035 -0.12915447 0.13081543 -0.0324137 -0.116385065 0.091082096 -0.112171814
0.07269327 0.13281198 0.1888844 -0.07523715 -0.12306838 -0.069424145 -0.07171152 0.038213808
0.3661827 0.13095036 0.19027652 0.15869579 -0.031985797 -0.17073001 0.107928365 0.19231698
0.07739337 -0.060149435 0.062216595 -0.24504364 0.21595621 0.06033485 -0.17987387 -0.050454967
-0.05744508 0.011397298 -0.12234924 -0.06404106 -0.031450555 -0.15189485 0.18277602 -0.0027637356

bias f4 [8]
00000000: 6aa3 813d a5b5 99bd 20b5 28be 782b 7b3d
00000010: 1804 963a 88a5 42be 9e95 32be 55a1 a0bd
0.06329997 -0.07505349 -0.16475344 0.061320752 0.0011445312 -0.19008458 -0.17439887 -0.07843272

weight f4 [16, 200]
00000000: e89c 443d d10d cc3d fdec 8a3d 0c80 4c3d
00000010: 808e 8bbc 5685 a53b 63b3 b83d dc54 b5bb
00000020: 2365 6f3d cad9 813d f053 473c 0ab4 d53b
00000030: 25d3 da3b 3267 6d3c 8760 ad3b 003e 663d
00000040: 68d9 983c 0640 a83d f16a 303d 9184 6c39
00000050: 0035 0dbd fba7 8b3d 6d54 373d 193d 7b3d
00000060: d2dd 31bd 32f7 123e 7493 783e 3363 1a3d
00000070: 0d60 1b3d cae4 503d b486 a9bc ab47 a63c
00000080: b9e9 d63c fe42 483b 0d67 003c aa46 493b
00000090: 0f68 61bc 7d5c b63d 1a43 3c3c cab0 b33d
000000a0: 8342 823d 96e2 d43c d28f bd3d fdec 213d
000000b0: d88c c4bb b395 003d f62b f43b c463 14bc
000000c0: da26 133c 12e5 983d 92cf d83b d817 843c
000000d0: 4906 573b f289 febb 9cd9 463c d359 4abd
000000e0: 0d66 b2bc 5919 193d 5f30 5f3d 87ce 02bc
000000f0: d9fb 13bc 6e49 d3bb f2d0 76bd 7b58 843d
00000100: 912a 173d 48c8 883c c357 6e3d 1d13 563d
00000110: fb8d d7bb bcea 423d d7c4 8d3d a925 733d
00000120: 8cdd 8a3d 12b9 9dbb f2ed 35bd 85b4 a9bc
00000130: 7981 d5bc 32c2 ecbc 4e8f 2e3d 0a60 a03c
00000140: 2ec8 c33c bd8e f4bc d774 963c 9673 9dbc
00000150: 44fe 5cbc b0a7 373b 46cc 853d 2d97 103d
00000160: 9580 1b3d d1ef 0f3d aecf 43bd 8513 92bb
00000170: 1634 b03d 85f8 863d 1140 c93b 377a 51bd
00000180: 8db0 3b3d c5c7 303d 722c c83c 6c29 a53d
00000190: 9d69 1e3e e695 5d3e 6a00 183e 245d e43d
000001a0: a84e d53d 5a79 1f3d 646d babc 33b1 673d
000001b0: 33da f3bc 4411 39bd 2bef 833d 34e6 4a3d
000001c0: eb41 763d 42d5 9a3b 362f c9bc 3d04 233c
000001d0: 86ed 843d 6007 593d 2bdb 023c f41a 913b
000001e0: 485b 943d 8c0d 883c 307e 613c 04cd c53c
000001f0: 35fd 15bc 14b5 323d c15e 363d 0984 183d
00000200: 365e 12bd 1f7c aa3d 978f 70bc 20e1 6c3c
00000210: 446d 24bd a333 e03c 45a7 27bd d772 aa3d
00000220: 1e22 0c3d 6a32 f43c 1d02 453d d969 753d
00000230: cfa7 893d 97f5 863d fc52 7bbc b236 8abc
00000240: a3b1 28bd 8f51 713d daa0 ab3b 9187 583c
00000250: 285c af3d a0ec b83d 7848 99b8 8a10 353d
00000260: 0fb4 1f3d 612d 62bd d74e 303d 6266 49bd
00000270: 313d 83ba b365 cfbc 8365 fe3c 568e 123d
00000280: a4de cebc 22e5 35bd a1a9 93bc 988f fb3c
00000290: 3ed9 873d 5899 3a3d 6b83 4b3d 9e65 283b
000002a0: ca12 813d 7c61 8a39 f451 ee3b 3dc1 693d
000002b0: 009c bfbb 077f 553d 54ee b0bc 8f53 813e
000002c0: c0e4 8e3e d4f2 343e 2d53 1c3e f13b ccba
000002d0: 9c59 5a3c 2bef dcbc aab1 3cbc 5f09 9cbc
000002e0: f04a f03c 2e2f 14bd 0461 ebbc 0630 353d
000002f0: 55d4 4bbc df31 d7bc 44d6 553c 544d 8d3d
00000300: e96a 733d 61d4 53bd 15b3 01bd 7f98 913c
00000310: d4f0 9bbc 00ab 503d 2205 513c 6dcc bc3c
00000320: 4cac df3d dc6d 393d 6029 ab3d 96fb da3c
00000330: a712 703d f8bb ccba 3eee 9abb 6caa 96bc
00000340: 710f 98bc da29 2abc 99e8 dbbc 35b9 c03d
00000350: f68b efba eb7b 1abc 4c94 de3c deee 5a3c
00000360: 346c 6abb 3c30 e83c 5549 893d 9512 9b3d
00000370: d634 313d fc20 26bd 1524 a03d cc7b a33d
00000380: 7df3 833d 5efd 243e e8eb ee3d 139b ff3d
00000390: 1b62 0fbc 0cd2 853c 5ddc 873d 1570 883c
000003a0: 303d 343d 0d1a 26bd 77ee 80bd 85d6 223d
000003b0: 758f b3bd 9f3c e4bb 1ebf 7a3d 2869 34bd
000003c0: 8479 19bd 6051 00bd 8dad c0bc 5f6e abbd
000003d0: 71c8 4bbd d670 c3bc 03eb 383d aefe 133d
000003e0: 56dc a8bc 70f6 7e3d 47c5 153d b85e 0cbd
000003f0: 7f31 31bd c1a2 753d 14fe 743d f4a0 aebc
0.0480012 0.09963573 0.06783483 0.049926803 -0.017035723 0.0050512953 0.0901859 -0.0055337977
0.05844606 0.06340368 0.012166008 0.0065217065 0.0066780024 0.014489936 0.005291048 0.05621147
0.018658355 0.082153365 0.043070737 0.00022556099 -0.034474373 0.06819149 0.04475825 0.061337564
-0.043424435 0.1435211 0.24274999 0.03769226 0.037933398 0.05099944 -0.020694114 0.020297846
0.026234495 0.0030557509 0.007837069 0.0030712285 -0.01375772 0.089043595 0.011490608 0.08773954
0.06360342 0.02598695 0.09255947 0.03953265 -0.005998235 0.031392764 0.0074515296 -0.009056989
0.008981431 0.07465567 0.006616541 0.01612465 0.0032810143 -0.007767909 0.012136843 -0.04940207
-0.021777177 0.03737769 0.05448949 -0.00798381 -0.009032213 -0.0064479625 -0.06025786 0.06462189
0.03690583 0.016697064 0.058189165 0.05226432 -0.0065782047 0.04758714 0.0692231 0.059362087
0.06780538 -0.004813322 -0.044416375 -0.020715961 -0.026062714 -0.028901193 0.042617135 0.019577045
0.023899164 -0.02985322 0.01836626 -0.019220155 -0.013488356 0.0028023534 0.06533103 0.035300422
0.037964422 0.035140816 -0.04780548 -0.0044578933 0.086036846 0.0659037 0.0061416705 -0.051141944
0.04582267 0.043159265 0.024435256 0.08064541 0.15469976 0.21639213 0.14843908 0.11150578
0.10415393 0.03893409 -0.02275724 0.056565475 -0.029767131 -0.04518248 0.06442102 0.049535945
0.060121458 0.0047251293 -0.024558645 0.009949741 0.064906165 0.05298555 0.007986824 0.004428262
0.07243973 0.016608022 0.013762996 0.02414561 -0.009154608 0.04362972 0.044523958 0.037235294
-0.035734378 0.083244555 -0.014682672 0.014457971 -0.040143266 0.027368372 -0.040931005 0.08322685
0.034212224 0.029809196 0.04809772 0.059915397 0.0672146 0.06589811 -0.015339609 -0.016871784
-0.041185033 0.05891567 0.005237681 0.013215915 0.08562499 0.09029508 -7.309107e-05 0.044205226
0.038990077 -0.055219058 0.043043938 -0.049169905 -0.0010012743 -0.025317049 0.031054264 0.035780273
-0.025252648 -0.04440797 -0.018025221 0.03070812 0.066332325 0.045556396 0.049685877 0.0025695334
0.06302412 0.00026394043 0.007272953 0.057069052 -0.005847454 0.052123096 -0.021598019 0.25259063
0.27908897 0.17670757 0.15266104 -0.0015581829 0.013327029 -0.026969513 -0.011516968 -0.019047437
0.029332608 -0.036177807 -0.028732784 0.04423525 -0.012440761 -0.026268898 0.013051573 0.06899515
0.05942813 -0.051716212 -0.031664927 0.017772911 -0.019035734 0.05094433 0.012757571 0.023046697
0.10921535 0.045270786 0.08357501 0.026731294 0.05861154 -0.0015619984 -0.0047281077 -0.01839181
-0.01856205 -0.010385955 -0.02684431 0.094103254 -0.0018275965 -0.009428958 0.027170323 0.013362614
-0.003577006 0.028343312 0.0670344 0.075719036 0.04326328 -0.0405588 0.07819382 0.07982597
0.06442926 0.16112277 0.11666089 0.1248075 -0.0087514175 0.01633551 0.06633828 0.016655007
0.044003665 -0.040552188 -0.062954836 0.039755363 -0.08767597 -0.0069652344 0.06121742 -0.044045597
-0.037469402 -0.031327605 -0.023520255 -0.08370661 -0.049751703 -0.023857515 0.045146 0.036131553
-0.020612877 0.06224674 0.03656509 -0.03427002 -0.043260094 0.059969667 0.05981262 -0.021316983

bias f4 [16]
00000000: e080 3abd a4ab 3cbd abee 27bc 1882 7dbb
00000010: 585d b93c db71 2bbd 607b 193d 0b7f 533d
00000020: 6c11 933c 6626 1abb 08de d53d d47f f93c
00000030: 551d 4e3c ac4d cf3d 7049 753d d1b9 523d
-0.04553306 -0.046062127 -0.010249774 -0.0038682278 0.022627518 -0.041856628 0.037471175 0.05163483
0.017952643 -0.0023521422 0.1044274 0.030456461 0.0125802355 0.101222366 0.05988449 0.05144674

weight f4 [16, 4]
00000000: 75b1 443e a762 11be 4fc9 263e 2a22 6bbe
00000010: 27b1 0cbe bcbd 18be 14aa a13e 0910 6dbe
00000020: c620 0dbe dbc9 c6be c950 bdbd dbd7 81be
00000030: 4c76 cdbe 3c93 8ebe 85cd 62be 1837 91be
00000040: f60e d53d e3cb b5be e035 a7be 6bf8 00bf
00000050: 72f9 1a3e 4101 193e f3ae e73e a8d9 453e
00000060: 17fd 993e 074a f1be c79b 98bd b3bf 81be
00000070: 44ea 65be a4d7 9dbe 1ed6 0fbe bf68 50be
00000080: 55c9 3d3e 11a9 83be e28d eebe 11d6 723e
00000090: e384 e0bd 0c41 f23a f60e 0b3e c49d 3f3e
000000a0: cf9a ab3c 9ce3 ddbd a698 d53e 250a d73e
000000b0: e89a d3be d4dc 043e 30e7 c63e dfc4 febd
000000c0: 4db5 b43e da17 83be d670 2f3e 998e 78be
000000d0: c5c5 2c3e 386e ef3e bb72 363e 42a0 2cbe
000000e0: 3d05 ae3e d994 a7be 0e7a 223e 3649 85be
000000f0: cbc9 d6ba ae11 613e df0e cf3d 52c7 b1be
0.1920832 -0.14197789 0.1628773 -0.22962251 -0.13739453 -0.14916128 0.31575072 -0.23150648
-0.13782033 -0.38825879 -0.09243924 -0.25359997 -0.40129316 -0.27846706 -0.22148712 -0.28362346
0.10403244 -0.35507116 -0.3265829 -0.50379056 0.15134218 0.14941885 0.45250663 0.1932131
0.30075905 -0.4712679 -0.07451587 -0.25341567 -0.22452646 -0.30828583 -0.14046523 -0.20352457
0.18533833 -0.25714925 -0.46592623 0.23714472 -0.10962846 0.001848252 0.13579926 0.18712527
0.020947842 -0.10834429 0.41718024 0.41999927 -0.41329122 0.12974864 0.38848257 -0.12439894
0.35294572 -0.25604135 0.17132887 -0.24273147 0.16872318 0.46763778 0.17817204 -0.16858009
0.33988371 -0.3273075 0.15866873 -0.26032418 -0.0016387043 0.219794 0.10110258 -0.34722382

bias f4 [16]
00000000: b5a3 cdbe 47f8 9c3e a428 d93e 9059 ac3e
00000010: c417 59be be8e e0be c71e a6be 97d5 b5bd
00000020: 2dd4 76be a4ae a13e 66b8 be3e 183c d73e
00000030: b9b3 c7be 783b 56be a710 30be d55f a03e
-0.4016396 0.3065817 0.4241382 0.3366208 -0.21200472 -0.43858904 -0.32445356 -0.0887863
-0.24104376 0.31578553 0.3725006 0.42038035 -0.39004305 -0.20921123 -0.17193852 0.31323114

weight f4 [1, 32]
00000000: c1a8 81bd 821f 09bd 0d18 013e 94a0 05be
00000010: c49a 0c3e 8def abbd 7b5a 25be caca 6d3d
00000020: 0080 633d bb01 12be 0d94 7a3d fa22 cd3d
00000030: 546b 81bd ee0e 42bc b007 84bd d4cc 9abd
00000040: 3dc8 203e 154d 813c 4e0e 1d3e d677 163e
00000050: 9a70 333e a148 22be ded9 8c3d 4406 bd3d
00000060: fd90 cabd eb66 01bd eb4e 14be 4ba3 053e
00000070: 3655 3a3e 9bf2 62bd b5a3 cd3d 6c6b 07bb
-0.063310154 -0.033477314 0.12606831 -0.13049537 0.13730913 -0.083953 -0.16147797 0.058054723
0.055541992 -0.14258473 0.06117635 0.10016437 -0.06319299 -0.01184438 -0.06446779 -0.07558599
0.15701385 0.015783826 0.15337488 0.14694151 0.17523423 -0.15848018 0.06877492 0.09229711
-0.098909356 -0.03159229 -0.1448323 0.13050573 0.18196568 -0.055407148 0.1004099 -0.0020663394
