examples/micro/dyhpo.pt (torch, 109278 bytes, 37 tensors)

feature_extractor.encoder.0.mlp.0.weight f4 [32, 24]
000000 13 99 d0 3c b7 62 28 be c1 db 11 3e 38 fc 97 bd
       0.025463616 -0.16443907 0.14243986 -0.07421154
000010 97 e9 a1 3d f4 95 39 3e c7 59 f8 3d a1 61 2f 3c
       0.07905882 0.18123609 0.12126499 0.010704429
000020 81 d6 25 bd 79 b4 e2 bd a9 ec b9 3d 78 4c 7e 3d
       -0.04048777 -0.11069579 0.090783425 0.062084645
000030 5b ca 25 3c 64 04 fb 3d bd 48 4f be 6c 81 db 3d
       0.010119046 0.12256697 -0.20242591 0.10718045
000040 5a e5 f1 bd f8 58 15 3e f2 93 43 bd 20 6e 15 3e
       -0.118113235 0.1458472 -0.047748514 0.1459279
000050 b4 45 36 bd 30 99 09 3e 5a 7d 4c 3d 92 00 0f 3e
       -0.044500068 0.13437343 0.049924232 0.13965061
000060 d6 25 8f bd 0d 5e 67 bd 29 3e 33 3e af 34 36 3c
       -0.069896385 -0.05648618 0.17504181 0.011120959
000070 13 34 98 3c cf 82 b8 bd f2 a3 40 bd d7 4b f6 3d
       0.018579518 -0.09009325 -0.04703135 0.12026184
000080 91 fe fe bd 34 ff 21 3e 0d 8e 5a bc ca 8b 08 be
       -0.124508984 0.15820009 -0.013339532 -0.13334575
000090 83 46 bf bd 9f 84 0c bc 5c da 09 be ac b4 c9 3d
       -0.09339621 -0.008576541 -0.13462204 0.098489136
0000a0 f6 6f 37 3e 92 c3 cc 3d d6 be 33 be cc cd 00 be
       0.17913803 0.099982396 -0.17553267 -0.12578505
0000b0 b0 61 4c 3d 66 22 b1 ba 69 e4 c8 3d 2c f0 69 3d
       0.04989785 -0.001351428 0.09809191 0.05711381
0000c0 b4 0c bb 3d 50 d0 ee bd 3b 78 24 be ee b5 82 3d
       0.09133282 -0.11660826 -0.1606149 0.063823566
0000d0 08 0a 78 bd f5 f6 19 3e cd 9c 07 be 14 1f 96 3d
       -0.06055644 0.15035613 -0.13243409 0.073301464
0000e0 27 eb d0 3d d1 67 2a be 23 86 6b bd aa c3 05 be
       0.10201102 -0.16641165 -0.05750097 -0.13062921
0000f0 07 dc 46 be 87 a6 5f bc 35 5b 2f 3e 47 1e fe 3d
       -0.19419871 -0.013650543 0.17124636 0.12408119
000100 0f 8c de 3d 7f 0d 8c 3d 6e 52 ee bd d7 ca 37 3e
       0.10866558 0.06838512 -0.11636816 0.17948471
000110 18 99 e0 bc e3 8c d3 bd a5 ba f4 3c 5f d1 36 be
       -0.02741675 -0.103296064 0.029874155 -0.17853306
000120 38 26 12 bd dc 09 8e bc a9 c5 18 3e 7a 06 b3 3d
       -0.03568098 -0.017338686 0.14919151 0.0874147
000130 65 f9 59 be db 03 54 bd 47 e5 26 be c9 4e e2 bd
       -0.21286543 -0.05176149 -0.162984 -0.11050183
000140 81 74 48 3e 98 71 99 bb e3 f1 be 3d 49 55 81 3d
       0.19575693 -0.004682731 0.0932348 0.06315095
000150 c9 84 b6 bd 58 b7 0a ba 82 37 9e 3c 7d 5b 4c be
       -0.089120455 -0.00052916026 0.019313578 -0.19956775
000160 c2 a6 32 bd 03 15 63 bc 37 ad e3 bd 7c d3 5e 3c
       -0.043616064 -0.01385999 -0.111170225 0.0136002265
000170 1b 1d 79 bd a4 f1 e8 3d cb ba 09 3e f3 85 f9 3c
       -0.060818773 0.11374214 0.13450162 0.03045938
000180 b0 e1 3f bd 7b fd 2c 3e e5 37 23 be ab 07 16 bd
       -0.04684609 0.1689357 -0.15939291 -0.036628406
000190 a1 9d 34 3e b7 33 1d be f3 cc 46 3c da 17 2c be
       0.17638256 -0.15351759 0.012133825 -0.16805974
0001a0 bd 51 17 3e 0c 05 be bd 80 3c 14 be 42 57 b5 3d
       0.14777274 -0.09278306 -0.14476204 0.08854534
0001b0 4e 7a ec 3d 1c c4 16 be e9 62 09 3e e8 4f 09 3e
       0.11546765 -0.14723247 0.13416637 0.13409388
0001c0 14 88 95 bd 6c 29 39 3e 8b d9 f2 3c 51 2b 0e 3d
       -0.073013455 0.18082207 0.029644748 0.03470928
0001d0 eb dd be 3d 5c a6 aa bd cb fa e6 bd a1 32 51 bd
       0.09319671 -0.08332512 -0.11278304 -0.051073674
0001e0 6a d0 7b 3d 92 27 9d 3d d6 ef bc 3d 67 00 74 bd
       0.061478056 0.07673563 0.092254326 -0.059570696
0001f0 0b 42 b4 bd 9b 61 3d bd 6a 99 ee bd 1b 7f 85 bd
       -0.08801659 -0.046235662 -0.11650355 -0.06518384
000200 f6 3b cd bd 70 69 d6 3d 7b 43 2b be 3e f9 10 be
       -0.10021202 0.10469329 -0.1672496 -0.14157578
000210 32 14 3d be 0c 43 1b be 36 b0 48 3c bf b3 9b bd
       -0.18464735 -0.15162295 0.012249043 -0.07602643
000220 4b df c7 bc f5 0b f1 3b 5c ff 2d 3c 7f ea 44 be
       -0.024398467 0.0073561617 0.010619964 -0.19230078
000230 48 09 29 3e 4c 40 0d 3e 3e 61 4e be 52 4a 14 be
       0.16507447 0.13794059 -0.20154282 -0.14481476
000240 38 61 1a 3e 41 5a 19 3d c0 90 2f 3e 4f 7f 2c 3d
       0.15076149 0.03743959 0.17145061 0.0421136
000250 a9 fb 11 3d b4 3a c8 3d cc 49 0a be 6c 95 53 bd
       0.035640392 0.09776822 -0.13504714 -0.05165617
000260 53 af 17 3e 7e e8 ab bd 36 14 c7 bd 2d 9f 12 3e
       0.14812975 -0.08393954 -0.09720652 0.14318533
000270 4b 4f 66 be 28 b4 e9 bd 9b 6d 38 be 68 62 9d bd
       -0.22491185 -0.11411315 -0.18010561 -0.07684785
000280 6c 42 23 be 8c 21 83 3c 6c 04 87 bd 1e ce 65 3e
       -0.15943307 0.016007207 -0.0659264 0.22441909
000290 61 bd 7b 3d bc 9b 6a 3e ab f9 03 3e 12 30 38 3e
       0.061459903 0.2291097 0.1288821 0.17987087
0002a0 74 9e c4 3d 5d a2 91 bd 33 28 b0 bd 69 8c 08 3e
       0.09600535 -0.071110465 -0.086014174 0.13334812
0002b0 98 be 38 3d e8 7c 1e 3e cf e2 0d 3e ee f5 0a bd
       0.04510364 0.15477335 0.13856052 -0.033925943
0002c0 b9 40 b3 3d 34 26 34 be 7d ca 2e 3d 71 b9 e0 bd
       0.08752579 -0.17592698 0.042673577 -0.1097287
0002d0 7b 8b 07 be c2 54 9b bc 69 a5 48 be 04 6a 63 3d
       -0.13236801 -0.018961314 -0.19594349 0.055521026
0002e0 00 7f 1a 3e 64 cc d9 3d 73 54 f2 bc bc f4 ea 3d
       0.15087509 0.106346875 -0.029581284 0.11472461
0002f0 d5 c9 5e 3e 8b e5 d9 ba 47 44 52 3d 11 1d 3d be
       0.2175668 -0.0016624195 0.051334646 -0.18468119
000300 19 a9 d8 bd 3b a7 04 bd 30 cc c1 3d 5d 64 ec 3d
       -0.10579128 -0.032386046 0.09462774 0.1154258
000310 10 ca fd 3c 1b 97 09 3e c0 1f 2c be 30 fb 34 3e
       0.03098014 0.13436548 -0.16808987 0.17673945
000320 86 99 fb 3d 20 32 29 be ae 84 c4 3d fc c7 11 3d
       0.12285142 -0.16523027 0.09595619 0.03559111
000330 2a ea 1d be 27 78 27 3e 03 49 a9 bd 4a 90 3e be
       -0.15421358 0.16354428 -0.08265879 -0.1860973
000340 1f e8 d0 bb 52 62 05 bd 0f 95 53 bd da 38 0c 3e
       -0.0063753272 -0.03256447 -0.051655825 0.13693562
000350 cb 05 9b bd 2a 2c fc bd 1e 05 1a be 52 82 d3 3d
       -0.07569464 -0.12313111 -0.15041015 0.10327591
000360 a9 09 85 3d a3 52 aa bc 40 67 01 bc 14 81 a0 ba
       0.06495983 -0.020791357 -0.007898152 -0.00122455
000370 8f fa 2e 3e 99 c1 8e bd 75 13 d1 3c 77 39 9a bd
       0.17087768 -0.069705196 0.025521973 -0.07530492
000380 9a 83 67 be 1c c8 00 3e ef 20 d5 3d e0 fe 92 bc
       -0.22608796 0.12576336 0.10406672 -0.0179438
000390 35 46 ea bd e6 ca 62 bd 27 ca 34 be 2c 2c 51 bd
       -0.11439172 -0.05536928 -0.1765524 -0.051067516
0003a0 a3 63 c3 3b f7 89 8a 3d 38 bf 30 bc 50 c4 44 bd
       0.0059628054 0.06764596 -0.010787778 -0.04803878
0003b0 c9 92 5b bd e3 e4 10 3e de d3 0a 3e 16 df d4 3d
       -0.053606782 0.14149813 0.13557383 0.10394113
0003c0 1e 39 45 3d 71 f0 11 be 50 77 d9 3d 22 da 34 be
       0.048150174 -0.14251877 0.1061846 -0.17661336
0003d0 5b 39 89 3a b8 6b 3f 3e 19 f6 3f bd b7 60 33 be
       0.0010469364 0.18693435 -0.046865556 -0.17517363
0003e0 f1 e0 dd bd ff 91 5c bd 2f a5 17 bd 80 ba 07 be
       -0.1083392 -0.05385017 -0.037022766 -0.13254738
0003f0 36 74 bd bd da bc 2d bd c2 14 ac bd a7 7c 17 bd
       -0.09250681 -0.04241643 -0.08402397 -0.036984112

feature_extractor.encoder.0.mlp.0.bias f4 [32]
000000 9d b8 6d bd 1c 1c 22 3e 29 11 fd 3d d5 98 6f bd
       -0.05803739 0.15831035 0.12356789 -0.05849536
000010 da e4 4d be ef cd 0f be 04 0a 44 3e da 9d ef 3d
       -0.20106831 -0.14043401 0.19144446 0.1170003
000020 b4 ae 30 be c6 55 5a 3e 70 3f 13 bd 77 a9 b2 bd
       -0.17254144 0.21321782 -0.03594917 -0.08723729
000030 74 23 61 bd f7 7c b5 bd c5 fe 26 bc 25 4a bb 3d
       -0.05496545 -0.08861726 -0.010192578 0.09145001
000040 66 36 36 bc de d4 22 bd 42 7d 2b bd b1 02 df bd
       -0.011121368 -0.039753787 -0.041867502 -0.10889185
000050 d3 de c1 bd c3 62 cc 3d d3 cb ef 3d e3 23 0a 3e
       -0.094663285 0.09979775 0.11708798 0.13490252
000060 e9 d4 f3 3d 2c 5f 46 3e 94 2f 04 be cf 5f c3 3d
       0.11905844 0.19372243 -0.12908775 0.095397584
000070 a5 c4 d4 3d 8d 37 cc bd 40 70 ce bd 73 b4 5d bc
       0.103890695 -0.09971533 -0.10080004 -0.013531792

feature_extractor.encoder.0.mlp.2.weight f4 [32, 32]
000000 c3 b0 94 3c 1b f9 08 3c 27 05 31 be 56 0d 8a bc
       0.018150693 0.008360173 -0.17287122 -0.016852062
000010 70 fc ed 3d 02 f0 26 3e a0 3c da 3c 9e e9 15 be
       0.11620414 0.16302493 0.026640236 -0.14639899
000020 15 e5 a5 3d de 4c 7e bd 86 4e 65 bd 0b 3e bf bd
       0.081003346 -0.062085025 -0.05598309 -0.09338006
000030 2b 92 fb 3d 64 a6 bf 3d 91 d8 7c bd c4 92 ac 3d
       0.12283739 0.09357908 -0.06172997 0.08426431
000040 50 50 5f bc 8f 24 65 3c 8c 44 de 3d 60 50 98 bd
       -0.013629988 0.013985767 0.10852918 -0.07437205
000050 94 bb 84 bd 59 df 34 bd 7a c4 b9 bd 63 26 f6 bd
       -0.0648109 -0.044158313 -0.09070678 -0.120190404
000060 8b 3a 3a 3e 78 47 5a 3d 04 b6 b5 bc c5 62 4d ba
       0.18186395 0.053290814 -0.022181518 -0.0007834847
000070 53 d4 02 3d ed f0 fa bd d7 df 6f bc bd ab da bd
       0.03194077 -0.12252984 -0.01464077 -0.10677288
000080 2c 98 21 3c 2c c9 15 3d e0 a2 50 3d 88 df 18 3e
       0.009862941 0.036568806 0.05093658 0.1492902
000090 db 50 8e bd 26 e3 cb bc 7b 5a cd 3c 71 5c 5f bd
       -0.06949016 -0.024888586 0.025067559 -0.05453152
0000a0 df ae 0a be a9 56 a4 3d e5 e6 26 3e 82 07 42 3d
       -0.1354327 0.080243416 0.16299017 0.04737044
0000b0 ec 46 b5 3d eb 49 ba bd 1f 92 64 bb 67 16 0a be
       0.08851418 -0.0909613 -0.0034877134 -0.13485108
0000c0 78 f3 0c 3d 95 76 b8 3d 01 63 fa bd 8a f5 17 3e
       0.034411877 0.09006993 -0.12225915 0.1483976
0000d0 5e b1 0e 3e 5f e9 71 bd 66 7f ef bd 0f ff ef 3d
       0.13934848 -0.05906045 -0.11694221 0.117185704
0000e0 b2 e3 b9 bb 58 b1 f5 3d 30 35 94 bd 9f 84 36 3e
       -0.0056728953 0.11996716 -0.07236707 0.17824028
0000f0 87 58 09 be 63 bf 98 3c fc 68 47 bd 6a 67 a3 bd
       -0.13412677 0.018645948 -0.048684105 -0.07978709
000100 a6 97 03 3e 87 91 ff bd bd f6 6a 3d b4 75 bf bd
       0.12850818 -0.12478929 0.057364214 -0.09348622
000110 ce 83 b1 bd 8c 1e 40 be 27 a4 09 bb d4 6f 0a be
       -0.08667718 -0.18761653 -0.0021002383 -0.13519222
000120 bb a0 f0 bb 8a 63 94 3c 23 38 f7 3d 83 64 2c 3e
       -0.0073433793 0.01811387 0.12071254 0.16835217
000130 8b c1 0d 3d 5f 20 06 3e 03 a3 01 3e a8 35 33 bd
       0.034608405 0.13098286 0.1265984 -0.043752342
000140 48 53 13 bd f6 60 03 bd d9 cd 26 be af 4a 9d 3d
       -0.035968095 -0.03207489 -0.16289462 0.076802604
000150 b4 15 9b 3c df 49 a4 3d ba b0 fc 3d 3a bd 12 be
       0.018931247 0.08021902 0.123383954 -0.14329997
000160 81 3e a6 3b dd 27 d2 3d 47 38 b2 3d e6 07 18 bd
       0.005073369 0.102615096 0.0870214 -0.037116908
000170 b0 ec 01 be eb 7d 8f bc d2 77 1e 3e 9a 56 37 3e
       -0.12687945 -0.017516097 0.15475395 0.1790413
000180 99 db 04 be 0c 8b 0e bd 03 5b 19 be 8a c2 02 3e
       -0.12974395 -0.034800574 -0.14976124 0.12769523
000190 5f ab 8d bd 4f 42 c8 bd a1 9d be 3d d1 83 20 be
       -0.06917452 -0.09778272 0.09307409 -0.15675284
0001a0 56 75 e1 bd 51 07 32 be 02 a4 c5 3d 66 77 cc 3d
       -0.11008708 -0.17385603 0.09650423 0.09983711
0001b0 f3 e8 c2 3d 97 3d 17 3e c3 a0 ed 3d 09 ab f0 bc
       0.09517088 0.14769588 0.116029285 -0.02937843
0001c0 2d b2 ec bc b0 2a 0a bd bc df c0 3b c2 fe d1 bd
       -0.028893555 -0.033732116 0.005886046 -0.10253669
0001d0 d4 27 c5 3d dd 6b fd 3c 66 52 29 3e 82 27 8c bc
       0.09626737 0.030935222 0.16535339 -0.017108683
0001e0 d9 d7 bb bd 09 61 eb 3d 2a a3 0f bd 75 a4 f4 3d
       -0.09172029 0.11493117 -0.035067715 0.1194543
0001f0 5a 54 5a bd 94 62 b8 bd 44 c6 07 be 02 7d 29 3e
       -0.0533031 -0.09003177 -0.13259226 0.16551593
000200 c6 f4 e0 bb c7 9f b2 3d dc 76 f0 3d fc 3f 17 3c
       -0.006865117 0.08721881 0.117414206 0.009231564
000210 09 60 10 3e 7b 87 aa bd 39 e7 62 bd 72 01 2d 3b
       0.14099135 -0.08326622 -0.055396292 0.0026398567
000220 e4 bb d2 3d 20 65 f1 bd 12 1f 07 be 0a 5e 50 bd
       0.102897435 -0.11786866 -0.13195446 -0.050870933
000230 56 1c 95 bd b3 73 3b be d2 6f a9 3d d2 fb b6 bc
       -0.07280795 -0.18305854 0.08273281 -0.022336874
000240 62 c7 90 bd 5d ed aa bd 58 b3 1d 3e d8 d6 58 3d
       -0.07069279 -0.08346055 0.15400445 0.052939266
000250 a8 bb da bb d0 98 18 3e 69 8b 10 3e 4a 37 b6 3d
       -0.0066752024 0.14902043 0.14115681 0.08897264
000260 93 ea 2c 3e 56 de f2 bd 92 bf 01 be bf a7 65 3d
       0.16886358 -0.118588135 -0.12670735 0.05606818
000270 9f 17 ec bd 42 1e b5 bd 0b 43 67 3d ba e0 70 bd
       -0.11527943 -0.08843662 0.05646042 -0.058808066
000280 cb 6e fa 3d 88 1c 8f 3d 6e 48 d5 bc 95 eb 9e bd
       0.12228163 0.06987864 -0.026035514 -0.077597775
000290 4b 66 98 3d 62 5b 28 bd d7 35 30 bd 54 9d 4d be
       0.07441386 -0.041102774 -0.043020096 -0.20079547
0002a0 55 71 1f 3c 12 38 ca 3d 3f 24 86 bd 99 62 92 bd
       0.00973161 0.09873976 -0.06549882 -0.07147712
0002b0 83 ec 30 be 3b 36 0e 3e bd ec 91 3d 75 35 0a be
       -0.17277722 0.13887875 0.07125232 -0.13496955
0002c0 a2 4e a9 bc ea 37 78 bd 49 53 d5 3d ea da 38 be
       -0.020667378 -0.0606002 0.10416276 -0.18052259
0002d0 04 b2 8c bd fb 9f 91 bd 7a be a4 3d 0a b5 1e 3e
       -0.06869891 -0.07110592 0.08044143 0.15498748
0002e0 92 d7 36 bd 3e e5 53 bd 22 a1 5d 3c 6f 96 16 3d
       -0.044639178 -0.051732294 0.013527187 0.03676456
0002f0 ed e4 93 bd a3 eb 02 3e a1 1e 82 b9 50 d4 55 bc
       -0.072213985 0.12785201 -0.00024818353 -0.0130511075
000300 ff e9 2b 3e 80 79 26 be 01 2d d6 bd d8 67 72 bd
       0.16788481 -0.16257286 -0.104578026 -0.059181064
000310 bf d3 17 bd 74 19 42 bd 1b 65 22 bd 50 30 32 3e
       -0.03706717 -0.047387555 -0.039647203 0.17401242
000320 27 54 fb bd 39 80 c8 bd 8f eb 2c be 89 4c d2 bd
       -0.1227191 -0.097900815 -0.16886733 -0.10268504
000330 e7 79 9f bd 42 be 30 3c dd 09 1e be f7 f1 b9 3d
       -0.07786923 0.0107875485 -0.1543345 0.09079354
000340 bc c3 0e be c3 90 5a 3d 9a 0e 8c 3d e8 7a 2c bd
       -0.13941854 0.05336071 0.068387225 -0.0421094
000350 67 5e 92 bb 7b d4 4a bc c6 9c 14 be c1 4f 8e bd
       -0.00446682 -0.012379761 -0.1451293 -0.069488056
000360 f3 c5 39 bd 9f 7b 29 3d f8 e4 a0 bc db d5 e5 bd
       -0.045354795 0.04137766 -0.01964043 -0.1122243
000370 8a b6 14 3c 38 ff 19 3e ce 44 a3 3d 6d 27 62 3d
       0.009076724 0.15038764 0.07972108 0.05521338
000380 e3 d7 2c 3e 9a 92 56 3d 98 84 8c bd 7b 76 11 be
       0.16879229 0.052385904 -0.06861228 -0.14205353
000390 8e 93 4c bc c7 8c b9 3d 7d ce ef 3d e7 54 d0 3d
       -0.012486352 0.09060054 0.117093064 0.10172444
0003a0 9f 02 b9 bd 1e 3f a0 3d a8 7e ed 3d 5b f0 8d 3d
       -0.09033703 0.07824539 0.115964234 0.0693061
0003b0 b0 9b 32 be 8e 05 af bd 50 f4 ca bd 06 23 16 be
       -0.17442203 -0.08545981 -0.0990988 -0.14661798
0003c0 43 a3 2e bd a0 ee 7a bd e2 2d d9 3d e1 70 eb bd
       -0.042636167 -0.061262727 0.106044546 -0.11496139
0003d0 e3 84 9a bd 23 23 98 bd 7e 7e 01 bc d0 0a 8c ba
       -0.075448774 -0.07428577 -0.007903693 -0.0010684375
0003e0 79 3a e6 bd a2 a5 89 3d 46 c4 b4 3d bc b3 27 3e
       -0.112416215 0.06721045 0.08826499 0.16377157
0003f0 89 5a 9b bd 51 e3 33 3e e4 56 9f bd bf 28 45 3d
       -0.075856276 0.17567183 -0.07780245 0.04813456

feature_extractor.encoder.0.mlp.2.bias f4 [32]
000000 ac d7 16 3e 4d e8 2b 3e fc a1 f0 3d 90 b8 1f 3e
       0.1473071 0.16787834 0.11749646 0.15597749
000010 52 9f 30 3e 86 31 14 3e e8 7a 0f bd 8f 17 43 3d
       0.17248276 0.14472017 -0.035029322 0.04762989
000020 c2 d0 02 3e 80 59 0c be 51 37 0d 3e 4e 99 ec bc
       0.12774947 -0.13706017 0.13790633 -0.028881695
000030 e7 a4 c7 bc a9 3e 70 3d 7a c7 12 3d 1a 15 cb 3d
       -0.024370624 0.058653507 0.035834767 0.09916134
000040 2b 35 0a be 5d f2 5f bd 9d 15 28 be 9c ab ec 3d
       -0.13496844 -0.054674495 -0.16414495 0.115561694
000050 ce 8a 9b bd b3 d3 83 3b 2b 97 8e 3d 60 71 f5 3d
       -0.07594834 0.0040230392 0.06962427 0.11984515
000060 ab e9 e5 bd 9d 97 b5 bd 87 d1 e9 3d 8b c5 11 3d
       -0.11226209 -0.088668086 0.11416917 0.035588782
000070 92 51 a0 bd 2a 4b 1c bd e7 1d 0a 3e 29 be e5 3d
       -0.07828058 -0.03815762 0.1348797 0.11217911

feature_extractor.encoder.0.mlp.4.weight f4 [32, 32]
000000 a3 3c 2d 3d 70 80 22 3d d4 dc f7 3d 40 f5 19 be
       0.042294156 0.03967327 0.121026665 -0.15034962
000010 da ab 43 3d d1 11 a7 bd bb 0e 84 3d 46 63 9a 3d
       0.047771312 -0.08157695 0.06448122 0.07538466
000020 a4 3d 0c be 10 35 2e 3e 41 6f c0 3d 1a 89 89 3c
       -0.13695389 0.17012429 0.0939622 0.016789008
000030 65 bd ab 3d 89 11 31 3e 75 50 e3 bd f4 8a 83 bc
       0.083857335 0.17291845 -0.1109933 -0.016057469
000040 06 1c 9f bd 45 fd 9c bd 41 1d d1 bd bb 89 23 be
       -0.07769017 -0.07665495 -0.10210658 -0.15970509
000050 47 84 2c 3d 28 09 77 bd 74 02 d3 bd 0d a8 08 be
       0.042118337 -0.060311466 -0.10303202 -0.13345356
000060 44 3f 79 3c ce fa 90 3d 9d d3 d1 bd eb 45 65 bd
       0.015212838 0.07079087 -0.1024544 -0.055974882
000070 9e 3a 77 bd 37 08 e6 bd 4e 18 e4 bc b9 54 21 3e
       -0.060358636 -0.112320356 -0.02784362 0.15754975
000080 09 5e 28 bd 06 e3 1a 3e 8c 3f db 3d 0d 9a 3a 3e
       -0.041105304 0.15125665 0.1070548 0.18222828
000090 06 62 7b bc b9 ec 24 3e e1 35 1d be 90 72 cf bd
       -0.015343195 0.16105928 -0.15352584 -0.10129273
0000a0 c4 bb 29 be 82 09 0a be 4e bf c7 3d f6 18 05 3e
       -0.16575533 -0.1348019 0.09753285 0.12997803
0000b0 6f 40 11 bc f1 ea 89 bc 9f ac 06 3e 3b 55 fc 3d
       -0.00886546 -0.016835662 0.13151787 0.12320944
0000c0 06 50 11 bd 9c 26 0e 3e ef 1e ee 3d 41 6e 59 3d
       -0.035476707 0.13881916 0.11626994 0.053083662
0000d0 43 cd f8 bd df 9c 15 bd 7b 4f ec 3d 22 c1 16 be
       -0.121485256 -0.036526557 0.11538597 -0.14722112
0000e0 fe f3 15 bd 7c b2 0e 3e 00 b9 1d be b5 a1 c4 bd
       -0.036609642 0.13935274 -0.15402603 -0.09601156
0000f0 83 0e f1 3c 86 6d 79 bd 1a 6b 2d be 73 e9 33 3e
       0.029425865 -0.060895465 -0.16935387 0.17569523
000100 b2 e4 34 3d fa f7 05 3d 40 d3 9f bc 40 9e 8d bd
       0.044163413 0.032707192 -0.019509912 -0.069149494
000110 86 3c a4 3d cb d9 17 3e 8d 22 17 3e ee 86 b7 bb
       0.080193564 0.14829175 0.14759274 -0.0056008017
000120 65 f4 b2 3d 07 cf a0 3d 91 96 e4 3c 2e 9f 4e be
       0.08738021 0.07851987 0.027903827 -0.2017791
000130 4a 35 db 3d 2d d3 3c bd 76 a7 01 be a6 c9 17 3d
       0.107035235 -0.04609983 -0.12661538 0.03705754
000140 ed 06 7e bd 39 fc 23 3e f3 f1 fb 3c 3d 1a 39 bd
       -0.062018324 0.16014184 0.030755019 -0.04519104
000150 22 38 a3 bc 21 ba 2f be a4 33 1d 3e b4 7b e9 3d
       -0.019924227 -0.17160846 0.1535173 0.114005476
000160 6e 01 12 be a2 69 71 bd e9 3b 51 3d 98 cc 20 be
       -0.14258358 -0.05893863 0.051082525 -0.15703046
000170 0e 55 22 be 55 77 c0 3d 97 2b 99 bd 4d 86 24 3e
       -0.15852758 0.09397761 -0.07479017 0.16066857
000180 7d e7 06 3d 1f 2c a9 38 1b a0 9e 3d 0a bc ed bc
       0.03293561 8.066766e-05 0.077453814 -0.029020328
000190 31 af 51 bd 00 74 9c 3d e4 cf cb 3c bc fc b0 3d
       -0.051192466 0.07639313 0.024879403 0.08641955
0001a0 15 99 d7 bd e0 5a fc 3d 39 14 ce bc 52 e9 b7 3d
       -0.10527245 0.123220205 -0.025156127 0.08980049
0001b0 9f b8 15 3e 40 b1 0d be 0c 3e 74 bd 38 b0 30 bc
       0.14621209 -0.13837147 -0.059629485 -0.010784201
0001c0 78 7d 85 3d 21 23 c5 3d 8f 4a 19 be ff 64 13 3e
       0.06518072 0.09625841 -0.14969848 0.14393996
0001d0 8e cf 29 3e 3d 5e c0 3c bc f8 4f 3d 3e 0f 19 be
       0.16583082 0.023482436 0.05077432 -0.1494722
0001e0 ea 0b fd bc 58 3a a9 3d c9 ce 8c 3d 3a 1e 1d 3e
       -0.03088947 0.08263081 0.06875379 0.15343562
0001f0 e6 03 ca bd 06 79 44 3d 4f 21 df 3d ee 0e 28 be
       -0.09864025 0.04796698 0.10895025 -0.16411945
000200 36 48 b1 ba 5c aa 03 3e 5f ae 3c 3d b3 b4 2f be
       -0.0013525549 0.12857956 0.04606473 -0.17158775
000210 e5 98 3d bc b3 d2 de 3d 0f e5 2e be e9 07 5b 3d
       -0.011572097 0.108800314 -0.17079566 0.05347434
000220 ad ff 23 be c7 69 2c be fb 15 f8 3d 0d 8b 10 3d
       -0.16015501 -0.16837226 0.121135674 0.03528886
000230 32 b2 ba 3d d0 0e 32 3d ea 99 d9 bc 65 05 8f bd
       0.09116019 0.043471158 -0.02656265 -0.06983451
000240 f4 ab c7 bd 10 d7 63 3d d2 6b 08 be 49 60 53 3b
       -0.09749594 0.05562502 -0.1332238 0.0032253435
000250 74 16 0a be 44 a4 2c 3e 15 36 1c be 60 cd 2d be
       -0.13485128 0.16859537 -0.15255006 -0.16972876
000260 06 0c 77 bd 5a a0 1a ba 82 0a f1 3d 85 55 0c 3e
       -0.0603142 -0.0005898528 0.11769582 0.13704498
000270 9e 17 6d 3b e1 1f 9c 3d e4 e4 a1 bd 26 a7 8d bd
       0.0036177407 0.07623268 -0.079049855 -0.06916647
000280 32 f6 1b 3c d8 4a cb bd 09 13 0d be 27 bb b3 3d
       0.009519147 -0.09926385 -0.13776793 0.08775931
000290 1d 01 bc ba 33 bf 94 bd 92 c8 10 be 75 74 13 3e
       -0.0014343594 -0.07263031 -0.14139012 0.14399894
0002a0 ce 4f 23 3c 36 56 37 3b dd 67 b3 3b 14 98 59 bd
       0.009967757 0.002797497 0.005475028 -0.05312355
0002b0 f5 59 f1 bd 61 cf b6 bd d5 36 2d 3e d5 12 91 3d
       -0.11784736 -0.08926273 0.16915448 0.0708367
0002c0 5c 9a d7 3c d5 d8 e7 bd a9 b8 14 bd 2e b0 09 be
       0.026318721 -0.11320654 -0.03630892 -0.13446113
0002d0 8d f8 27 3e de 70 c8 3c 0e 00 ac 3c 4f b2 bd bd
       0.16403408 0.024467882 0.02099612 -0.09262525
0002e0 fb fd e0 3d 63 c2 16 3d 5b 45 d2 bd a6 f8 f7 3d
       0.10985943 0.036806475 -0.10267135 0.12107973
0002f0 3b de d2 bc 86 87 12 3e 1d 56 b1 3c ce 53 e2 3d
       -0.025740733 0.1430951 0.021647507 0.11051141
000300 c3 da f4 3d 4b 75 f3 bd ff 88 b6 bd 40 85 fd 3d
       0.11955788 -0.11887606 -0.08912849 0.12378931
000310 69 6c bd bb e4 33 bf bc 3c c9 8d bd 23 fc 1f 3e
       -0.0057807458 -0.023340173 -0.06923148 0.15623526
000320 65 55 e8 bd 33 be 98 3d 21 7d 30 bd ed 9d ad 3d
       -0.11344413 0.074581526 -0.043088082 0.084773876
000330 68 6f b8 3d a6 be 77 3d 24 26 df 3d a3 1b cf bd
       0.09005624 0.06048455 0.108959466 -0.10112693
000340 f2 f7 40 bd 66 b6 73 bd 8a c1 69 bd e2 1f ac 3d
       -0.04711146 -0.05950012 -0.05706934 0.08404519
000350 dd 49 19 3e 94 45 34 be 5b b4 8f bd d8 18 5f bd
       0.14969583 -0.17604667 -0.07016822 -0.054467052
000360 f7 81 21 3e 54 2c 22 bc 2b 40 16 be db ef 81 bc
       0.15772234 -0.009898264 -0.14672916 -0.015861442
000370 9b 7a 15 be 8c 66 01 3e b2 8e c3 bc ef c6 f7 bd
       -0.14597552 0.12636775 -0.023871753 -0.120984904
000380 6f 45 d9 bc 81 38 fc bc ad 66 39 3d 7f 3f e0 bd
       -0.026522366 -0.030788662 0.045263935 -0.10949611
000390 95 ee 1b be ee 74 50 3c a2 38 87 bd 57 3c e0 39
       -0.1522773 0.012723191 -0.06602599 0.00042769566
0003a0 51 75 8e bd b7 14 91 3d 23 fd 20 3e 29 b5 73 3c
       -0.0695597 0.07084029 0.15721564 0.014874735
0003b0 13 6a 06 be 9e 6b 1e 3e a8 20 24 3e 97 4b 32 bd
       -0.13126402 0.1547074 0.16028082 -0.04352912
0003c0 5e 56 c5 3d 6b fe cf bd 7b e3 31 3e b4 80 22 3e
       0.09635614 -0.10155948 0.17371933 0.15869409
0003d0 8e e6 2e 3e d1 00 78 3d bd 24 b7 bd 52 2b 35 bc
       0.17080137 0.060547654 -0.08942554 -0.011057692
0003e0 94 fe 0c 3e 88 e7 a0 bd ed 02 1f 3d 48 25 92 bd
       0.13768989 -0.07856661 0.03882115 -0.07136017
0003f0 44 ec 2a 3d 03 df 9f 3c 17 43 eb 3d 9c 80 cc 3d
       0.041729227 0.01951552 0.11487406 0.09985468

feature_extractor.encoder.0.mlp.4.bias f4 [32]
000000 c6 b6 9e bd e0 e5 dc 3d e3 ea 39 3e 59 d2 7e bd
       -0.07749705 0.10786033 0.18156008 -0.062212322
000010 c5 fc 16 be 39 2a c1 bd 16 b9 3a 3d 9a 9a ef 3d
       -0.14744861 -0.094318815 0.045586668 0.1169941
000020 2f f5 10 bd 2e c9 2c 3e 54 55 35 bc f6 b5 95 bd
       -0.035390075 0.16873619 -0.011067707 -0.07310097
000030 8a 43 ff bd d0 e4 17 be 99 d9 36 bb da b6 a3 bd
       -0.12464054 -0.14833379 -0.0027900694 -0.079938605
000040 20 31 8e 3c 1d ac fa bd 4e 36 99 3d 03 c0 06 3e
       0.017357409 -0.12239859 0.07481061 0.13159184
000050 76 34 36 3e 92 02 cf bd e3 ca 75 3d b3 8b 20 3e
       0.1779345 -0.10107912 0.06000794 0.15678291
000060 82 fe 18 be 2b 2f ec bd 78 b9 c0 bd 74 60 0e be
       -0.14940837 -0.11532434 -0.09410375 -0.13903981
000070 b8 f0 ac bd 4b f3 a9 3d d4 21 87 3d c8 92 87 bd
       -0.08444351 0.082983576 0.06598249 -0.06619793

feature_extractor.encoder.1.mlp.0.weight f4 [32, 47]
000000 f5 29 d6 3d 78 c3 cb 3d ae 1f 54 3d 0b 77 e5 3d
       0.104572214 0.09949392 0.051788025 0.11204346
000010 47 42 09 3e 11 8d 9d bd 8c 2c ce 3c 28 42 8e 3c
       0.13404189 -0.07692922 0.025167726 0.01736553
000020 21 cc 9f bd ac 68 5d bd d6 b3 f4 bc e8 b3 0d bd
       -0.078026064 -0.0540549 -0.029870909 -0.0345954
000030 ec 23 32 bd 4e 62 77 3d 70 5e fd 3d 78 4d 96 3d
       -0.04349129 0.060396485 0.12371528 0.07338995
000040 f1 47 dd bd 74 f6 92 3d f6 b5 57 bd 22 31 98 bd
       -0.10804737 0.071759135 -0.052663766 -0.07431246
000050 a8 fb f9 ba 7b 3a 06 3e eb 0d e7 3d bf 49 de 3d
       -0.0019072192 0.13108246 0.112819515 0.1085391
000060 70 fa 13 3d 28 a0 5b bd 85 aa f4 bd e2 a1 d7 bd
       0.036127508 -0.053619534 -0.119465865 -0.105289236
000070 c6 0d 00 be 07 6c 31 bd 09 98 f7 bb 04 d5 49 3b
       -0.12505254 -0.043315914 -0.007555966 0.0030797133
000080 ad 9e 74 bd 1b 5f 8d bd b6 68 ab 3d bf 24 8f 3c
       -0.059721638 -0.069029056 0.083695814 0.017473577
000090 6a b2 ba bd 5b 32 97 3d e9 c5 7d bd 30 dd 35 3d
       -0.09116061 0.073826514 -0.06195632 0.044400394
0000a0 06 8c 0d 3d 3f a3 41 bd 6c 8b c4 bd 7f c9 06 3e
       0.034557365 -0.047274824 -0.09596905 0.13162802
0000b0 79 48 4f bd 3d 72 4a 3d 72 6b 00 be 88 47 ec 3d
       -0.050606225 0.049425352 -0.12540987 0.11537081
0000c0 ef ef 0f bc 91 7f f3 bd aa e8 9b bd 5d 7d d7 bd
       -0.008785232 -0.11889566 -0.076127365 -0.10521958
0000d0 5b 58 62 3d 6c 52 8a bd 2a 56 10 3e 8f c6 b1 bd
       0.055260044 -0.06754002 0.14095369 -0.0868045
0000e0 32 02 11 3c 3c e0 02 3d c5 f9 11 be 60 df d3 bd
       0.008850621 0.031952128 -0.14255436 -0.1034534
0000f0 2a 29 bb 3d da 17 3a be b7 3b 9f bd 08 d6 5f 3c
       0.09138711 -0.18173161 -0.077750616 0.013661869
000100 3e e8 aa 3c dd 93 e8 bd 6c 1e b8 3d 3b 4b 12 be
       0.020862695 -0.11356328 0.089901775 -0.1428651
000110 28 b0 99 39 f8 80 16 bc 59 98 f7 3d d0 c2 09 be
       0.0002931368 -0.009186022 0.12089605 -0.13453221
000120 48 ea d3 3d 0d d8 08 3e 74 17 d3 bd e6 98 4f bd
       0.1034742 0.13363667 -0.10307208 -0.050682925
000130 61 c2 67 bd 3f 69 12 be ac b7 c5 bd 10 6b 14 bd
       -0.05658186 -0.1429796 -0.09654173 -0.036234915
000140 b3 fa fa 3c 4d 8b f9 3c 9a 14 ae bd 43 1a 80 3c
       0.03063712 0.030461932 -0.08500023 0.015637523
000150 ed 90 7d 3d 7b 32 0b be 2f ad 15 3d 2e e4 36 bd
       0.06190579 -0.13593476 0.036542114 -0.044651203
000160 a4 d2 85 bd 6c 9a 6f bd bb 01 ec 3d 6a e7 c6 bc
       -0.06534317 -0.058496878 0.115237676 -0.024280269
000170 81 86 1d be 3d 2c f9 bc 5b f0 0d 3e 87 7c 22 3d
       -0.1538334 -0.030416602 0.1386122 0.03966954
000180 29 89 0b bd ac fa e9 3b 0d 02 f2 bd 96 9e 11 be
       -0.034066353 0.007140478 -0.118167974 -0.14220652
000190 f0 4f 56 bd bf c6 56 3d 1a 49 89 bd 38 0d 90 bd
       -0.052322328 0.052435633 -0.06703396 -0.07033771
0001a0 9d 81 67 bd fc 03 d5 bc 5e 1f f5 3d 82 aa 7e bd
       -0.056520093 -0.026002876 0.119688734 -0.062174328
0001b0 75 27 9b 3c 21 57 c0 bc d1 6a c3 bd ee 75 1e bd
       0.018939713 -0.023479046 -0.09541858 -0.038686685
0001c0 69 c2 4b 3d c7 e3 c1 3d d0 8e d7 bc 0c 19 36 3c
       0.04974595 0.09467273 -0.026313215 0.01111437
0001d0 6d 2a 57 bd 40 46 85 3d b0 dd 0c bd f9 9a 51 3d
       -0.052530695 0.0650754 -0.034391105 0.051173184
0001e0 4e 0a cf 3d d6 e4 a5 bd 24 d7 e9 bd 10 c5 1d 3e
       0.10109387 -0.081002876 -0.11417988 0.15407205
0001f0 85 7a e6 3d 46 c1 08 3c b1 f5 af bc ec 2d 00 be
       0.112538375 0.008346861 -0.02147946 -0.12517518
000200 0f f6 8a 3d 3e ab 31 3d 5d 2f ce bd 11 03 9e 3d
       0.06785213 0.0433762 -0.100676276 0.077154286
000210 20 45 ee 3d b8 77 44 3c f5 e1 2c bc 85 7e be 3d
       0.11634278 0.011991434 -0.010551919 0.093014754
000220 2b c1 88 3d 3b df f4 3d ce a2 a6 bc 2a 8f b6 3d
       0.06677469 0.1195664 -0.020341303 0.08914025
000230 de c5 eb 3d 13 b4 76 3d 88 f2 98 3d a4 8c 82 bd
       0.115123495 0.060230326 0.07468134 -0.06374481
000240 74 6f 01 bd 5b 7f 8e bd 3f 3e 83 3d d9 b4 b2 ba
       -0.03160043 -0.06957885 0.06408357 -0.0013634219
000250 d5 fd 92 3d de 42 be 3c ee 62 8a bd 14 e5 ea 3b
       0.07177321 0.023225244 -0.067571506 0.0071684215
000260 92 08 a2 bd 42 e5 cf 3d 26 72 24 3c 3b 8d 42 bd
       -0.07911791 0.10151149 0.010036981 -0.04749797
000270 68 b7 45 bd 6c e8 d5 3d d1 e2 2b be 36 56 b6 3d
       -0.048270613 0.104447216 -0.16785742 0.08903162
000280 95 51 9f 3d 7f 4a cf 3d d1 a6 90 3b 9c 71 5d 3d
       0.077792324 0.10121631 0.0044144173 0.054063424
000290 75 c7 f1 bd ba e2 87 3d 21 80 c6 3d 62 bf de bd
       -0.118056215 0.066350415 0.096924074 -0.10876347
0002a0 bf 99 6c 3d 10 fb f6 bd f4 ca 06 bc 3e a1 09 3e
       0.05776381 -0.12059605 -0.008227099 0.13440415
0002b0 d6 cf ab 3d e6 fe dd bb 97 cd d2 bd 6a 58 cd bd
       0.08389251 -0.006774771 -0.102931194 -0.10026629
0002c0 a8 73 1f 3e 2d 69 8a 3d 46 cf ea bc 04 18 e0 3c
       0.15571463 0.06758342 -0.028663289 0.027355202
0002d0 4e 76 04 be 58 11 75 3d 40 d6 9b bd cb 58 8e bc
       -0.12935755 0.059830993 -0.07609224 -0.017376324
0002e0 29 2c f5 3c 5c c3 c1 bc e7 ef ba bc 70 61 2a 3b
       0.029928284 -0.023652725 -0.022819472 0.0025998019
0002f0 ec 05 e1 bd ee 7e ca bd dd 78 ec bd 2f a0 b7 3c
       -0.10987458 -0.09887491 -0.1154649 0.022415249
000300 45 b5 50 bb 5d 21 71 3d fa 30 b7 3d 4a db 9c bc
       -0.0031846326 0.05886971 0.089448884 -0.019147534
000310 04 38 a1 bd d6 83 98 3c d1 53 96 bd ee 4f 17 3d
       -0.07872012 0.018617552 -0.073402055 0.03694146
000320 aa 4d 8a bd fa c1 f8 bc 12 bc 1f be 97 f8 68 3c
       -0.067530945 -0.030365933 -0.15599087 0.014219425
000330 5d 74 bb ba 64 97 8c 3d 76 e9 a6 bd a8 52 6f 3d
       -0.0014301647 0.06864813 -0.08149998 0.058428437
000340 bf 71 40 3d 36 5e 88 bc 3d 6a 03 3e 8a 0f 5f bd
       0.046983477 -0.016646486 0.12833495 -0.05445818
000350 b4 33 8e bd 12 e3 df bd 51 09 21 3c ec e1 ee bd
       -0.06943455 -0.10931982 0.009828881 -0.11664185
000360 fc 9b b0 bd 18 24 a4 bd a6 54 77 bd c4 07 0a be
       -0.08623502 -0.08014697 -0.06038346 -0.13479525
000370 ee 9d 97 bd 32 31 da 3b 9e f2 c2 bd 34 f4 db 3c
       -0.074031696 0.0066586966 -0.09518932 0.026849844
000380 2f 83 4a bd 64 8e b4 bd 8e a9 f0 3c 3e 28 81 3d
       -0.049441513 -0.08816221 0.029377725 0.06306504
000390 4f 37 fe 3c 03 83 fe bd 3d 86 f3 3d be 64 b5 3c
       0.031032233 -0.12427332 0.11890838 0.022142764
0003a0 4d 6b d9 bd 18 1c 07 3e 09 73 24 bd 1c 94 dd 3d
       -0.10616169 0.1319431 -0.04014877 0.10819265
0003b0 2e 89 95 bd e5 9e 2c bd 43 c9 0e be 9d bd 50 3d
       -0.073015556 -0.04214372 -0.13943963 0.05096208
0003c0 19 71 28 be 51 68 eb 3d f4 51 41 3d cd 23 31 3d
       -0.16449393 0.11494506 0.047197297 0.043247033
0003d0 61 98 50 3c ad 65 93 bc df e5 22 bd cb 53 0d be
       0.012731642 -0.017992819 -0.039770003 -0.13801496
0003e0 54 e6 ac 3d f4 48 eb 3d 27 79 b8 3d ee ed 1c 3e
       0.08442369 0.11488524 0.09007483 0.15325138
0003f0 17 2d 9e 3d 8c 3d 88 3d ec bf c3 3d e3 a1 0f 3c
       0.07723444 0.06652364 0.095580906 0.008766624

feature_extractor.encoder.1.mlp.0.bias f4 [32]
000000 67 4d e7 bc e3 20 d1 3d 02 b8 86 3d 25 49 c5 3d
       -0.02823515 0.10211351 0.065780655 0.09633092
000010 bb b8 00 3e 04 e6 a6 bc da 74 94 3d cf da f2 3c
       0.12570469 -0.020373352 0.0724885 0.029645352
000020 93 50 29 bd fd 6b d6 bd 43 b1 d5 bd 0e 33 8c 3c
       -0.041336607 -0.10469816 -0.104342006 0.017114189
000030 5f a8 2b 3d 6f e6 48 3d dc 50 08 be e3 eb 01 be
       0.041908618 0.049047884 -0.13312095 -0.1268764
000040 a7 ab 09 be 17 ed db 3c 01 8c 82 bb de c9 aa bd
       -0.13444386 0.026846452 -0.003983975 -0.08339284
000050 6c 00 a7 bd ba 8f dd bd cc ed f7 3d 89 35 5d 3d
       -0.08154377 -0.10818429 0.12105903 0.054006133
000060 c3 7d 18 be a8 0f 52 bd a9 c9 c4 3d 97 e2 09 bd
       -0.14891724 -0.051284462 0.09608776 -0.03366336
000070 d3 a4 17 be ce 4b bb 3d df c9 ba 3d e9 29 24 bd
       -0.14808969 0.09145318 0.09120535 -0.04007903

feature_extractor.encoder.1.mlp.2.weight f4 [32, 32]
000000 54 b7 81 3d 0d 2a 28 3e 66 14 03 be 0b 3f 02 3e
       0.06333795 0.16422291 -0.1280075 0.12719361
000010 06 58 d4 3d e9 5d e8 3d ee e2 23 3e d2 2a e1 3d
       0.10368352 0.11346037 0.16004536 0.109944955
000020 c2 65 0a bc fc 2d 25 3e 7c 18 fe 3d a3 d8 57 bd
       -0.0084471125 0.16130823 0.12407014 -0.052696835
000030 57 a3 c9 3d df 13 b3 3d ab 31 7a bb 4a 44 28 3e
       0.09845608 0.087440245 -0.0038176577 0.164323
000040 9a 08 0d bd a1 82 09 3d 72 dc 2f be 2d d2 40 bd
       -0.03443203 0.033571843 -0.17173937 -0.04707544
000050 6f 73 cc bd c0 eb 53 3d bb 2b 8c 3d 37 51 90 3d
       -0.09982955 0.0517385 0.068442784 0.070467405
000060 51 71 21 bc 69 dc 27 bc 92 27 97 3d e6 27 bb bd
       -0.009853677 -0.010245421 0.07380594 -0.091384694
000070 33 78 1c be 54 71 1c 3e f3 69 66 bd b4 83 f2 39
       -0.15280227 0.15277606 -0.056253385 0.00046255963
000080 0b f5 49 bd c3 11 46 3e d2 41 01 be e0 16 0e be
       -0.049305957 0.19342713 -0.12622765 -0.13875914
000090 cc 25 93 3d 4a f4 0f 3e e4 c0 0f be 78 d6 6e bd
       0.071849436 0.14058033 -0.14038426 -0.058310002
0000a0 eb f3 ca 3d e9 20 72 3d 6d 52 c3 3d 86 fa 13 be
       0.09909805 0.059113417 0.09537206 -0.14451036
0000b0 e9 19 d5 bd af a3 b6 3b 69 3d 1f 3d cb 84 b3 3c
       -0.104053326 0.005573712 0.038876925 0.021913907
0000c0 59 65 9e 3d cb 6c 2d bd bd c3 6b bd 03 f0 ca 3a
       0.07734174 -0.04234008 -0.057559717 0.0015482906
0000d0 51 9c 2a 3d 53 05 d7 3d 1f 25 15 be e3 fa 15 3d
       0.04165298 0.104990624 -0.14564942 0.036616217
0000e0 32 68 89 3d da 4d 27 be 27 ad d5 3d 67 92 95 3b
       0.06709327 -0.16338292 0.10433417 0.0045645717
0000f0 d0 36 d6 bc ce 11 13 be 8f 20 9c 3d e7 4a 69 3c
       -0.026149184 -0.1436226 0.076233976 0.0142390495
000100 8c 8d 00 3e 3f 7d 1f 3e 54 b8 13 be 6e 64 54 bd
       0.12553996 0.15575121 -0.14425784 -0.05185359
000110 3a 9d 03 bc 46 1c 85 3d 15 8e 61 3d bf 3f cb bd
       -0.008033091 0.06499533 0.05506714 -0.09924268
000120 8e 1a 14 bd c2 8d 34 3d f1 33 39 be 4b 30 b0 bc
       -0.036158137 0.044080503 -0.1808622 -0.021507403
000130 fb 57 eb 3d f2 27 c6 3d 82 ab 08 be ed f3 e2 3d
       0.1149139 0.09675588 -0.13346675 0.110816814
000140 2f e2 93 3d ef f1 2c be 56 d8 b8 3c 63 f1 1e be
       0.072208755 -0.16889165 0.022564095 -0.15521769
000150 98 61 29 3c 39 24 ee 3d df 78 12 be fd b9 a1 3d
       0.01033821 0.11628003 -0.14303921 0.078968026
000160 bd 10 bc bd a9 21 0b 3e 40 80 c1 3d 78 79 ef 3c
       -0.0918288 0.13587059 0.0944829 0.029232726
000170 a0 a0 e2 bd 35 fb 02 3e d4 ad 83 3c 82 e5 43 bd
       -0.11065793 0.1279114 0.016074099 -0.047826298
000180 c9 bf 23 3e 5f 83 c7 bd eb 65 c0 3c e6 45 9f bb
       0.15991129 -0.09741854 0.023486098 -0.0048606275
000190 82 f3 df 3d 1c ed 05 bd da cc 91 bd 07 0c 27 3e
       0.10935117 -0.03269683 -0.071191505 0.16313182
0001a0 65 b6 73 3d 5a eb e8 bc 53 9c ec bd 1d 54 d2 3d
       0.059500117 -0.028432537 -0.11553254 0.102699496
0001b0 34 ab 47 3d 25 86 da 3d 49 5a d7 3c d1 1d 7b bc
       0.048747256 0.10670117 0.026288169 -0.015326933
0001c0 8e 70 1d bd 07 0f a6 3d ed 26 7e bc 6d 77 04 be
       -0.03843742 0.08108335 -0.01551221 -0.12936182
0001d0 0b 04 db bc d9 d1 1b be 6b f2 2b be dd 2b 82 bd
       -0.026735326 -0.1521677 -0.16791694 -0.063560225
0001e0 b4 08 10 3c eb cd 3e 3d 92 6c d1 bd 0d a3 7d bd
       0.0087911375 0.046583097 -0.10225786 -0.061923075
0001f0 be 5c b5 3d ad af a3 3b 40 70 1c 3d 31 6d 2e be
       0.0885558 0.0049953074 0.038192987 -0.1703384
000200 4c 7a 97 3d 66 5c 48 bd 8e 78 c4 bc 60 f8 d3 3c
       0.07396373 -0.048916243 -0.023983266 0.02587527
000210 68 d6 00 bd ad 26 21 bd d5 34 b3 3d 56 cc 03 be
       -0.031454474 -0.039343525 0.08750311 -0.12870917
000220 f7 a2 0d 3e 01 24 0a 3e 67 61 20 3e 4c b0 8e 3c
       0.13831697 0.13490297 0.15662156 0.01741805
000230 6b 55 7e 3c 0f 9c 27 be 99 9f 3c bd 7c 00 82 bc
       0.015523295 -0.16368125 -0.04605064 -0.015869372
000240 90 e5 13 be 8c bd 29 3d 74 f2 16 3e 50 0b a0 bc
       -0.1444304 0.04144053 0.14740926 -0.019536644
000250 9e 50 aa 3d f0 c8 6e 3c 0f a3 e0 bc 3e a6 09 be
       0.08316158 0.014574274 -0.027421502 -0.13442323
000260 d8 d6 12 3d 62 21 ad 3d 44 8f d3 bd 6d 16 2e be
       0.035849422 0.08453633 -0.1033006 -0.17000742
000270 d0 ce 91 3d 0f 5c 91 bd df cb a7 3d a2 e0 1e bd
       0.071195245 -0.07097637 0.08193182 -0.038788445
000280 89 65 1b be 66 d7 c0 3d 3f 70 75 3d 08 10 e3 3b
       -0.15175451 0.09416084 0.0599215 0.0069294013
000290 cb 3e 9f 3c fc 47 10 be 06 45 35 bc f3 95 a9 3d
       0.019439122 -0.1408996 -0.01106382 0.08280554
0002a0 32 01 0f 3d b6 d7 1a 3e 78 84 80 bd 1f b0 f6 3d
       0.03491325 0.1512135 -0.062752664 0.12045311
0002b0 ce 41 21 3e 32 bb e1 bd 3f f9 08 3e 27 33 da 3d
       0.15747759 -0.11022033 0.1337633 0.10654288
0002c0 5f 98 a2 bc fa 3b cf bd ee 4a 07 3d 4e fe ca 3d
       -0.019848047 -0.101188615 0.033030443 0.09911786
0002d0 a8 a6 01 be 3f 26 d5 3c 56 72 95 3d 96 59 b2 3d
       -0.1266123 0.026019214 0.072971985 0.087084934
0002e0 8c 18 19 be f4 24 b6 bd 91 ba 23 3e 98 66 08 be
       -0.1495077 -0.08893767 0.15989138 -0.13320386
0002f0 c4 bd b8 3d ba f1 40 3d 6a 10 b7 bd 22 2a e6 3d
       0.0902057 0.04710553 -0.089386776 0.11238505
000300 05 0b 58 bd 27 fd 34 3d 88 0a ee bd 97 69 8b bd
       -0.052744884 0.044186737 -0.116231024 -0.06807249
000310 46 f7 b1 bd 41 b9 9a 3c 57 2c 62 bd ab d6 cb bd
       -0.08689742 0.018887164 -0.055218067 -0.09953054
000320 ab 34 c2 bd f5 8a 68 bd 04 01 d1 3d 26 20 2e 3e
       -0.09482702 -0.056773145 0.10205272 0.17004451
000330 de af ea 3d d4 4b ce bd 52 87 45 3c dd 6b a7 3c
       0.11459325 -0.10073057 0.012056189 0.020437175
000340 a5 d8 8e 3c d1 f5 29 be 8a 8b a1 bc 86 e5 e3 3d
       0.017437289 -0.16597678 -0.019719858 0.111277625
000350 98 6c c0 bd f1 62 f4 bc 1e 30 9e 3d 60 6d 32 3d
       -0.093957126 -0.029832335 0.077240214 0.04356134
000360 96 7e 08 3d 20 37 92 ba 26 49 9a 3d 91 cf 07 3d
       0.033323847 -0.0011155345 0.07533483 0.033156935
000370 a9 94 3d bb fe 4c 3e bb 7b 83 21 3e 32 1a aa 3c
       -0.002892772 -0.002903759 0.15772812 0.020764444
000380 13 c6 1a be d0 39 4e 3d 59 2b 29 be 6b 07 22 be
       -0.15114622 0.050348103 -0.16520442 -0.15823142
000390 40 af 53 bd a6 5d 27 3d 2b 4a e6 bc fb a0 97 3d
       -0.051680803 0.040860794 -0.028111538 0.074037515
0003a0 48 a3 d1 ba 86 f6 80 bd 9e 14 2a 3e 45 77 ca 3d
       -0.0015994096 -0.062970206 0.16609427 0.0988603
0003b0 19 6c eb 3d b6 7f 1f 3e af 8e 12 be 4c b0 e6 3d
       0.11495227 0.15576062 -0.14312242 0.11264095
0003c0 99 2c 0f 3e cc 66 22 be 0e 90 86 bd 97 32 b8 bd
       0.13981856 -0.15859526 -0.06570445 -0.08994024
0003d0 b9 71 37 3c d1 37 2b be b1 81 5b 3d 1f 49 aa 3d
       0.011196547 -0.16720511 0.05359048 0.08314728
0003e0 b9 53 9a bd 1f 31 e4 bd 3f 5e ce 3c 33 ef 87 bd
       -0.075355 -0.111421816 0.025191424 -0.066374205
0003f0 0a a7 ed 3d 5c a5 57 bb cb b8 1d 3d 65 22 30 be
       0.11604126 -0.0032904958 0.03850631 -0.1720062

feature_extractor.encoder.1.mlp.2.bias f4 [32]
000000 c7 67 0d be 0d 26 d6 3d e2 09 d6 bd 92 ce 3c bd
       -0.13809119 0.10456476 -0.10451104 -0.04609544
000010 f4 fd 13 be c0 0d bd 3d 82 b0 d4 3c 94 08 15 3e
       -0.14452344 0.09231138 0.025963072 0.14554054
000020 9c b0 bd 3b 78 4f 36 be 70 ca 8d 3d 9b 91 86 bd
       0.0057888757 -0.17803752 0.069233775 -0.06570741
000030 75 03 f4 3c 1a 00 65 bc 44 14 f6 3d 16 a5 bf bd
       0.029786805 -0.013977075 0.12015584 -0.093576595
000040 1a 94 27 3d 56 95 18 bd 35 50 a3 ba 93 65 1b 3e
       0.040912725 -0.037251793 -0.0012459817 0.15175466
000050 ec 8b 93 3d 73 70 c4 3d 84 54 ad 3d 88 c3 63 bc
       0.07204422 0.095917605 0.08463386 -0.013901599
000060 cf 7d 0d 3d 65 53 d9 3c ee 8e 25 bd aa 40 89 bd
       0.03454381 0.026529023 -0.04041951 -0.06701787
000070 00 86 ea bd 63 7e 88 3c b9 3a fb 3c ac 28 26 3e
       -0.1145134 0.016661828 0.03066765 0.16226453

feature_extractor.encoder.1.mlp.4.weight f4 [32, 32]
000000 7f 40 65 bd 2e 94 9d bd aa 7b 0e bd c4 d0 de 3d
       -0.05596971 -0.07694279 -0.034785904 0.10879663
000010 fb 98 be 3d 02 54 ba 3d 32 46 3f be 54 ad 83 3c
       0.093065225 0.090980545 -0.18679121 0.01607386
000020 5f 63 0d 3d 02 65 ad bd 81 d7 eb 3c ff ea c8 bb
       0.034518596 -0.08466531 0.028789284 -0.0061315293
000030 d0 3e af 3d 2b e3 14 be 19 5e d8 3d bb 5a 93 3b
       0.085569024 -0.14539783 0.10564823 0.0044969
000040 b0 d4 e8 bd cc 79 b1 3d 3b dc 7c 3d a8 37 9d bd
       -0.11368692 0.08665809 0.061733466 -0.07676631
000050 c6 93 ec bd 28 aa f9 bd 8b db 29 be b8 24 be 3c
       -0.11551623 -0.12190658 -0.16587655 0.023210868
000060 ba 16 03 be e5 3c 51 bd 07 e4 de bd 93 c7 0e be
       -0.12801638 -0.051083464 -0.108833365 -0.13943319
000070 86 de 13 3c 0a 6f 0e 3d 0d 11 67 bb 4f 4f a6 bd
       0.009025222 0.034773864 -0.0035257966 -0.08120596
000080 37 ac 72 bd 5b 64 32 3e 26 62 1d be 5a 9b 55 bd
       -0.059246268 0.17421095 -0.15369472 -0.052150108
000090 14 c9 a7 bd ee eb 7a 3a 77 09 97 bb 4c ba 9f bd
       -0.081926495 0.00095718994 -0.0046092826 -0.07799205
0000a0 d7 70 aa bd f4 68 5c 3d d7 77 4c 3d 34 bb 81 3d
       -0.08322304 0.05381103 0.049918976 0.06334534
0000b0 8d 0c 04 be 4c 0d 59 3d 1d 50 41 3d fc a0 05 3e
       -0.12895413 0.052991197 0.047195543 0.13049692
0000c0 c6 4e 79 bd 13 2b 7c 3d 33 31 44 3d 53 1c 06 3e
       -0.06086614 0.061564516 0.047898483 0.13096742
0000d0 2a 34 4b 3d 5e 2b b4 bd 99 55 e6 bd f1 2c 33 3e
       0.049610294 -0.08797334 -0.11246795 0.17497613
0000e0 eb 75 2d 3e 4c 7f 93 bc 5d 4f bf bd 69 db 02 3e
       0.16939513 -0.018005036 -0.09341309 0.12779011
0000f0 18 bb 82 3d fa bf b5 bd 37 8c 7a 3d f3 71 0e 3e
       0.063833416 -0.08874507 0.061168876 0.13910656
000100 02 d3 e1 bd 27 54 d3 bd d0 d1 cf bd c0 91 9e 3d
       -0.11026575 -0.10318785 -0.101474404 0.07742643
000110 46 20 0c be da 67 34 bd b3 30 9c bd 64 26 d3 3d
       -0.13684186 -0.044044353 -0.07626476 0.10310057
000120 46 73 ab bc 2c 9f 30 be b4 8b cc bc 48 49 25 bc
       -0.02092899 -0.17248219 -0.02496896 -0.010088272
000130 d4 22 af bd 5f 00 d7 3d 77 72 1f 3e dc a6 e7 bd
       -0.08551565 0.10498118 0.15571009 -0.11311123
000140 69 d3 45 3d 27 6a 05 be 49 49 31 be 94 d9 ab bd
       0.04829732 -0.13028775 -0.17313112 -0.08391109
000150 07 41 06 be 1e 67 39 3e 30 9d 8c 3d df 51 16 be
       -0.13110743 0.18105742 0.06865919 -0.14679669
000160 c2 b9 0d bc fa 5c ae bd 5d d3 0c be d9 11 84 3d
       -0.008650245 -0.085138276 -0.13752504 0.06448717
000170 3c 07 2a 3e 19 03 13 3e 5a 1a 8e bd 84 c5 26 3e
       0.16604322 0.1435665 -0.0693862 0.16286284
000180 fd 61 e9 bc 7f 72 7b 3c f8 13 05 3d 70 c6 ef bc
       -0.028489107 0.015347122 0.032489747 -0.029269427
000190 d4 c7 3e bd 1e 08 84 3d f4 45 d3 3d fb 47 41 3c
       -0.04657729 0.06446861 0.10316077 0.011796947
0001a0 99 5d e4 bd d8 94 de 3d ec ec 0c 3e 72 56 21 be
       -0.11150665 0.108682334 0.13762254 -0.15755633
0001b0 f2 81 80 3d 61 e1 09 be af 71 27 be 4a b0 13 3e
       0.06274785 -0.13464881 -0.1635196 0.14422718
0001c0 29 5c 0f 3d ac 43 0f 3e 22 d7 87 bc ab 9a 50 3c
       0.035 0.13990659 -0.016582076 0.012732188
0001d0 18 29 a3 3c 6f 9a a2 bd 12 d7 26 be c8 56 10 be
       0.019917056 -0.07939612 -0.1629298 -0.14095604
0001e0 cb b6 e3 3d c7 a3 ad 3c 45 e6 e2 3d 05 89 36 3d
       0.11118849 0.02119626 0.11079077 0.044564266
0001f0 18 9a 99 3d c6 46 8c 3d 77 fa 5b bd 92 e9 5e bc
       0.07500094 0.068494365 -0.05370566 -0.013605492
000200 4a ff fe 3b e4 e5 25 3e 79 cf a9 bd 54 09 14 be
       0.0077818977 0.16200978 -0.082915254 -0.14456683
000210 9c ba 03 bd 25 8b e9 bd b1 b9 cc 3d 5d 1f d0 bc
       -0.032160386 -0.11403493 0.09996355 -0.02540558
000220 a3 8a 1c bc 04 a6 58 bd 88 68 e8 3d 7f 3e f8 bd
       -0.009554538 -0.0528927 0.11348063 -0.12121295
000230 61 93 ba bd 5e 0e b3 3c 37 d1 bc bd 4d ce 38 be
       -0.091101415 0.021857437 -0.09219592 -0.18047448
000240 f4 3d 83 3c 2a 56 5f bb 1b a3 34 3e 6b b4 16 3e
       0.016020752 -0.0034078457 0.17640345 0.14717261
000250 62 67 5b bd f9 e7 1f be 27 ad 24 be 0e 64 f9 bd
       -0.05356539 -0.15615834 -0.16081677 -0.12177287
000260 ff ef 0f be bb 9b 2f bb 66 d9 01 bd 90 da 46 3d
       -0.14056395 -0.0026795703 -0.031701468 0.04854828
000270 90 2d 10 3d 25 c1 33 3d f3 54 2e 3c ec 08 5e 3d
       0.0351997 0.04388537 0.010640371 0.054207727
000280 4d 12 fd bc a5 7a 1f 3e 9e 14 c6 3d 9c 73 96 bd
       -0.030892516 0.15574129 0.09671901 -0.073462695
000290 6d af d5 bd 94 fc 02 3e d1 ce 29 bc a3 8a 9c bc
       -0.104338504 0.12791663 -0.01036425 -0.019109076
0002a0 b8 fa aa 3d 92 96 7b bd 56 c1 60 bd b2 58 72 3d
       0.08348602 -0.061422892 -0.05487188 0.059166618
0002b0 d9 52 67 3c 1d 49 9f bd 8e 8d 2c be e2 51 9f bd
       0.0141188735 -0.07777617 -0.16850874 -0.0777929
0002c0 e5 a2 b6 bd 07 34 a8 bd 4d 53 d5 3d 4d 17 1b be
       -0.089177884 -0.082130484 0.10416279 -0.15145607
0002d0 c5 95 5f bc 0f a8 30 3e 68 ce ed bd eb 42 e0 3c
       -0.013646548 0.1725161 -0.116116345 0.027375659
0002e0 24 82 ae bd a0 5b b4 bd 1a 34 fc bd 10 96 26 be
       -0.08520916 -0.088065386 -0.12314625 -0.16268182
0002f0 82 15 06 be 2b 13 d8 3c 99 eb 17 3e cd 7e e8 3d
       -0.13094142 0.026376327 0.14835967 0.1135231
000300 4a 53 8e bd aa aa af 3d 97 78 f7 3d aa 7b 81 bc
       -0.0694948 0.085774735 0.120835476 -0.015806038
000310 ad d3 b0 bd 5c dc 31 3d 86 1f 84 3d ef 6b 5c bd
       -0.08634124 0.04342304 0.06451325 -0.05381387
000320 b8 8f 05 3e e6 d7 d2 3d 88 e2 8c 3c 6e 89 a0 3c
       0.13043106 0.102950856 0.017197862 0.019596782
000330 75 a5 d6 3d 9d cc 2e bd 6e 8f 95 bd 5f 6c c6 bd
       0.10480777 -0.042675603 -0.07302748 -0.09688639
000340 16 23 48 bd 77 24 02 3e 76 36 0c bd f5 7e 62 3c
       -0.048861586 0.12709223 -0.034231625 0.013824214
000350 94 ee b0 bd 7b 55 fd 3c 64 5f 20 3e 90 49 01 3e
       -0.08639255 0.03092455 0.15661389 0.12625718
000360 b6 f6 32 3e 90 22 1a be 3e 3d 67 3d a2 c6 17 be
       0.17476925 -0.15052247 0.05645489 -0.14821866
000370 3e b7 1f 3d df 96 06 3e a0 3b cd 3d 7c f1 2b be
       0.038993113 0.1314349 0.10021138 -0.16791338
000380 02 df 20 3e 5d f8 25 3c 47 6f 28 be a9 5d d2 bd
       0.1571007 0.010130015 -0.16448699 -0.102717705
000390 c6 f3 be 3c 95 6f 05 bd 1f 11 1c 3e 20 c2 fb bb
       0.0233096 -0.032577116 0.15240906 -0.0076830536
0003a0 2c 53 93 bd 6c b9 0a bd e4 37 21 3d af 2a a4 bd
       -0.07193598 -0.03386824 0.039359942 -0.08015954
0003b0 f2 25 6b 3d ac 60 15 3d ad c6 21 be 58 81 51 bd
       0.057409234 0.036469147 -0.15798445 -0.051148742
0003c0 dc 86 93 3d 44 bc 02 be 56 b2 ef 3d 93 e6 dd 3d
       0.07203457 -0.1276713 0.11703937 0.10834994
0003d0 54 21 a7 bc 4b 87 f8 3b c4 26 73 3d c4 d6 81 3d
       -0.020401634 0.0075844876 0.05936314 0.063397914
0003e0 26 65 0b 3d c7 46 b1 3d b3 8c 39 bd ad 30 79 3d
       0.03403201 0.08656078 -0.045300197 0.060837436
0003f0 63 73 86 bd 4a 86 e2 3c 26 e3 00 3e 7d d2 9c bd
       -0.06564977 0.027651925 0.1258665 -0.07657335

feature_extractor.encoder.1.mlp.4.bias f4 [32]
000000 ff 88 28 be 82 fe fa bd 45 e0 50 bd ea 54 49 3c
       -0.1645851 -0.12255575 -0.05099513 0.0122883115
000010 3d 8c 5a 3d 71 41 31 bd 16 2d 11 be 43 07 08 bc
       0.053356398 -0.0432753 -0.14177355 -0.008302513
000020 2a 5e c0 3c 9b 00 b4 bd a4 59 d0 bc 5c 7e 29 3d
       0.0234824 -0.08789178 -0.025433369 0.04138027
000030 92 3f fd 3d 89 69 73 3d 0a 67 04 be 94 44 1d be
       0.12365641 0.059426818 -0.12929931 -0.15358192
000040 7b e8 35 bc aa 36 e9 bd d3 e4 a2 3d bf b0 00 be
       -0.011102791 -0.113873795 0.07953801 -0.12567423
000050 7d 3a 9e 3d 16 15 30 3e bd cc 18 be 0c 61 fe bd
       0.077259995 0.17195544 -0.14921851 -0.12420854
000060 ed cc 99 bd 94 f9 9c 3c 41 2c c0 3d 4e 6f 2c 3e
       -0.075097896 0.019161977 0.09383441 0.16839334
000070 76 37 41 3d ad e9 0c be c6 ab 92 3d 61 46 de 3d
       0.047172032 -0.13761015 0.071616694 0.108532675
